Deep Reinforcement Learning Nanodegree/navigation/weights.pth (torch_old, 54687 bytes, 6 tensors)

_model.0.weight f4 [128, 37]
00000000: af6c d0bd a684 febd 166d 00be fcc3 59bd
00000010: 569d 263e 7f91 663e 73b7 5a3e a086 91be
00000020: 0836 60be d12f c4bb 9895 6b3d 991a 4dbe
00000030: bf7c 5d3e c9f5 fc3d 2162 a2be ba66 303e
00000040: db4d ff3d d8b5 98bc 498e 493e 5049 4e3e
00000050: c9b1 aebe 9680 813e 2105 813d cd52 ce3d
00000060: 8215 a53e 25d5 103e b854 2dbe 1d7f 553e
00000070: 50dc 0b3e 8d3c 3f3c 364d 6ebe dcae 143e
00000080: f479 e53d 90dc 5fbd 471c 58bc 60b0 263d
00000090: c5ff c0bb 6dbc d2be 413a a9be ee8b a23d
000000a0: 8310 07bf 3417 7fbf aa1c ebbd 5c60 3bbd
000000b0: 4c1b ffbe a65c 8fbe d3bd 80be e9f1 05bf
000000c0: 3a0e fcbd 4263 b7be 21b1 e7be fb0f c93d
000000d0: efef e2be 79b8 9abe 6464 333e 04d8 75be
000000e0: 938d 9bbf 4485 e3be eb3d a4bd 5324 06bf
000000f0: db49 51be e131 04be c83b 0fbf aa9e a8be
00000100: cb05 84bb 733f 01bf 7d37 28bf b4ff 9bbe
00000110: 77bc bb3c b7b1 0bbf 8971 56be 32e3 11be
00000120: 52ee eb3e ef87 ec3c 17f4 91bd 158e 6b3d
00000130: 5129 1e3e 812d 363e acc0 3a3e 7e84 fbbc
00000140: 2384 e83b 4802 db3d 21a0 9fbd 85ec 88bd
00000150: 98fa ab3d 44f4 a23b cad4 cc3c 96e2 e2bd
00000160: 8e25 a43d bb04 e1bd 3e39 dd3c 13bb b3bd
00000170: e706 fb3d 83b0 0a3c aff0 92bd c76c f93d
00000180: 9479 733c 3278 9c3d 4f3e 1d3d 9032 723e
00000190: cfc5 19bf 27f0 66bd bd4e bfbe 3835 abbf
000001a0: 8706 ab3d 97aa f43d 3cd8 4a3e 3f1c eb3d
000001b0: 1b1b ad3b efd8 1f3b 185d da3b f4f7 513d
000001c0: b264 ebbd 73d4 8a3e e39a edbe cae1 41be
000001d0: 2db2 0dbd 8bd8 d3bd 2cb6 0c3d 882b 5c3a
000001e0: 0f30 68be 1b43 6cbe ea7a 783e 66aa 0c3e
000001f0: 78ad 42be 81d0 373e 3848 8dbc df2b 96be
00000200: 354e 133e 1e39 1ebe df60 80be 1e5d 623e
00000210: 3d5d 03bd 410d 92be f8fa 893e a62a b5bd
00000220: e680 5a3e 2c5d b8bb f2d8 33be f395 eebe
00000230: 24d8 a7be 2e9c c5be bc16 1ebe bf65 6b3e
00000240: e967 553d a153 363e a9a4 84bd dab6 23bd
00000250: 12f4 bdbe f18e 02be fba7 45be f017 96be
00000260: 6edb e33d ad44 5fbe f32e 2cbe 424b 613e
00000270: f82a 42be e03f 3a3e ff9f fb3c 863b 63be
00000280: abd4 6cbe 1291 63be e48c 4e3e 63e2 fcbe
00000290: 5924 b4be 25f1 b7be 4e60 573c 7cd0 cfbd
000002a0: 2a85 45be d474 0ebe 8bb6 d4be 9387 bebb
000002b0: fa23 233e 7863 8ebe 574c bebe b9de c0bd
000002c0: 537d 61be cc79 f6be a013 23be 2d0c 19bf
000002d0: 808b d5be 7576 ed3c ab61 563d 3676 c8be
000002e0: 620c e2bc dadd 00be ab51 24be cc7a 3dbf
000002f0: 8a46 c53d d87c 94be 6aa6 e3bd 9290 2e3e
00000300: c56c 57be 23f9 02bf db07 66be ca5c 8bbd
00000310: 842a 97be 59bc 64bd 5a88 a5be 0d98 363e
00000320: 2f52 69bb 3f6c 9c3c 3842 0abf 5348 abbd
00000330: 08ed 64be 0502 193e 6c17 19bf e4ee c73d
00000340: f9bc 07bf 79d0 acbd 1da6 473e 71db 933c
00000350: 3007 c4be 59f6 e9be 3a6f 01be 6ee6 f7be
00000360: 55e9 033c 35d8 ae3c fcc2 afbe fe82 46bd
00000370: 7a34 b4bc b4ed 00be 0ef5 0d3e 3364 45bd
00000380: 4503 933d 8b14 84be 665e 263e dca8 4abe
00000390: 7a87 913e 4442 f63c d848 52be f1c3 15be
000003a0: 21b7 183c ee7d 963d 8994 adbe cc5c 8ebd
000003b0: 7d87 703d 472c 4bbe 45f4 6e3e 64d3 55be
000003c0: c9b5 6fbe 7d33 fc3b a27f f2be 0f24 28be
000003d0: 810f 493d 97a2 583d ad6a 77bd 449c 053e
000003e0: dc94 d43d db3b 88be 563e fbbb c8f9 26be
000003f0: ead2 31bd 3085 453c 728e e0bd ca4e c9be
-0.1017698 -0.124276444 -0.12541613 -0.05316542 0.16270956 0.2251644 0.21359043 -0.28423023
-0.21895611 -0.0059871455 0.05751571 -0.20029677 0.21629618 0.12351567 -0.3171549 0.17226687
0.124660216 -0.018641397 0.19683184 0.20145154 -0.34120014 0.25293416 0.062998064 0.10074387
0.32242972 0.14143808 -0.16926849 0.20849271 0.13658261 0.011672151 -0.23271641 0.14519829
0.11204901 -0.054653704 -0.013190336 0.040695548 -0.005889865 -0.41159382 -0.33052257 0.07936846
-0.5275957 -0.9964478 -0.114800766 -0.045746192 -0.49825513 -0.28000373 -0.25144824 -0.5232225
-0.12307401 -0.35817915 -0.45252326 0.09817501 -0.4432368 -0.30218866 0.17518765 -0.24008185
-1.215258 -0.4443761 -0.080196224 -0.52399176 -0.2043833 -0.12909652 -0.55950594 -0.3293355
-0.004029011 -0.5048744 -0.6570967 -0.30468524 0.022917015 -0.54568046 -0.20941748 -0.14246824
0.4608026 0.028873412 -0.071266346 0.057508547 0.15445448 0.17790796 0.18237561 -0.030702826
0.00709583 0.106937945 -0.07794214 -0.066857375 0.08397406 0.0049729664 0.02500381 -0.11078374
0.080149755 -0.109872304 0.027004834 -0.08775916 0.12257176 0.008464935 -0.07174813 0.12178951
0.014860529 0.07640113 0.0383895 0.236521 -0.60067457 -0.05638137 -0.3736476 -1.3375616
0.08350854 0.119466 0.1980905 0.11479997 0.0052827722 0.0024390777 0.0066639297 0.051261857
-0.114938155 0.2711521 -0.46407232 -0.18933788 -0.03459375 -0.10344037 0.03435342 0.00083988206
-0.22674583 -0.23072474 0.24265638 0.13736877 -0.19011486 0.17950632 -0.01724635 -0.29330346
0.14385302 -0.15451476 -0.25073907 0.22105834 -0.03207134 -0.28525737 0.26949286 -0.08846025
0.21338233 -0.0056263413 -0.17563227 -0.46598777 -0.3278209 -0.38595718 -0.1543836 0.22988032
0.05210105 0.1780534 -0.06476719 -0.039969303 -0.37100273 -0.1274984 -0.1930236 -0.29315138
0.11125837 -0.21803541 -0.16814785 0.22001365 -0.18961704 0.18188429 0.03071594 -0.22190675
-0.23128001 -0.22223309 0.20170933 -0.4939147 -0.3518398 -0.35926166 0.013145519 -0.10147187
-0.1928908 -0.13911754 -0.4154552 -0.0058145016 0.15931693 -0.27810264 -0.37167618 -0.09417481
-0.22020464 -0.481398 -0.15925455 -0.59784204 -0.41707993 0.028987149 0.052339237 -0.39152688
-0.027593795 -0.1258463 -0.16046779 -0.740155 0.09632595 -0.29001498 -0.11115725 0.17047337
-0.21037586 -0.511614 -0.22463934 -0.068048075 -0.29524624 -0.055843685 -0.3233059 0.1783144
-0.0035601964 0.019094585 -0.5400729 -0.08363404 -0.22356045 0.14942177 -0.59801364 0.09762362
-0.53022724 -0.084382005 0.19496961 0.018048974 -0.38286734 -0.4569576 -0.12640086 -0.4841799
0.008051236 0.02134333 -0.3432845 -0.048464768 -0.021997679 -0.12590677 0.13863012 -0.04819126
0.07178358 -0.25796923 0.16246948 -0.19790977 0.28423673 0.030060895 -0.205356 -0.14625527
0.009321005 0.07348238 -0.33902386 -0.06951293 0.05872296 -0.19841109 0.23335369 -0.2088142
-0.2340919 0.0076965676 -0.47363 -0.16420005 0.04908705 0.052889433 -0.06040447 0.13047892
0.10379955 -0.26608166 -0.007667343 -0.16306221 -0.043414034 0.01205568 -0.10964669 -0.39317924

_model.0.bias f4 [128]
00000000: f089 39bb 1cff f5bd 4362 6fbd 49d9 ef3c
00000010: ad9b a7bd 8b86 21be aac6 87be 4927 37be
00000020: ecf7 61be 0160 c53d 8485 0f3e 8115 903e
00000030: a6de 8bbe 8760 0f3e 5755 a13c 7e45 e3bd
00000040: 6f42 3d3e 2a84 a7bd 72e4 80bc 06fc f5bd
00000050: 00f8 d33d a142 893d 134c 403e 10e9 e23c
00000060: 9684 173d c475 06be b086 b4bc b133 c03d
00000070: b5d0 f4bc 12d9 96bd d7a8 003e d558 52be
00000080: 81de aebd 8256 2f3e 8464 eabd 2d65 c0bc
00000090: bc9a 7bbe 8f4f 31bd bdd3 4d3d 0172 8dbc
000000a0: 2733 32be 57c1 9a3d 5b13 36be e88b a3bd
000000b0: e382 193e 286c 85bb 49f4 cb3d 1932 84be
000000c0: 1e51 213e 66f9 73bd 2612 0d3e 5e5b 70bd
000000d0: 391e 99bd 1152 683e dba9 fb3d 2089 4cbd
000000e0: e686 193e b8b8 3dbe b58b 00bd c325 b9bb
000000f0: fec6 263d 2f71 b33e 5760 f33d 7007 5abe
00000100: 0899 41be b44e 0e3e 5cdb c53d 82fa b5bd
00000110: f367 433c 0432 993d 4892 943d 2e3d f8bc
00000120: 44c4 b73b be7d 88bd 4cdd 91bc 681f 133c
00000130: 3447 9dbd 86c9 8ebd 47d5 103e 7d85 283e
00000140: e13e 843a 150c 7fbd 2068 9abd 586d f13d
00000150: f0db fb3d 8b5a 91be c0c4 4c3e 1feb 8eb8
00000160: 3bb1 47bc ed0f 133e 2540 0dbe 97e2 fbbd
00000170: 5047 6ebe e8c5 4abe f8b1 b63b 1156 45be
00000180: 4c5e 7d3d 1250 d3bd 42eb 14be 807d 33bd
00000190: b2df 073d eeca dfbc 6bb9 25be 6a34 4e3d
000001a0: 099e 1b3e 3031 c9bd db4b fa3d 736b 373e
000001b0: 5350 bf3d 201d 0dbe 7148 713e ab4a 293d
000001c0: 8616 9abc e03f 383e dd59 e2bd 96d9 5cbe
000001d0: 78ca c2bd f712 6ebe 7bf9 883e babd 5c3d
000001e0: 8c17 b93d 2c28 21be fbb8 1c3d b50c 37bd
000001f0: c30f 453e 4cdb 2cbd 8e43 e0bd 49d1 f0bd
-0.0028310977 -0.12011549 -0.05844332 0.029278414 -0.0818399 -0.1577398 -0.26518756 -0.1788608
-0.22067231 0.09637452 0.14015776 0.28141406 -0.27318305 0.14001666 0.019694014 -0.11097239
0.18482374 -0.08179505 -0.015733931 -0.1201096 0.103500366 0.067021616 0.1877902 0.027699023
0.03699168 -0.13130862 -0.02203688 0.09384859 -0.029884676 -0.073656216 0.12564407 -0.20541699
-0.08538533 0.17122844 -0.11444953 -0.023485744 -0.24570745 -0.043288764 0.050250757 -0.017266275
-0.17402326 0.07556408 -0.17780821 -0.079856694 0.14991336 -0.004071731 0.09958703 -0.2581947
0.157536 -0.059564017 0.13776454 -0.058680885 -0.07476468 0.22687556 0.12288257 -0.04993546
0.14992866 -0.18527496 -0.031383235 -0.0056502535 0.040717117 0.3504729 0.1188361 -0.212919
-0.18906033 0.1389721 0.0966098 -0.08885671 0.011926639 0.07480243 0.072544634 -0.03030261
0.0056081135 -0.066646084 -0.017805718 0.008979656 -0.076795965 -0.06972031 0.14143859 0.16457172
0.001008954 -0.06226738 -0.075393915 0.11788434 0.12297809 -0.2838939 0.19996929 -6.814882e-05
-0.012188251 0.14361544 -0.13794 -0.12299078 -0.23269391 -0.19802058 0.0055754147 -0.19271113
0.061857507 -0.103180066 -0.14542869 -0.043820858 0.033172317 -0.027318444 -0.16184013 0.050342955
0.15197004 -0.09823835 0.122214995 0.17912082 0.093414925 -0.13780642 0.2356279 0.041330975
-0.018809568 0.17993116 -0.11052296 -0.21567377 -0.09511274 -0.23249422 0.26752838 0.053891875
0.09037694 -0.1573798 0.03826235 -0.044689853 0.19244294 -0.042201325 -0.10950385 -0.11758668

_model.2.weight f4 [64, 128]
00000000: 328f 95bd 2c6b b83c b2fb 933d 112c 82bd
00000010: ba3d e5bd fb31 09bd 42a3 9d3c b2cb 133e
00000020: 4ea1 173e 7407 01bd ae03 8a3d 6ec3 883d
00000030: bc6d ee3d 765b b8bd 8d84 17be 0e14 37bc
00000040: dccf 07be f0eb 4abe 064e c73d f45c 123e
00000050: 02f0 633d b08c 40bc 2afe 96bd df6c 03be
00000060: 7baf f83d 8ecf 77bd 4a26 77bd d051 0abe
00000070: e47a 073e dc99 e9bc 6cfc 68bd 7f4a bcbd
00000080: c0ea c9bc bee8 01be 36b7 7d3d 1162 e53c
00000090: 99d9 eebc 66c3 6d3d 01d7 163d a3f5 ddbd
000000a0: 3b5a 113e cf44 91bd 23c1 913d ce07 b9bd
000000b0: acf4 23bd d489 c23d 6be9 f7bd 69d2 7d3d
000000c0: 29f4 613d b357 67bd 4f34 53bd 30dc 14bc
000000d0: bfe3 cbbc 5ad2 42bd bba2 2d3d 9a4f 6ebd
000000e0: 0ab3 e03d 9c2a 983c ffc2 93bc a71f ae3c
000000f0: a085 ab3c 3d1b ddbc c3ca 76bc e2aa e5bd
00000100: efa0 933d ba0e dd3d 962f 0abe cc30 cf3d
00000110: c5b9 863d 77bc 1fbe abd8 8bbc b79a fb3c
00000120: d0e4 8abd 9ace d33d afdf a43d 02a5 19be
00000130: 9d05 fd3d 218c a33b 5144 893d abad 3fbc
00000140: d959 a3bd 7b41 86bd bcb2 713d d9e2 4a3d
00000150: 029c 8bbd af7e d7bc d212 13bd a6e4 6cbd
00000160: 2504 8dbe e064 e1bd 68a1 1ebd bf51 5d3c
00000170: ded6 073e 4b7c b43d ab01 e3bc 7112 dc3d
00000180: 64d2 a93c 0677 913d eeb2 26be ca4c 2dbd
00000190: 2b2c 21be 37bb b13d 1edb dc3d 1075 e63d
000001a0: 7745 6e3e 8c0b 4ebd 6237 aebd 1a41 f9bd
000001b0: c91d 2fbd 1531 22be 0ac5 683b 0ed0 da3c
000001c0: ecd0 a5bd fcc5 b5bd c28f 7c3d 8108 d0bd
000001d0: 5cda bdbe d438 a8bc 02e0 7bbd 6d7e 093e
000001e0: 3adc 6ebb 02b8 27bd 2070 b73d 05f0 1d3d
000001f0: f2f0 b4bd d12e e43a c7f7 47bd dfe9 1a3d
00000200: 7cd1 6a3c 4060 d13b 46e5 41bd d0bb c3bd
00000210: b709 573d 29b9 733d fd5e a23c 2472 bb3b
00000220: 8b4f d0bc 5786 7a3c 970e 953d 8998 e2bd
00000230: b9d1 c7bd 1229 923d 4bcd cabd 5a83 26bd
00000240: 00bd 38be 2222 c0bc 2a2c 7b3d 393d cf3d
00000250: a177 6f3d e5d1 593a 87d8 b53d 7a3e 08be
00000260: 89c4 57be 9418 08be 9776 94be b2e9 77bd
00000270: a955 c3bd f73d 81bd 01c7 e63c 1383 3dbe
00000280: 553e 0abc 7262 9ebd cc83 c63c 57b7 493d
00000290: a975 b73d b01f 33bd 0d2b 0ebc 110e 793b
000002a0: cb7f b5bc 1294 cebb ad35 6bbd e577 64bd
000002b0: e0e1 e33c b72a 9dbd 13d7 59be ef03 30bb
000002c0: dad7 72bc 8da1 83bd 7ce4 eb3c 7e7f b83b
000002d0: bcab b6bd 7f58 8dbb c5ce ab3d 332b 7a3d
000002e0: 70c0 7c3d e8c6 823d 977f b0bd 5cc2 efbd
000002f0: 8e51 dabd ab29 2cbe 31fb cbbe a948 83bd
00000300: be69 a33d eed9 f8bd dd2d a1bc a7f7 9d3d
00000310: 6f01 5fbd b41c 303e 35d8 2dbd 0182 e83c
00000320: 520d b7bd 5d11 283d 1756 f53b 0d22 6ebd
00000330: 67ed 60bc bea0 c6bc b6ba acbd 796b 1bbe
00000340: a75c fdbc 6da6 bcbd d9ec 153d 351a 2fbd
00000350: 1d9f 3ebe 0cb8 abbd d99c 5abd e022 45bb
00000360: 15b7 2fbd d516 c23c 92e3 45bd 48eb 90bc
00000370: 79ed 473e 0d65 7d3d 8a7e 643c 4acd 943d
00000380: bc70 953d 8563 8abe c412 31be f55c a5bd
00000390: c9b4 ffbd 9296 c93c 9f69 61bd 940c dabd
000003a0: e0ec ac3c 26d2 9abd f7e3 76bd 4ddb 433d
000003b0: 8edf 323d b0b7 823c 2b31 67be 4219 5a3c
000003c0: 9d82 c4bd 765c 6ebc fc8b 9ebd 7c85 7b3c
000003d0: 2a26 1cbe c160 fe3c 1aeb 3dbe 31ea c5bd
000003e0: 6b5e 2dbd 1427 d33c a31f 31bc 7619 d3bc
000003f0: 27f6 2dbe a282 d53d d79f 283d 2f3a 513d
-0.07302703 0.022512041 0.072257414 -0.06356061 -0.11193414 -0.03349493 0.019242886 0.14433172
0.14807627 -0.03150125 0.06738983 0.066779 0.11642024 -0.0900182 -0.14796658 -0.011174215
-0.13262886 -0.19816566 0.09731679 0.14293271 0.05564881 -0.0117522925 -0.07372697 -0.128345
0.12142845 -0.060500674 -0.06033925 -0.13507771 0.13230473 -0.028515749 -0.056881353 -0.091938965
-0.02464807 -0.1268644 0.0619423 0.028000863 -0.029156493 0.058047675 0.036826137 -0.10837867
0.14194576 -0.07093202 0.07116916 -0.09034692 -0.04002826 0.09498945 -0.12105068 0.06196824
0.05516449 -0.05648012 -0.051563557 -0.0090857 -0.024888871 -0.047563888 0.04239152 -0.058181383
0.10971649 0.018575005 -0.018037317 0.021255327 0.02093774 -0.026990527 -0.015062991 -0.11214234
0.0720843 0.107938245 -0.13494715 0.10116729 0.065784015 -0.15599237 -0.017071089 0.030713422
-0.06781924 0.103421405 0.08050477 -0.15004352 0.12354586 0.00499107 0.067024834 -0.0116991205
-0.079761215 -0.06555458 0.059008345 0.049532745 -0.068168655 -0.026305525 -0.03590662 -0.057835244
-0.27542225 -0.110055685 -0.038728148 0.013508259 0.13265559 0.088127695 -0.027710756 0.10745705
0.020730205 0.0710278 -0.16279194 -0.04230956 -0.15739505 0.086782865 0.10783981 0.11252797
0.23268686 -0.05030398 -0.08506657 -0.1217062 -0.042753015 -0.15839036 0.0035517835 0.026710536
-0.08096489 -0.08875653 0.061660536 -0.10157872 -0.37080657 -0.02053491 -0.061492927 0.13427134
-0.0036447183 -0.040946968 0.08956933 0.03855898 -0.08835019 0.0017408972 -0.048820283 0.037820693
0.0143321715 0.0063896477 -0.047337793 -0.09557307 0.0524995 0.059502754 0.019820685 0.0057203937
-0.025428554 0.015290818 0.072781734 -0.1106425 -0.09756798 0.0713674 -0.09902438 -0.04065261
-0.18040848 -0.023453776 0.061321415 0.10119099 0.058463696 0.000830917 0.0887919 -0.13305083
-0.21071066 -0.13290626 -0.28996727 -0.060525604 -0.09537823 -0.06310647 0.028171064 -0.18507032
-0.008437713 -0.07733621 0.024232768 0.049247112 0.08957989 -0.04373139 -0.008677256 0.003800277
-0.022155663 -0.0063042725 -0.057424236 -0.055778403 0.027817667 -0.07674163 -0.2127345 -0.0026857813
-0.014821971 -0.06427298 0.028795473 0.0056304326 -0.089194745 -0.004313528 0.083890475 0.061076354
0.06170696 0.063855946 -0.08618086 -0.11706993 -0.106600866 -0.1681277 -0.3984008 -0.06410343
0.07979153 -0.12150942 -0.01967519 0.077132516 -0.054444727 0.1719845 -0.04244252 0.028382303
-0.089380875 0.041032184 0.0074870693 -0.058137942 -0.013728476 -0.02424657 -0.0843405 -0.15177716
-0.03092797 -0.09211431 0.03660283 -0.042749602 -0.18615384 -0.083847135 -0.053372238 -0.0030080602
-0.04289921 0.023692528 -0.04831273 -0.017690316 0.19524182 0.061863948 0.013946185 0.07265718
0.07296893 -0.27029052 -0.17292315 -0.08074371 -0.12485654 0.02460793 -0.05503237 -0.1064693
0.021109045 -0.07559614 -0.060275998 0.047816563 0.04367023 0.01595673 -0.2257735 0.013311686
-0.09595225 -0.014548412 -0.07741544 0.015351649 -0.15248933 0.031051995 -0.18546715 -0.09663809
-0.042326372 0.02577547 -0.010810765 -0.025768977 -0.16988431 0.10425307 0.04116806 0.05108088

_model.2.bias f4 [64]
00000000: 4940 03bd 4529 a6bd 6199 43bc 03d5 c93d
00000010: 0612 453d b5f9 f7bc 8923 de3d 7ef6 c63c
00000020: 93cb 6d3d ffa9 83bc ab13 8f3d 8551 7a3d
00000030: 71e5 253d b74e 9e3e 467f 713d 8c9f cebd
00000040: 7304 603e 2fb8 c23c 3e0c b73c b7b0 093e
00000050: ab40 163e d7cf 273b 09d0 43bd e0a7 e9bc
00000060: ec67 493e 70ed 91bd e317 cabc a68e 543e
00000070: 2ef2 653d fdec e4bd e09a fa3d 0d64 213e
00000080: f29f 813e 432c 8c3d 7fdf 353e 4b80 93bd
00000090: 9332 263d 64e8 1d3e fdc8 2d3e 5a2a 08bd
000000a0: 6deb dbbd b7b0 8f3e 0802 a8bd 6112 6d3e
000000b0: af20 df3d 9832 183e 5709 4d3e b8d3 513e
000000c0: 28aa 583e a44b 953d 3af5 8e3e a92d f33d
000000d0: 7967 3e3e 8d19 5e3c 5818 c5bc 9fdd 723e
000000e0: 6378 2d3e 6341 84bc ee9e 273d 524e 5d3c
000000f0: d610 b43c 6001 923e f71f 423d 4aee 0e3e
-0.03204373 -0.0811334 -0.011938424 0.09855082 0.04811289 -0.030270437 0.108466215 0.024287459
0.05805547 -0.016072271 0.06986173 0.0611129 0.040502016 0.3091943 0.058959268 -0.10089025
0.21876697 0.023769466 0.022344705 0.13446318 0.14673106 0.002560606 -0.04780582 -0.028522432
0.1966855 -0.07125366 -0.024669593 0.20757541 0.056139164 -0.111780144 0.12236571 0.15760823
0.2531734 0.0684438 0.17761038 -0.07202204 0.040575575 0.15420681 0.16971202 -0.033243515
-0.10738263 0.2806451 -0.082035124 0.23151542 0.10894906 0.1486305 0.20023094 0.2049092
0.2115866 0.07289818 0.27921468 0.11873943 0.18594159 0.0135558965 -0.02405946 0.23717354
0.16940455 -0.01614446 0.04092305 0.013507443 0.021980684 0.28516674 0.047393765 0.13958088

_model.4.weight f4 [4, 64]
00000000: aee8 81bc 7641 29be bd3f 49be 23de 523e
00000010: f3d4 4e3d 8bcf c43d e324 123c be8f 9e3d
00000020: 5f97 7fbc e8ce 2a3e 8be1 bf3d e397 51bb
00000030: 1874 a43c 677c f13d 428a 893e b343 063e
00000040: b19c d23d 8f0d 4dbe 846a 033e 06fe 153d
00000050: d7cb ea3d d401 cd3e 7aa7 333e 7208 c63e
00000060: fdc8 563d 378a 89be 29f0 573e f284 ec3d
00000070: 9717 c03e e967 8ebd a393 c13c 0bcf 123d
00000080: 4dc7 283e 15b9 fb3c 2dbd c63d 05de 8d3b
00000090: 6753 3b3e 6863 dd3d ea28 07bc 089e 93be
000000a0: 2c81 57bd c8f4 c53d 88b6 aa3d 7e93 2f3e
000000b0: c82b 1c3e 769b d83d d3a9 4b3c 3682 f53d
000000c0: d347 593d 804f 023e 8db8 1d3e 4347 573e
000000d0: 8a79 083e a8aa 9abd 603b b53d 70b8 dc3d
000000e0: 2083 8f3e f4e7 ff3d 82ce 533e 7769 cd3d
000000f0: 756a b9bd b2de 853d f569 263e 4d16 833e
00000100: 207a 1e3c 5212 1fbd 35a5 483d c1aa b93e
00000110: 78ee 133e 6b16 733e 0155 bc3d d76a d8bd
00000120: 5677 90bc c81a b03d b447 303e a255 d93d
00000130: ec0b 833d bb0d dd3d 3145 253c 640b 13be
00000140: a680 ef3d aa82 6abd cb8c 083e b9d7 8abd
00000150: bd7d 0f3e 8dee a43e 9551 c03e cfe4 b03e
00000160: d282 163e 236b 0e3e 4898 513d 6e42 ca3d
00000170: 927a b8bd f0ae d8bd df37 423d 16ed 203d
00000180: a1c5 a23d 33bf 573e 285b a73d 8459 29bd
00000190: 1357 e63d d168 313e 4f69 ca3d df0f f03d
000001a0: ab26 95bd 0714 59bc 0378 e0bd 51cc 3d3e
000001b0: 6b37 123e 2b5f a03d d627 053e a026 0e3e
000001c0: 9162 823d 65ec cbbd 6d03 2c3d 013e 2c3e
000001d0: c51b 283e 1bd1 afbd ca4c 033d 875d 2c3e
000001e0: 137c ba3e c97f ba3e c706 283e cef2 71bc
000001f0: 2588 d73c 99ee 433d f0de 103d 18a8 2d3e
00000200: 8d40 9bbe d7a2 4ebe 9600 06be d16f 693d
00000210: 5752 053e f1f3 93be da2d cc3d 68d5 f3be
00000220: 348c a6bc 514b bd3e 5db4 483e cfdb 053e
00000230: 55f5 cbbe 15a3 073e 6a2c abbe 26c4 7e3e
00000240: 7d77 473d 9d4f 14be 2a7d eb3e 37a7 96bd
00000250: a19f 9e3d 9562 8f3d ec7e 483d 956b ce3e
00000260: 8ad5 033e e9db 4b3e cb8b 3a3e b55c 3d3d
00000270: 3077 173e 3ef6 53be 7e24 733d 0f99 243e
00000280: 8254 003e dffe ebbd 4bc2 173e 74dc 2abd
00000290: 83fb c03d 624b fc3b 45aa 043e ea4b f3bd
000002a0: 2256 debc c696 303e 3f3f 22be 4339 ca3d
000002b0: eca1 883d 1c08 1cbd 63ee 033e 8dbf cd3d
000002c0: 179f e33d 87ae 2c3d 26f4 103e 8b13 99be
000002d0: 0613 9d3d 37a3 5fbd a7fd 65bd 32f4 133e
000002e0: 3de6 31be e497 b3be f401 b63d dcf1 973d
000002f0: d5a6 a03d f115 ef3d 2a94 063e 174a 063e
00000300: 4e87 50bd 4671 d33c ee57 d5be 0eb4 463e
00000310: f361 4cbf 66f1 f23e 3a50 203e 0f3d 85be
00000320: 63de e7bb 4436 08bf 4cc8 4f3e 2bdd f0be
00000330: 98bf 203d 8218 f03d 724d e33e ae63 a4bd
00000340: 38a4 f03d 26eb f93d b368 f73d 6a99 403e
00000350: e5c2 ba3d 0361 f2ba f61c 333f de5c ec3d
00000360: b03e f53d dd60 7cbd 0a53 253e 532a b13d
00000370: cab6 ae3e a005 4d3c 400a 063e c27a 163e
00000380: 7c0c 203e 50fe 1e3e 69ed f53d e0f8 7cb9
00000390: fc6e 94bd 2055 433e a8be dc3d cb82 33be
000003a0: e84c 823e 5195 1c3e a3fd ad3e 3afa 1a3e
000003b0: 504e 843d e309 40be fc99 e13c 1d52 393d
000003c0: 872b 823d 0008 d23d bb9d 3d3e de4d 823d
000003d0: bb1f 953d 009a df3d 28a6 abbd 3f25 e03c
000003e0: 9bb5 483e 15cf 663e 17a2 d23e d3a3 a3be
000003f0: 57aa b1bc b500 083e 1c51 f3bd 2b5e 8b3a
-0.01585802 -0.16528878 -0.1965322 0.20592551 0.050496053 0.09609898 0.008919927 0.077422604
-0.0156000545 0.16680491 0.09369191 -0.00319814 0.020074889 0.11791306 0.26863295 0.13111763
0.10283793 -0.20024703 0.12833601 0.03661921 0.114646606 0.40040457 0.17544356 0.38678318
0.05243777 -0.26863262 0.21087708 0.11548795 0.37517998 -0.06953413 0.023629969 0.035841983
0.16482277 0.030727902 0.09704051 0.0043294453 0.18293534 0.10809976 -0.008249501 -0.28831506
-0.052613422 0.09665829 0.08335596 0.17146108 0.15251076 0.10576527 0.012430626 0.119877264
0.053047013 0.1272564 0.15402432 0.21023278 0.13327613 -0.07552081 0.088492155 0.10777366
0.28029728 0.124954134 0.20684245 0.100298814 -0.09053508 0.065366164 0.16251357 0.25602952
0.009672672 -0.03883583 0.04898568 0.36263087 0.14446437 0.2373902 0.09195901 -0.10567253
-0.017635029 0.08598858 0.17214853 0.10612036 0.06398758 0.107936345 0.010087297 -0.14359814
0.116944596 -0.057253517 0.13334958 -0.06779427 0.14012809 0.3221325 0.37562242 0.34549567
0.14698341 0.13908057 0.051170617 0.09875952 -0.090077534 -0.10580242 0.047416564 0.039288603
0.07947851 0.2106903 0.081716835 -0.041345134 0.11247077 0.1732514 0.09883367 0.11721777
-0.07282766 -0.013249404 -0.109603904 0.18534972 0.14278953 0.07830652 0.13003477 0.13881922
0.06366456 -0.09957198 0.041995455 0.16820528 0.16416843 -0.085848056 0.032055654 0.16832553
0.36422786 0.36425617 0.16408835 -0.014767362 0.026310036 0.047834966 0.03536886 0.16958654
-0.30322686 -0.20179306 -0.13086161 0.056991402 0.13019691 -0.2889705 0.09969683 -0.47623754
-0.020330526 0.36971524 0.19600053 0.13072132 -0.3983561 0.13245805 -0.33432323 0.24879512
0.048697937 -0.14483495 0.4599393 -0.073561125 0.077452905 0.07001225 0.048949167 0.40316454
0.12874427 0.19908108 0.1821739 0.04623099 0.1479156 -0.20699403 0.059360974 0.16074012
0.12532237 -0.11523222 0.1482021 -0.041714147 0.09422972 0.007699416 0.12955578 -0.11879714
-0.02714068 0.17245016 -0.15844439 0.09874203 0.06671509 -0.03809367 0.12883906 0.10046301
0.11114328 0.04215863 0.14155635 -0.29897723 0.07669644 -0.054599013 -0.056150105 0.14448622
-0.17372985 -0.3507682 0.08887091 0.07419178 0.07844321 0.11674107 0.13142458 0.131142
-0.050910287 0.025810849 -0.41668648 0.19404623 -0.7983696 0.47449797 0.15655604 -0.26023147
-0.007076071 -0.532078 0.20291251 -0.47043738 0.039245218 0.117234245 0.44395024 -0.08026825
0.11750072 0.12203054 0.12080517 0.18808523 0.091192044 -0.0018492047 0.69966066 0.115411505
0.11974847 -0.061615814 0.16144958 0.08650651 0.34123832 0.012513548 0.13089848 0.14695266
0.15629762 0.155267 0.12008173 -0.00024125306 -0.07247731 0.19075441 0.10778552 -0.17530362
0.254493 0.15291335 0.33982572 0.15134516 0.064602494 -0.18753771 0.027539246 0.045244325
0.063559584 0.10255432 0.185172 0.06362508 0.07281443 0.10918045 -0.08381301 0.02736151
0.19600527 0.22539933 0.4113929 -0.31960925 -0.02168767 0.1328152 -0.11880705 0.0010632923

_model.4.bias f4 [4]
00000000: 4ad7 743e adc3 0a3e 7562 ab3e 4843 f03d
0.23910251 0.13551207 0.33473554 0.11731583
