Deep Reinforcement Learning Nanodegree/continuous-control/actor_weights.pth (torch_old, 66885 bytes, 24 tensors)

model.0.weight f4 [33]
1.189771 0.7645595 1.0594481 0.24477223 0.12181358 0.22665176 0.3311278 0.17992692
0.13159943 0.16408084 0.40565455 0.3281619 0.41668534 1.3132875 1.3266922 1.6022733
0.46694073 0.497 0.37516657 0.8364693 0.3094881 0.2761317 0.30361727 0.929554
0.6473828 0.93798965 1.2836131 0.49661767 1.2600911 0.20887369 0.8593124 0.9363484
2.284668
00000000: 6b4a 983f 2cba 433f ff9b 873f 92a5 7a3e
00000010: 6679 f93d 6617 683e 9589 a93e c33e 383e
00000020: 00c2 063e cf04 283e f4b1 cf3e d604 a83e
00000030: c857 d53e ce19 a83f 0dd1 a93f 4b17 cd3f
00000040: db12 ef3e c976 fe3e d515 c03e da22 563f
00000050: 3975 9e3e 2261 8d3e b973 9b3e 40f7 6d3f
00000060: e1ba 253f 1720 703f 6f4d a43f ac44 fe3e
00000070: aa4a a13f fce2 553e e6fb 5b3f 87b4 6f3f
00000080: 0038 1240

model.0.bias f4 [33]
0.12084043 0.13915676 0.24771641 -0.38426682 0.2535193 -0.21466038 -0.2006899 0.026467653
-0.45539775 0.21717443 -0.16667397 -0.41427228 -0.037252028 0.11576537 0.03586085 -0.10841628
-0.06746826 -0.13551095 -0.10140586 0.23127823 -0.067107156 0.034678217 0.20012814 0.06503328
0.11578714 -0.17484628 0.043937933 -1.0206798 -0.16892338 -0.45174247 -0.6271461 0.8270017
0.12062738
00000000: 307b f73d 1c7f 0e3e 5fa9 7d3e 9fbe c4be
00000010: 48cd 813e eecf 5bbe a781 4dbe b1d2 d83c
00000020: e529 e9be f962 5e3e 95ac 2abe 7f1b d4be
00000030: 9595 18bd 6516 ed3d d4e2 123d 5b09 debd
00000040: cd2c 8abd 62c3 0abe e0ad cfbd 33d4 6c3e
00000050: 7a6f 89bd bf0a 0e3d 64ee 4c3e 2b30 853d
00000060: cf21 ed3d e70a 33be 43f8 333d a3a5 82bf
00000070: 40fa 2cbe ca4a e7be a68c 20bf 62b6 533f
00000080: 7d0b f73d

model.0.running_mean f4 [33]
-0.27126518 -2.5795085 0.21808638 0.8773617 -0.032933347 -0.006962123 0.031841572 0.00614899
-0.0075159455 -0.0023480516 -0.011002149 0.018963246 -0.00020701197 -0.3132011 -2.349529 0.3155343
0.0069031687 0.03178334 0.0075745108 -0.013000587 0.0032203195 -0.0055705835 -0.019833976 0.0053461813
0.15308909 -0.014008905 0.0053521586 -0.99999976 0.025584701 0.0 0.99999976 0.0
-0.02302651
00000000: 45e3 8abe ab16 25c0 0952 5f3e c79a 603f
00000010: 1ee5 06bd 8522 e4bb 4f6c 023d 777d c93b
00000020: 5248 f6bb c5e1 19bb 5c42 34bc cf58 9b3c
00000030: 5a11 59b9 e55b a0be af5e 16c0 b68d a13e
00000040: fa33 e23b 3f2f 023d 9a33 f83b 6a00 55bc
00000050: ff0b 533b 7189 b6bb dd7a a2bc 052f af3b
00000060: 63c3 1c3e 9b85 65bc 2961 af3b fcff 7fbf
00000070: 0297 d13c 0000 0000 fcff 7f3f 0000 0000
00000080: 17a2 bcbc

model.0.running_var f4 [33]
4.234699 0.35829714 4.702083 0.040423207 0.07044599 0.013025808 0.10437072 0.22771229
0.04582471 0.072641484 1.5260984 0.54912996 1.7820492 19.064804 1.164973 21.8597
0.07120015 0.23187725 0.06705947 0.6288693 0.86752313 0.45849717 0.3703416 6.4939003
2.3299885 7.647379 32.111168 6e-45 31.96727 6e-45 6e-45 6e-45
0.32886654
00000000: a782 8740 b972 b73e 7777 9640 ce92 253d
00000010: fd45 903d 336a 553c 51c0 d53d 692d 693e
00000020: b1b2 3b3d 0fc5 943d 3157 c33f c893 0c3f
00000030: 301a e43f b884 9841 d61d 953f aae0 ae41
00000040: 62d1 913d 3b71 6d3e 7a56 893d 94fd 203f
00000050: ff15 5e3f 24c0 ea3e 6a9d bd3e 08ce cf40
00000060: 881e 1540 54b7 f440 d671 0042 0400 0000
00000070: f8bc ff41 0400 0000 0400 0000 0400 0000
00000080: 3261 a83e

model.1.weight f4 [128, 33]
-0.59881526 -0.700582 0.03621069 0.56432146 -0.18179905 0.15246946 -0.0015537324 -0.084479675
0.18337657 -0.6090162 -0.45308092 0.3222332 -0.035260804 -0.33594534 0.737735 -0.23426957
-0.37943807 -0.18044594 -0.2619357 -0.06687961 0.20763415 0.056401357 0.32501766 0.12725314
0.3330734 0.14371507 0.29083106 0.3944965 0.583865 0.26516256 0.34653938 -0.018914722
0.28820452 0.14610457 0.15949997 -0.8301542 0.036547977 -0.15091181 0.2055944 -0.21497615
-0.57627344 -0.14697549 0.047452234 0.29683092 0.20097579 -0.33045423 -0.01544705 -0.16121112
0.6715116 0.4131474 -0.6265077 0.3843075 0.44064543 -0.020136748 0.03211703 0.09062466
0.12875901 -0.3520645 0.6273897 0.11197135 0.07665456 0.21815307 0.10350604 0.07575852
-0.05769226 0.1327974 -0.22121136 0.30264434 -0.65921444 -0.06861572 0.10665041 0.15302537
-0.2009748 -0.34099326 -0.17701751 0.2026463 -0.037636053 -0.65770566 -0.4316711 0.5347588
-0.27863106 0.27205604 0.6225877 -0.027961852 -0.31319198 -0.14165178 0.40650472 0.718079
0.30895677 -0.015363843 -0.52897227 0.55959076 -0.092491545 -0.10205203 0.7387427 0.021162331
-0.047611598 -0.08146433 0.21789655 -0.40603757 0.3273357 -0.38543528 -0.008514855 -0.061916176
-0.035072092 -0.31801727 -0.06447497 -0.26661023 -0.21664622 -0.4860592 0.091852814 -0.043561876
0.57630193 -0.13086212 -0.17016377 -0.14045498 0.17031345 -0.027513964 0.33752075 0.059289493
-0.18077834 0.036193546 0.04429267 -0.33936527 -0.058719713 -0.6696914 -0.014483209 0.78501475
0.022829153 -0.043755695 -0.014636045 -0.45456108 0.3876223 0.26734787 -0.23061988 -0.06582711
0.09933235 -0.0734079 0.13993822 -0.20157537 0.057282034 0.19162147 -0.09807595 -0.011483196
1.3166249 0.014464875 -0.06635616 0.49895883 -0.383203 0.044566095 0.33831045 0.060038205
0.25508562 -0.2717656 0.056086276 -0.12459871 0.0959685 1.1456684 0.25301147 0.43324333
-0.004369546 0.2863627 0.4338584 -0.57259786 0.6755268 0.117342666 0.111582555 0.15084644
-0.16741796 -0.18940361 0.2844103 0.16266687 0.027059209 0.19884396 -0.07542353 0.014708224
0.03947742 0.14418228 0.35155782 -0.15832736 0.349076 -0.18338798 0.015127142 -0.10859112
-0.3134708 -0.040630594 0.085865855 -0.15932919 0.6359171 -0.13995926 0.24166484 -0.223949
0.45979664 -1.6343007 0.3109954 0.46905887 -0.6128873 0.53622097 0.120261535 -0.18029849
-0.4934702 0.032210447 -0.09477768 -0.07900086 0.118637964 0.123799585 0.51879394 -0.23860446
-0.15761867 0.3350593 -0.0980189 -0.0081856 0.38644424 0.5921951 -0.047535345 0.028865304
0.44937807 0.4581736 0.056427166 -0.07969297 0.17070018 -0.03340283 0.4165297 0.42547697
0.3179458 0.21654177 -0.90397644 0.1802644 0.3102518 -0.36909294 0.13641472 0.16443269
-1.0566677 -0.18344145 0.32768187 -0.58290434 -0.3626714 -0.23955186 0.1148914 -0.056195445
-0.3891224 -0.16111158 -0.41357437 -0.58784527 -0.26037598 -0.33948025 -0.44796208 -0.31116334
0.5328583 -0.55759096 -0.49607185 0.16783623 -0.40350157 -0.19202909 -0.04740407 -0.20227756
00000000: f54b 19bf 5859 33bf a951 143d 5f77 103f
00000010: 8829 3abe f420 1c3e 9ca6 cbba ae03 adbd
00000020: 11c7 3b3e 7ce8 1bbf 39fa e7be c0fb a43e
00000030: a26d 10bd 0701 acbe 33dc 3c3f 5de4 6fbe
00000040: b545 c2be d2c6 38be 701c 86be 2df8 88bd
00000050: 0c9e 543e 1c05 673d b768 a63e a64e 023e
00000060: 9988 aa3e 0b2a 133e cfe7 943e 72fb c93e
00000070: 2d78 153f 63c3 873e 9c6d b13e 0cf3 9abc
00000080: 8b8f 933e 709c 153e f653 233e fc84 54bf
00000090: 55b3 153d a088 1abe 5787 523e b522 5cbe
000000a0: a886 13bf be80 16be 465d 423d 39fa 973e
000000b0: 99cc 4d3e 4c31 a9be a015 7dbc 8714 25be
000000c0: 2fe8 2b3f 0e88 d33e cf62 20bf f4c3 c43e
000000d0: 479c e13e d2f5 a4bc 268d 033d 6c99 b93d
000000e0: 67d9 033e cc41 b4be 9d9c 203f 3c51 e53d
000000f0: 11fd 9c3d 8563 5f3e fafa d33d 4827 9b3d
00000100: b84e 6cbd 0bfc 073e 3b85 62be 33f4 9a3e
00000110: 47c2 28bf 6686 8cbd 886b da3d afb2 1c3e
00000120: 57cc 4dbe ab96 aebe 1444 35be 8382 4f3e
00000130: 4328 1abd 665f 28bf ff03 ddbe f4e5 083f
00000140: bba8 8ebe ee4a 8b3e e861 1f3f 4110 e5bc
00000150: b35a a0be 2a0d 11be 6321 d03e 06d4 373f
00000160: 952f 9e3e a1b8 7bbc ba6a 07bf 5741 0f3f
00000170: 356c bdbd a800 d1bd 3e1e 3d3f a05c ad3c
00000180: 6104 43bd c5d6 a6bd 4620 5f3e 28e4 cfbe
00000190: 8b98 a73e c657 c5be e481 0bbc d19b 7dbd
000001a0: c1a7 0fbd 29d3 a2be 740b 84bd 2381 88be
000001b0: 82d8 5dbe c0dc f8be 541d bc3d f06d 32bd
000001c0: 8688 133f b800 06be 693f 2ebe 6ed3 0fbe
000001d0: a666 2e3e f764 e1bc 85cf ac3e 8ad9 723d
000001e0: f51d 39be af3f 143d 3b6c 353d 49c1 adbe
000001f0: 1584 70bd e570 2bbf fb4a 6dbc baf6 483f
00000200: 3404 bb3c 2c39 33bd 06cc 6fbc 3bbc e8be
00000210: 6e76 c63e d2e1 883e 9e27 6cbe 5dd0 86bd
00000220: c26e cb3d e256 96bd f74b 0f3e c669 4ebe
00000230: 91a0 6a3d 6b38 443e 0bdc c8bd 0424 3cbc
00000240: 2a87 a83f 15fe 6c3c bde5 87bd 8877 ff3e
00000250: 2f33 c4be f08a 363d 0737 ad3e 9fea 753d
00000260: 959a 823e dc24 8bbe b9ba 653d 9c2d ffbd
00000270: 228b c43d 43a5 923f b88a 813e 12d2 dd3e
00000280: 692e 8fbb 229e 923e b022 de3e c695 12bf
00000290: 53ef 2c3f 5a51 f03d 6585 e43d 7d77 1a3e
000002a0: 9d6f 2bbe 05f3 41be 3a9e 913e 2592 263e
000002b0: 46ab dd3c c09d 4b3e a777 9abd c3fa 703c
000002c0: 13b3 213d 85a4 133e 63ff b33e 9120 22be
000002d0: 17ba b23e 0fca 3bbe d5d7 773c 0565 debd
000002e0: 3f7f a0be 446c 26bd 70da af3d 3127 23be
000002f0: 77cb 223f 7b51 0fbe fd76 773e e352 65be
00000300: 776a eb3e c430 d1bf ca3a 9f3e 7c28 f03e
00000310: 2fe6 1cbf c745 093f ae4b f63d 2ba0 38be
00000320: 20a8 fcbe 1aef 033d cd1a c2bd 34cb a1bd
00000330: 76f8 f23d a38a fd3d aecf 043f ba54 74be
00000340: ca66 21be e48c ab3e 22be c8bd e51c 06bc
00000350: 05dc c53e 199a 173f 6cb4 42bd ee76 ec3c
00000360: e214 e63e bb95 ea3e 2c20 673d 1136 a3bd
00000370: 07cc 2e3e 68d1 08bd 6143 d53e 1ed8 d93e
00000380: cbc9 a23e 20bd 5d3e 006b 67bf 3b97 383e
00000390: 53d9 9e3e c0f9 bcbe 4db0 0b3e 0b61 283e
000003a0: e340 87bf 13d8 3bbe ebc5 a73e 3839 15bf
000003b0: 11b0 b9be 154d 75be 2f4c eb3d 322d 66bd
000003c0: 0d3b c7be 6ffa 24be 05c0 d3be 077d 16bf
000003d0: 0050 85be 5bd0 adbe 495b e5be cd50 9fbe
000003e0: 6769 083f 48be 0ebf 21fd fdbe 43dd 2b3e
000003f0: c297 cebe 46a3 44be c52a 42bd d921 4fbe

model.1.bias f4 [128]
-0.40875128 -0.0012232041 -0.26417708 0.058327477 -0.059604164 -0.3668327 -0.5007887 -0.36891833
-0.430481 -0.119539775 -0.56752515 -0.7972913 -0.6659156 -0.3716421 -0.8115612 -0.7131527
-0.35848972 0.05665555 -0.43589714 0.050529443 -0.35359523 -0.47217447 -0.37851486 -0.38823628
-0.51535445 -0.5594108 -0.63575 -0.5624107 0.70858717 0.03672237 0.1322217 -0.44282648
0.028320994 -0.38447776 -0.2303224 -0.1528382 -0.26143914 -0.3492797 -0.4988102 -0.5429866
-0.35337725 -0.20523399 -0.12635888 -0.7507998 -0.62852514 0.043957446 0.13089252 -0.112537034
-0.13906308 -0.4469006 -0.35793087 -0.65783364 0.13091955 -0.48280504 -0.35679963 -0.44267258
-0.56136996 0.22609921 0.02409009 0.064919606 -0.6708136 -0.13880037 -0.16036631 0.5745892
-0.5744381 0.2349278 -0.18857037 -0.13872804 0.2151234 -0.20300218 -0.39468876 -0.23607333
-0.51319444 -0.15918979 -0.35573527 -0.3471072 -0.14600311 0.059218414 -0.54119176 -0.26831186
0.012309943 0.04402134 -0.928429 -0.12289156 0.056031987 -0.072817676 -0.0013040652 0.01148939
-0.028821917 -0.4344587 0.10597639 -0.28810647 -0.5270524 0.3079846 -0.5832592 -0.37473252
-0.66945696 -0.027148208 -0.44101745 0.34382576 -0.2591095 0.00311759 -0.09157699 -0.22843656
-0.057411965 0.037227865 -0.9233307 0.006786534 -0.7213923 -0.22849819 -0.4290854 -0.16929702
-0.28241622 -0.6996534 -0.6753712 -0.37545803 0.01070428 0.36364937 -0.058992427 -0.32312313
-0.39911604 -0.25456685 -0.33268976 -0.3094309 -0.58558714 -0.41054884 -0.27733397 -0.42413518
00000000: d947 d1be eb53 a0ba 3842 87be cbe8 6e3d
00000010: 7f23 74bd 7fd1 bbbe b033 00bf dde2 bcbe
00000020: 0168 dcbe 45d1 f4bd 5449 11bf 481b 4cbf
00000030: 7279 2abf e047 bebe 7ac2 4fbf 2d91 36bf
00000040: f78b b7be a60f 683d e92d dfbe f6f7 4e3d
00000050: 6f0a b5be dac0 f1be b3cc c1be e8c6 c6be
00000060: 45ee 03bf 8c35 0fbf 83c0 22bf 26fa 0fbf
00000070: f865 353f 326a 163d 2065 073e 27ba e2be
00000080: 6e01 e83c 45da c4be a3d9 6bbe 9e81 1cbe
00000090: 5adb 85be cad4 b2be 0d64 ffbe 2b01 0bbf
000000a0: dded b4be dc28 52be 3964 01be 6a34 40bf
000000b0: 06e7 20bf b90c 343d b008 063e d179 e6bd
000000c0: 8d66 0ebe 28d0 e4be b742 b7be c967 28bf
000000d0: c60f 063e 3932 f7be 71ae b6be fba5 e2be
000000e0: f1b5 0fbf 8d86 673e 9558 c53c 92f4 843d
000000f0: 71ba 2bbf af21 0ebe 1137 24be 4718 133f
00000100: 600e 13bf ea90 703e 9718 41be b90e 0ebe
00000110: 4f49 5c3e cedf 4fbe a514 cabe 35bd 71be
00000120: b660 03bf a602 23be ef22 b6be 09b8 b1be
00000130: d781 15be 028f 723d 8b8b 0abf 2c60 89be
00000140: a5af 493c b84f 343d 86ad 6dbf 92ae fbbd
00000150: cc81 653d 6f21 95bd 2bed aaba ff3d 3c3c
00000160: f11b ecbc 5f71 debe 260a d93d b182 93be
00000170: e8ec 06bf 28b0 9d3e 7a50 15bf f1dc bfbe
00000180: 8861 2bbf eb65 debc 0acd e1be ee09 b03e
00000190: 00aa 84be 7b50 4c3b b88c bbbd 46eb 69be
000001a0: cf28 6bbd 3f7c 183d 675f 6cbf 9361 de3b
000001b0: 2aad 38bf 6efb 69be 15b1 dbbe 335c 2dbe
000001c0: dc98 90be 7c1c 33bf 21e5 2cbf 093c c0be
000001d0: 0161 2f3c 4030 ba3e 0ba2 71bd 6570 a5be
000001e0: f058 ccbe 9656 82be 5056 aabe ba6d 9ebe
000001f0: 0ae9 15bf 7533 d2be b8fe 8dbe 3f28 d9be

model.3.weight f4 [128]
0.6633577 0.61843145 0.48034015 0.7496066 0.809055 1.1853584 0.6422953 0.68920326
0.5159864 0.57591176 -0.25255883 1.0094582 0.78848875 -0.47266954 0.71069014 0.41418618
0.58292323 0.533757 0.477513 0.4760091 0.72426504 0.51373595 0.56644785 -0.5372497
0.7090986 0.80855435 0.630855 0.6289408 0.57451427 0.9999609 0.4718972 0.80363387
0.6936405 1.3968635 1.0855145 1.0259938 0.7870935 1.0588055 0.4221148 0.49965847
0.80545485 -0.32849556 0.5028639 0.638093 0.8293626 0.86664766 0.6002902 0.95244414
0.85802794 0.7188866 1.0668428 0.7449173 0.35246798 1.0084995 0.6773419 0.56568944
0.7530815 0.5921484 0.70500594 0.9725386 0.8392897 0.68600005 0.6905813 0.546183
0.9812904 1.0083468 -0.5164169 0.83783937 0.3644768 0.97077 0.4781333 1.3003237
0.50467926 0.95982915 0.591805 0.653563 0.74064374 1.2538135 0.78400344 0.9490129
0.6464324 0.76802206 0.671774 0.82375795 0.7756895 0.40165785 0.55886316 0.39390135
0.71284807 0.5439961 0.37117958 0.6102717 0.4399103 0.61587536 0.38688508 1.0547245
0.70266646 0.6516632 0.5441194 0.8433077 1.0733769 0.6087459 0.76253456 0.6547634
0.52365935 0.8705822 1.0771455 0.77904683 0.97558236 0.5229846 0.6256435 0.69658095
0.6118515 0.8955469 1.3636855 0.80573255 0.37466714 0.75277865 1.3918692 -0.50132364
0.88296294 1.2300925 0.65549934 0.74020255 0.6971231 0.84111774 0.6616044 0.5797051
00000000: cfd1 293f 8651 1e3f 25ef f53e 38e6 3f3f
00000010: 3a1e 4f3f d3b9 973f 776d 243f a06f 303f
00000020: af17 043f f46e 133f 644f 81be ed35 813f
00000030: 66da 493f be01 f2be caef 353f 3610 d43e
00000040: 753a 153f 4ca4 083f 957c f43e 77b7 f33e
00000050: 6f69 393f 3384 033f ba02 113f 3289 09bf
00000060: 7c87 353f 6bfd 4e3f b77f 213f 4402 213f
00000070: 5e13 133f 70fd 7f3f 839c f13e f3ba 4d3f
00000080: 6c92 313f 6ccc b23f 24f2 8a3f c453 833f
00000090: f67e 493f f086 873f 6e1f d83e 3cd3 ff3e
000000a0: 4a32 4e3f 9230 a8be b0bb 003f 105a 233f
000000b0: 1b51 543f 9fdc 5d3f 9eac 193f 61d3 733f
000000c0: b8a7 5b3f f408 383f 4e8e 883f e6b2 3e3f
000000d0: af76 b43e 8316 813f 4766 2d3f 06d1 103f
000000e0: f3c9 403f 0a97 173f 457b 343f 4af8 783f
000000f0: b1db 563f b39d 2f3f f0c9 303f a6d2 0b3f
00000100: d935 7b3f 8211 813f e633 04bf a47c 563f
00000110: b49c ba3e 6284 783f e3cd f43e 0271 a63f
00000120: a932 013f 5db7 753f 8880 173f e84f 273f
00000130: d49a 3d3f f67c a03f 73b4 483f 82f2 723f
00000140: 987c 253f 189d 443f 62f9 2b3f cde1 523f
00000150: 9693 463f 19a6 cd3e a811 0f3f 70ad c93e
00000160: 367d 363f 5443 0b3f 400b be3e c43a 1c3f
00000170: ec3b e13e 02aa 1d3f cd15 c63e 3601 873f
00000180: f3e1 333f 66d3 263f 694b 0b3f 03e3 573f
00000190: 6a64 893f c5d6 1b3f 7735 433f 939e 273f
000001a0: 8a0e 063f 7ade 5e3f e7df 893f 9d6f 473f
000001b0: c4bf 793f 52e2 053f 2c2a 203f 2153 323f
000001c0: 4da2 1c3f 9042 653f 3f8d ae3f 7d44 4e3f
000001d0: 5fd4 bf3e 1ab6 403f c528 b23f bf56 00bf
000001e0: dc09 623f ac73 9d3f cece 273f ea7d 3d3f
000001f0: a976 323f 7e53 573f e85e 293f 8e67 143f

model.3.bias f4 [128]
0.07757919 0.5387212 -0.4765687 -0.08401756 0.20577182 -0.11608858 -0.18064249 -0.18232399
-0.38152203 0.4099162 -0.6890829 -0.16643219 -0.19687998 -0.78445107 -0.22514912 0.07741499
0.014711226 0.28144214 -0.108791284 -0.24287647 0.19367102 0.39236978 0.32032818 -0.93948394
-0.18568812 -0.32539335 0.30416304 0.26428142 0.36852276 -0.36231115 -0.45285565 0.3349838
-0.14403266 0.30292782 -0.10492422 -0.4180574 -0.5314652 0.08652129 -0.12916142 -0.0746652
0.435575 0.7891677 -0.25364256 -0.0984336 0.5654282 -0.14414847 -0.43098712 -0.18912101
0.09863403 0.1915899 0.16187975 0.11553568 0.42099416 0.20583005 -0.4006008 -0.25317064
-0.2313203 0.5799685 0.16382511 0.32726708 0.0834841 0.3785761 -0.22341864 0.11351827
0.07169582 -0.13951156 -0.6575775 0.06132497 -0.16594534 -0.40843618 -0.2360598 0.085985474
-0.09595481 0.63115025 -0.2155038 -0.17403495 0.21186079 -0.50944066 -0.17429148 -0.19039708
-0.121997304 -0.08478218 -0.25282785 -0.36132145 0.10857791 0.24046443 -0.10029698 -0.48649195
0.3867846 0.51960695 -0.18740201 0.010819604 -0.43343127 0.21390611 -0.07549313 0.20408003
-0.14262804 0.1738312 0.2229987 -0.6261216 0.08860722 -0.32437217 0.2982398 0.044046048
-0.02862162 0.06433992 -0.023364201 -0.14232522 -0.113977 -0.21786055 0.01726264 -0.10738297
-0.22332242 0.1747994 0.34240544 0.0015554102 -0.20028779 0.19735628 -0.35675266 -0.893725
-0.37292558 0.11538741 0.3854166 0.45501634 -0.047657136 0.11077165 0.22873516 0.41018897
00000000: d7e1 9e3d a2e9 093f d000 f4be 6611 acbd
00000010: d9b5 523e d9bf edbd 58fa 38be 24b3 3abe
00000020: db56 c3be 89e0 d13e bd67 30bf 336d 2abe
00000030: e89a 49be c9d1 48bf 7e8d 66be c08b 9e3d
00000040: 5b07 713c 2f19 903e f7cd debd 9cb4 78be
00000050: b251 463e b1e4 c83e 0e02 a43e 0582 70bf
00000060: 0725 3ebe f599 a6be 42bb 9b3e e54f 873e
00000070: 04af bc3e d980 b9be b2dc e7be ff82 ab3e
00000080: 4c7d 13be 5b19 9b3e 82e2 d6bd 9f0b d6be
00000090: 1a0e 08bf 1332 b13d e442 04be 12ea 98bd
000000a0: b003 df3e e506 4a3f 70dd 81be 8e97 c9bd
000000b0: e7bf 103f a89b 13be 58aa dcbe f0a8 41be
000000c0: a300 ca3d 2530 443e cec3 253e f89d ec3d
000000d0: 8c8c d73e 1dc5 523e 8c1b cdbe 959f 81be
000000e0: 3bdf 6cbe d178 143f c5c1 273e 8d8f a73e
000000f0: b6f9 aa3d bad4 c13e dbc7 64be 447c e83d
00000100: 42d5 923d 1edc 0ebe 0057 28bf e42f 7b3d
00000110: 93ed 29be 8c1e d1be a9b9 71be 2719 b03d
00000120: f583 c4bd 1093 213f 07ad 5cbe 3836 32be
00000130: 09f2 583e b46a 02bf 7779 32be 74f7 42be
00000140: b9d9 f9bd 48a2 adbd a772 81be 20ff b8be
00000150: 185e de3d 4f3c 763e 8168 cdbd 7915 f9be
00000160: a208 c63e f604 053f 50e6 3fbe b544 313c
00000170: b4ea ddbe 340a 5b3e 249c 9abd 5bfa 503e
00000180: 160d 12be ce00 323e c559 643e 8149 20bf
00000190: b477 b53d 1c14 a6be e3b2 983e a169 343d
000001a0: e377 eabc a6c4 833d 4866 bfbc b4bd 11be
000001b0: c66c e9bd d616 5fbe 616a 8d3c 9aeb dbbd
000001c0: a2ae 64be 9dfe 323e c44f af3e e8de cb3a
000001d0: 3e18 4dbe c417 4a3e 49a8 b6be 29cb 64bf
000001e0: 1af0 bebe 3c50 ec3d 5355 c53e e7f7 e83e
000001f0: 2134 43bd 3fdc e23d 8d39 6a3e 4a04 d23e

model.3.running_mean f4 [128]
-0.6822933 -0.2050567 0.15381725 0.294887 -0.22221148 -0.47016355 -0.6904702 -0.35513976
-0.49036935 -0.49308336 -0.75026166 -0.49161553 -0.44072023 -0.29557234 -0.6041906 -0.8936493
-0.36827734 0.7367864 -0.3219055 -0.060882084 -0.6311159 -0.34159285 -0.3293098 -0.22326182
-0.64332217 -0.50223005 -0.80583006 -0.4881564 3.055367 0.45823574 -0.10146015 -0.6826303
-0.24529813 1.0455774 -0.3071084 -0.14930664 -0.35221338 0.17768726 -0.75990313 -0.60784924
-0.1807932 0.1226671 -0.012309404 -0.33339798 -0.80293727 0.38467786 0.11826661 0.3610193
-0.49465692 -0.74661213 -0.23151149 -0.74294543 0.7568533 -0.61985147 -0.53146505 -0.064402334
-0.4092267 0.98520267 -0.6133619 0.061575018 -0.68049437 -0.013422354 0.033586834 1.7422774
-0.20357732 0.5915388 -0.24021687 -0.03612556 0.6844419 -0.20941308 -0.6294102 0.43885234
-0.49086434 -0.052980132 -0.5037535 -0.35391933 0.19521402 -0.1861886 -0.47719038 -0.67499024
0.46256498 -0.09365635 -0.7977052 -0.19440804 0.28755376 0.69025856 0.17912878 1.2443285
0.75219274 0.1673758 0.6591549 -0.5737373 -0.5904513 0.5010422 -0.55994743 -0.49824217
-0.6435497 0.03860845 -0.39943823 1.0816771 -0.3295372 -0.50477207 -0.21902053 -0.41043946
0.900109 0.11811525 -0.7471696 -0.0038143392 -0.46429318 -0.293642 -0.55977076 0.17815602
-0.7641972 -0.47257984 -0.37313622 -0.5424044 -0.54544467 1.4271382 -0.16420054 -0.013583317
-0.66711575 0.035800043 -0.29254958 -0.48107436 -0.20911501 -0.49663544 -0.46887222 -0.44563615
00000000: c6aa 2ebf 62fa 51be 4582 1d3e 6efb 963e
00000010: 688b 63be 47b9 f0be a8c2 30bf e1d4 b5be
00000020: b111 fbbe 6c75 fcbe 2611 40bf 08b5 fbbe
00000030: 15a6 e1be 4255 97be 3cac 1abf 33c6 64bf
00000040: d98e bcbe 099e 3c3f ccd0 a4be 7e5f 79bd
00000050: d090 21bf 42e5 aebe 4b9b a8be bf9e 64be
00000060: c3b0 24bf 2692 00bf e14a 4ebf a3ef f9be
00000070: 228b 4340 e09d ea3e 57ca cfbd dcc0 2ebf
00000080: 6f2f 7bbe 7bd5 853f 503d 9dbe d7e3 18be
00000090: 5055 b4be a6f3 353e 0389 42bf 029c 1bbf
000000a0: da21 39be e338 fb3d 62ad 49bc 24b3 aabe
000000b0: 4c8d 4dbf 7ff4 c43e c435 f23d 86d7 b83e
000000c0: ac43 fdbe f921 3fbf 5911 6dbe ac31 3ebf
000000d0: 23c1 413f 96ae 1ebf 180e 08bf 5fe5 83bd
000000e0: 2986 d1be 3e36 7c3f 4905 1dbf 1636 7c3d
000000f0: e134 2ebf 6fe9 5bbc 5992 093d f202 df3f
00000100: 9376 50be 166f 173f 69fb 75be 65f8 13bd
00000110: 9637 2f3f 6270 56be 0721 21bf 41b1 e03e
00000120: 9252 fbbe b201 59bd fdf5 00bf ea34 b5be
00000130: 2fe6 473e 39a8 3ebe 4c52 f4be 29cc 2cbf
00000140: 51d5 ec3e e7ce bfbd 6836 4cbf e712 47be
00000150: 3f3a 933e c9b4 303f 896d 373e 2846 9f3f
00000160: b48f 403f 9064 2b3e 60be 283f 73e0 12bf
00000170: d127 17bf 4d44 003f b758 0fbf 9919 ffbe
00000180: acbf 24bf e523 1e3d 2b83 ccbe 6574 8a3f
00000190: 1ab9 a8be be38 01bf eb46 60be 1f25 d2be
000001a0: 8b6d 663f 68e6 f13d 8246 3fbf fef9 79bb
000001b0: d6b7 edbe 3f58 96be 234d 0fbf 886e 363e
000001c0: 6da2 43bf fcf5 f1be b60b bfbe 04db 0abf
000001d0: 43a2 0bbf 77ac b63f 3024 28be 908c 5ebc
000001e0: 19c8 2abf 11a3 123d 0fc9 95be 614f f6be
000001f0: 3f22 56be 0047 febe 0510 f0be 6c2a e4be

model.3.running_var f4 [128]
0.16421421 0.48248225 0.7591817 1.0595493 0.9581085 0.3798315 0.119104736 0.8640489
0.29569107 0.3219955 0.19026057 1.1866606 0.806158 0.8261017 0.79570645 0.031528458
0.6181348 2.298385 0.24195443 0.2452687 0.36998335 0.97350866 0.8179125 1.4674786
0.38764402 0.46170393 0.18002199 0.6415495 0.74426776 0.8196282 0.8415546 0.26317534
0.76854676 7.5613084 0.9106814 0.10191144 0.22101016 2.4804866 0.13742287 0.31318265
2.3577323 1.5692269 0.5053857 0.89589137 0.19165431 0.3328216 0.68847615 1.9956709
0.3448832 0.21578647 1.4657948 0.21953042 0.99924743 0.6107349 0.25480983 1.1768166
0.7925814 0.40708363 0.21643223 0.16809735 0.3217141 1.1101643 0.30509105 0.77234423
1.9804231 0.23143737 1.0248737 0.98333365 1.7525754 0.6045867 0.24763644 3.538164
0.4510117 1.2429172 0.2865798 0.6185405 1.3726559 0.08518559 0.5179797 0.17005192
2.4817574 0.8348653 0.22345515 0.7163651 1.5564778 0.7683807 1.9701205 0.72653383
0.31822252 1.3877609 1.4767517 0.31173936 0.6879479 0.5407442 0.23722954 0.9234034
0.4511869 0.5396898 1.0357517 0.21773422 0.2973878 0.19528705 0.15818225 0.25891957
1.5523727 0.834481 0.29795164 1.6232163 1.3412178 0.58139694 0.33957338 0.43976924
0.18182348 0.8042596 1.2610434 0.47693077 0.31545168 0.34085286 0.11131794 1.8051208
0.18042707 2.0194943 0.54232997 0.5170166 1.3972663 0.3827141 0.2974429 0.44572315
00000000: c527 283e ea07 f73e bb59 423f 509f 873f
00000010: 9946 753f 4679 c23e 2fed f33d 4f32 5d3f
00000020: d264 973e 98dc a43e abd3 423e 7fe4 973f
00000030: 5f60 4e3f 677b 533f 6bb3 4b3f fc23 013d
00000040: 153e 1e3f bd18 1340 e7c2 773e b827 7b3e
00000050: 756e bd3e dd37 793f b762 513f 57d6 bb3f
00000060: 4779 c63e 7564 ec3e af57 383e 973c 243f
00000070: 5588 3e3f 27d3 513f 1f70 573f ebbe 863e
00000080: 7bbf 443f 3df6 f140 6b22 693f f2b6 d03d
00000090: 7d50 623e 4bc0 1e40 95b8 0c3e 7a59 a03e
000000a0: 16e5 1640 6ddc c83f f560 013f 2359 653f
000000b0: 0741 443e 9867 aa3e f93f 303f 2572 ff3f
000000c0: 8894 b03e 21f7 5c3e 2a9f bb3f 95cc 603e
000000d0: aece 7f3f 1f59 1c3f 6f76 823e eda1 963f
000000e0: 9de6 4a3f 446d d03e 69a0 5d3e b621 2c3e
000000f0: b6b7 a43e dd19 8e3f e534 9c3e 5ab8 453f
00000100: 817e fd3f ebfd 6c3e 102f 833f c1bb 7b3f
00000110: 6454 e03f 32c6 1a3f 6894 7d3e 4771 6240
00000120: 01eb e63e e917 9f3f 96ba 923e ac58 1e3f
00000130: 30b3 af3f c875 ae3d 519a 043f 1722 2e3e
00000140: 1dd5 1e40 bbb9 553f 6dd1 643e b463 373f
00000150: aa3a c73f 99b4 443f e92c fc3f 1ffe 393f
00000160: 10ee a23e 26a2 b13f 3306 bd3f 4d9c 9f3e
00000170: 5b1d 303f 366e 0a3f 4dec 723e 2a64 6c3f
00000180: f801 e73e 1c29 0a3f 8393 843f b8f5 5e3e
00000190: 3743 983e 54f9 473e 87fa 213e 1b91 843e
000001a0: 26b4 c63f 8ca0 553f 1e8d 983e 8dc5 cf3f
000001b0: 06ad ab3f 6ed6 143f 90dc ad3e 6f29 e13e
000001c0: ef2f 3a3e f5e3 4d3f df69 a13f 4530 f43e
000001d0: e282 a13e 4484 ae3e a9fa e33d 330e e73f
000001e0: e0c1 383e 653f 0140 23d6 0a3f 335b 043f
000001f0: 9fd9 b23f 1af3 c33e 704a 983e d335 e43e

model.4.weight f4 [64, 128]
0.1229557 -0.535341 -0.44431052 0.20429562 -0.7435748 -0.1829396 0.09347376 0.18203366
0.11323003 0.06762346 1.0592669 0.2573217 0.02843043 0.5046115 -0.0069620223 -0.33682814
-0.1682643 -1.1013775 -0.003212952 0.37453967 -0.113099456 -0.015192567 0.28104013 0.82168835
0.18677777 -0.07977774 -0.20969424 0.120290525 -0.65169936 0.28300396 0.31710723 -0.25775594
0.0056716865 -0.4509681 -0.35948718 -0.04600338 0.51009595 0.17189832 0.48188198 -0.16539642
-0.2268129 -0.8105272 0.28496996 -0.4757518 -0.19559853 -0.079710044 0.08196209 0.99766725
-0.5069728 0.092828125 0.01633248 -0.6870087 -0.0676708 -0.5885426 0.16647062 -0.014720901
0.54072094 0.061275836 -0.35126084 0.594825 0.7256279 -0.06841861 -0.11817 -0.0047547556
-0.09515319 -0.33488423 0.27349225 0.061585035 0.38010332 0.029866435 0.118255004 0.026063792
0.057499528 -1.3473388 -0.3652556 0.04515753 0.011658952 0.4403633 -0.27565163 -0.20417385
0.032804016 -0.27846953 -0.11831295 -0.15827274 -0.04975331 -0.25712675 -0.25877747 0.08659691
-0.2982085 0.09044037 0.10706731 0.099436104 0.20359294 -0.052434456 0.11661438 -0.6818671
-0.08026624 -0.14149159 0.28830618 -0.07672079 0.06179088 -0.080124184 0.058361527 0.14472164
0.40133303 -0.56775343 0.25665635 -0.14426395 0.22186866 0.566988 -0.04223522 -0.06424735
-0.37974724 0.119226865 -0.097352274 -0.501133 0.15165187 0.121479265 0.5742375 0.5964446
0.3852967 0.06950338 -0.39408258 -0.33221933 -0.10902104 0.2961713 -0.55488527 -0.2842103
0.10530286 -0.69648033 -0.41186807 -0.040407266 0.19049092 0.41038063 0.106375515 -0.0074600666
0.44641766 0.14468914 0.72027135 0.20652765 0.12037224 0.38361642 0.25697976 -0.07187564
-0.09691487 -0.16311626 0.10883816 -0.050402436 0.015479839 0.05879489 -0.34495795 0.702132
0.044821426 -0.105493285 -0.34458175 -0.4593593 -0.042679016 0.3594274 0.33431506 0.4141978
-0.07437545 0.19613165 -0.06557708 0.70939344 0.28000757 0.4525233 0.36966696 0.43844756
0.3463551 -0.9334207 -0.49398902 -0.040413354 -0.21934092 -0.17094591 -0.21662946 -0.19860281
0.29965007 -0.24253812 -0.44519812 0.40836075 -0.05961128 -0.35111305 0.11119595 -0.5160399
0.066899896 -0.1896825 0.11190689 0.16244857 0.75512266 -0.17114739 0.751718 -0.44531667
0.5633115 0.12478507 -0.11122724 0.19741642 0.024397692 0.48077244 0.022141645 -0.6134725
0.307512 -0.77846545 0.1457355 -0.2093234 -0.19292381 -0.06992691 -0.28689587 -0.18353829
0.21425785 -0.41921264 -0.085015014 -0.5931454 0.30647114 0.22048075 0.49288216 0.3374329
0.21319859 -0.48843232 0.48270062 -0.20263465 0.31600395 -0.014445822 -0.30352023 -0.5709614
0.586163 0.29199553 0.06335508 0.5434232 0.21079999 -0.13855468 -0.16044873 -0.30790964
0.81972533 0.28687972 0.03596118 0.06024092 -0.37088835 0.081976674 0.27142504 0.14860597
0.62799585 -0.1879195 -0.07390744 -0.06784972 -0.16660205 -0.26265696 0.48787075 0.935754
-0.06926869 -0.38496017 -0.36757952 0.14891064 0.38058552 -0.0008739349 0.1367228 0.18956162
00000000: 33d0 fb3d 1c0c 09bf ab7c e3be df32 513e
00000010: eb5a 3ebf 8554 3bbe 2c6f bf3d 0867 3a3e
00000020: 25e5 e73d 2b7e 8a3d 0f96 873f abbf 833e
00000030: efe6 e83c 382e 013f ad21 e4bb bd74 acbe
00000040: 7a4d 2cbe f0f9 8cbf 6490 52bb aac3 bf3e
00000050: b0a0 e7bd 3fea 78bc 7ee4 8f3e 2b5a 523f
00000060: ac42 3f3e 8362 a3bd 16ba 56be e15a f63d
00000070: c5d5 26bf e5e5 903e e15b a23e 96f8 83be
00000080: 8ed9 b93b 4ae5 e6be b40e b8be 0a6e 3cbd
00000090: a695 023f 1d06 303e 3cb9 f63e ae5d 29be
000000a0: a441 68be b67e 4fbf 95e7 913e bd95 f3be
000000b0: fb4a 48be 053f a3bd bedb a73d 1f67 7f3f
000000c0: f8c8 01bf ac1c be3d b1cb 853c cddf 2fbf
000000d0: fd96 8abd baaa 16bf 4677 2a3e ef2f 71bc
000000e0: b06c 0a3f 5ffc 7a3d 76d8 b3be 7446 183f
000000f0: c0c2 393f 0e1f 8cbd 1d03 f2bd c8cd 9bbb
00000100: addf c2bd f275 abbe 2d07 8c3e 9740 7c3d
00000110: e79c c23e 74aa f43c ae2f f23d bc83 d53c
00000120: a084 6b3d 9975 acbf c802 bbbe 1af7 383d
00000130: 3005 3f3c 4c77 e13e 3622 8dbe f312 51be
00000140: 815d 063d 8f93 8ebe 0f4e f2bd 4012 22be
00000150: 20ca 4bbd 1ea6 83be 7b7e 84be b959 b13d
00000160: c9ae 98be cd38 b93d 1b46 db3d 28a5 cb3d
00000170: ab7a 503e 83c5 56bd 85d3 ee3d d88e 2ebf
00000180: a062 a4bd 2ce3 10be de9c 933e ca1f 9dbd
00000190: 6f18 7d3d 2618 a4bd 7f0c 6f3d e931 143e
000001a0: 867b cd3e 4a58 11bf 7668 833e eeb9 13be
000001b0: 8a31 633e 2026 113f d7fe 2cbd 1d94 83bd
000001c0: 3b6e c2be 372d f43d a160 c7bd 414a 00bf
000001d0: a14a 1b3e 1fca f83d 3b01 133f 98b0 183f
000001e0: 9c45 c53e ca57 8e3d 31c5 c9be a718 aabe
000001f0: 6c46 dfbd c4a3 973e f60c 0ebf 0384 91be
00000200: 07a9 d73d 894c 32bf 5fe0 d2be 1782 25bd
00000210: 0d10 433e 691d d23e 68db d93d 9373 f4bb
00000220: db90 e43e 6429 143e b463 383f fc7b 533e
00000230: b985 f63d 5f69 c43e da92 833e 8933 93bd
00000240: 4e7b c6bd f307 27be 8be6 de3d c972 4ebd
00000250: 279f 7d3c e9d2 703d 549e b0be ecbe 333f
00000260: ac96 373d dd0c d8bd 056d b0be 2431 ebbe
00000270: 31d0 2ebd de06 b83e 582b ab3e bc11 d43e
00000280: 2852 98bd bcd6 483e 474d 86bd cf9a 353f
00000290: 275d 8f3e 22b1 e73e fd44 bd3e 337c e03e
000002a0: 7555 b13e a9f4 6ebf 21ec fcbe 7988 25bd
000002b0: e89a 60be 720c 2fbe 1dd4 5dbe 895e 4bbe
000002c0: bc6b 993e ea5b 78be 02f1 e3be a914 d13e
000002d0: f52a 74bd 17c5 b3be b4ba e33d 311b 04bf
000002e0: d002 893d 213c 42be 712f e53d eb58 263e
000002f0: b84f 413f 4341 2fbe 9770 403f 8c00 e4be
00000300: 2f35 103f 518f ff3d 1bcb e3bd 8827 4a3e
00000310: abdd c73c ce27 f63e 6562 b53c 890c 1dbf
00000320: 3672 9d3e 8349 47bf b03b 153e e058 56be
00000330: d28d 45be d735 8fbd 04e4 92be 76f1 3bbe
00000340: 6966 5b3e 0aa3 d6be 5a1c aebd 60d8 17bf
00000350: c9e9 9c3e b5c5 613e 0d5b fc3e 01c4 ac3e
00000360: bb50 5a3e cd13 fabe 8924 f73e 757f 4fbe
00000370: 45cb a13e 2bae 6cbc 0167 9bbe 872a 12bf
00000380: c70e 163f 7080 953e 4fc0 813d c81d 0b3f
00000390: f4db 573e 47e1 0dbe ac4c 24be 55a6 9dbe
000003a0: 85d9 513f e6e1 923e 084c 133d 2fbf 763d
000003b0: 14e5 bdbe 63e3 a73d 39f8 8a3e 2a2c 183e
000003c0: 56c4 203f f86d 40be c95c 97bd cbf4 8abd
000003d0: ba99 2abe f97a 86be 32ca f93e 938d 6f3f
000003e0: bedc 8dbd 8019 c5be 6233 bcbe 087c 183e
000003f0: 1bdc c23e c718 65ba 1001 0c3e 711c 423e

model.4.bias f4 [64]
-0.76915354 -0.684544 -0.23516364 0.15567684 0.87833595 -0.16211045 1.252223 -0.2493597
-0.07959689 -0.14741775 -0.5861072 -0.052272454 0.030052844 0.034097947 -0.05811932 -0.37746176
0.22434583 -0.20618165 0.07676336 -0.14981604 -0.38964525 0.3848365 -0.13143621 -0.6058427
-0.4208651 -1.2188895 -0.20272078 0.0012853103 -0.34986946 0.26324555 -0.4877746 -0.5614431
-0.297689 -0.18216917 -0.5724503 0.20748606 -0.21689911 0.03172462 -0.56017596 -0.64562243
-0.60715765 0.075872555 0.34611455 -0.25778133 -0.059971236 -0.2100379 -0.48180872 -0.57466227
-0.58458275 -0.64396524 -0.436611 -0.069852814 -0.075024 -0.22373511 -0.6332019 0.98420036
-0.5050057 -0.18332753 -0.41446424 -0.36542338 -0.5487144 0.08400282 0.45145005 -0.2869773
00000000: 3fe7 44bf 473e 2fbf bdce 70be c069 1f3e
00000010: a0da 603f 4800 26be d848 a03f 2658 7fbe
00000020: b203 a3bd aef4 16be 1f0b 16bf a41b 56bd
00000030: 6231 f63c 4aaa 0b3d 860e 6ebd ab42 c1be
00000040: eaba 653e 4821 53be 1c36 9d3d 6069 19be
00000050: 957f c7be 4a09 c53e 3797 06be 8218 1bbf
00000060: a17b d7be 9204 9cbf 0996 4fbe db77 a83a
00000070: 1722 b3be 1fc8 863e 98bd f9be bcba 0fbf
00000080: b16a 98be 8e8a 3abe 1a8c 12bf 3a77 543e
00000090: cd1a 5ebe adf1 013d b167 0fbf 8347 25bf
000000a0: af6e 1bbf 1263 9b3d ed35 b13e eafb 83be
000000b0: 66a4 75bd 2d14 57be a2af f6be 111d 13bf
000000c0: 37a7 15bf e8da 24bf 7a8b dfbe fe0e 8fbd
000000d0: 2fa6 99bd d11a 65be 8519 22bf 8ef4 7b3f
000000e0: 0e48 01bf 36ba 3bbe a834 d4be c618 bbbe
000000f0: 8c78 0cbf ac09 ac3d 7624 e73e b0ee 92be

model.6.weight f4 [64]
0.5359025 0.6798508 0.4823858 0.47584257 0.64621615 0.57758206 0.9729566 0.5330451
1.0044127 0.65641683 0.48904175 0.8996634 1.070125 0.8164489 0.81061906 0.6525969
0.8916969 0.2898719 0.5938902 0.9022216 0.4327654 0.7245378 0.6615829 -0.6763065
0.98073775 0.65952533 0.59618753 0.8850703 0.62996715 0.81499183 -0.57480806 0.79295915
0.8179998 -0.88917565 0.49017808 0.93202317 0.66274375 0.8930522 0.6933619 0.5973087
0.54045177 0.73999864 0.6920611 0.43753412 0.6429527 0.60516936 0.4335942 0.8800927
0.72082317 0.36414373 0.5919958 0.68618035 0.8533758 0.9105565 0.7097293 0.5769586
0.516302 0.5479039 0.5190514 0.61942697 0.49344406 0.9895455 1.0776381 0.43694693
00000000: e830 093f b40a 2e3f 46fb f63e a3a1 f33e
00000010: 6c6e 253f 6bdc 133f af13 793f a575 083f
00000020: 9890 803f ef0a 283f ae63 fa3e 5750 663f
00000030: dbf9 883f cc02 513f bb84 4f3f 9710 273f
00000040: 3f46 643f 176a 943e 3009 183f fff7 663f
00000050: 6d93 dd3e 4f7b 393f 7f5d 293f 6c22 2dbf
00000060: a111 7b3f a7d6 283f bf9f 183f f893 623f
00000070: 8745 213f 4ea3 503f 9f26 13bf 5fff 4a3f
00000080: 6f68 513f 04a1 63bf 9ff8 fa3e 1299 6e3f
00000090: 93a9 293f 129f 643f 2a80 313f 39e9 183f
000000a0: 0c5b 0a3f 8d70 3d3f eb2a 313f 7904 e03e
000000b0: 8c98 243f 61ec 1a3f 0f00 de3e c14d 613f
000000c0: de87 383f 0c71 ba3e 098d 173f 84a9 2f3f
000000d0: d676 5a3f 3b1a 693f d2b0 353f 8fb3 133f
000000e0: 5e2c 043f 6e43 0c3f 8de0 043f c492 1e3f
000000f0: b3a4 fc3e db52 7d3f 0cf0 893f 82b7 df3e

model.6.bias f4 [64]
0.24379703 0.806916 -0.56639963 0.34695268 0.67275625 0.4225 0.32725504 0.06832628
-0.054786414 0.6833147 0.758431 0.43032622 -0.85924804 0.097897395 0.31834388 -0.058888733
0.09594661 0.67086434 -0.34190524 0.004916089 -0.31056836 0.56968516 -0.046330124 -0.13959606
-0.03206047 0.36578932 0.67112434 0.50366384 0.4630526 -0.03545114 -0.3904113 -0.5442153
-0.075463444 -0.08806238 -0.013785998 -0.27228272 0.45613778 0.009620437 0.13590008 0.32938278
-0.5273558 0.14112459 0.47603527 -0.31110704 -0.25542173 -0.27612716 -0.65523833 -0.31162944
-0.061961044 0.52804655 0.9701275 -0.4016709 -0.08053048 0.27804255 0.54314595 0.76848614
0.4465299 -0.8896114 -0.07805214 -0.13369177 0.5784753 0.20606028 -0.41355073 -0.28550237
00000000: eea5 793e 0c92 4e3f 91ff 10bf c8a3 b13e
00000010: c139 2c3f ec51 d83e f98d a73e a6ee 8b3d
00000020: b867 60bd b6ed 2e3f 8928 423f b853 dc3e
00000030: aef7 5bbf 6e7e c83d f8fd a23e 5035 71bd
00000040: a87f c43d c4bd 2b3f 340e afbe 2517 a13b
00000050: d102 9fbe e3d6 113f a8c4 3dbd 45f2 0ebe
00000060: d751 03bd bd48 bb3e cece 2b3f 1df0 003f
00000070: 3b15 ed3e 3735 11bd fde3 c7be b251 0bbf
00000080: 948c 9abd 0d5a b4bd abde 61bc a468 8bbe
00000090: e48a e93e 0a9f 1d3c 6429 0b3e dca4 a83e
000000a0: ca00 07bf f782 103e e5ba f33e 6c49 9fbe
000000b0: a3c6 82be 8a60 8dbe b3bd 27bf e58d 9fbe
000000c0: ddca 7dbd 0f2e 073f 475a 783f cfa7 cdbe
000000d0: 2aed a4bd 985b 8e3e 9d0b 0b3f 82bb 443f
000000e0: 919f e43e 93bd 63bf cdd9 9fbd 7fe6 08be
000000f0: f516 143f 7701 533e ecbc d3be 5e2d 92be

model.6.running_mean f4 [64]
-0.86659855 -0.81033844 0.0026738802 2.812577 5.7579603 3.8282557 7.9264965 -0.50351566
0.13285042 0.8676485 -0.54879326 1.9044117 1.3891046 0.2584137 2.9018722 -0.32487372
2.8871865 -0.17159829 1.6843352 -0.6289125 -0.7950532 3.0159526 0.15258633 0.8319031
0.18397453 -0.9974632 1.0276144 2.467171 -0.21808699 3.3238747 -0.35599327 -0.06318857
1.7806336 1.590669 -0.2024852 1.3663983 0.5255458 2.2896638 -0.14143917 -0.36757615
-0.35824978 0.5280336 4.375777 0.385589 0.5123767 0.5371375 -0.75567675 0.20382929
0.11030031 -0.70802784 -0.27762395 0.5509015 0.09010806 1.3698925 0.32020184 7.403539
0.12629187 0.021214921 -0.21535338 0.4278916 -0.29488975 3.6718388 2.9708967 0.12977538
00000000: 67d9 5dbf 5772 4fbf 443c 2f3b 4301 3440
00000010: 3641 b840 2402 7540 dca5 fd40 67e6 00bf
00000020: f109 083e 361e 5e3f b77d 0cbf c3c3 f33f
00000030: 2ece b13f cd4e 843e 46b8 3940 d955 a6be
00000040: aac7 3840 76b7 2fbe 4c98 d73f 6900 21bf
00000050: 9b88 4bbf 5e05 4140 973f 1c3e 9af7 543f
00000060: d263 3c3e c059 7fbf de88 833f 21e6 1d40
00000070: 3252 5fbe 5dba 5440 c044 b6be 0269 81bd
00000080: cdeb e33f 0b9b cb3f 4858 4fbe 24e6 ae3f
00000090: 2b8a 063f da89 1240 6ed5 10be f132 bcbe
000000a0: 846c b7be 362d 073f 5d06 8c40 ec6b c53e
000000b0: 1f2b 033f d881 093f 0874 41bf a0b8 503e
000000c0: 21e5 e13d 5041 35bf ba24 8ebe e107 0d3f
000000d0: 938a b83d a358 af3f 7ff1 a33e cbe9 ec40
000000e0: a852 013e eaca ad3c 9985 5cbe 9c14 db3e
000000f0: cafb 96be 68ff 6a40 2c23 3e40 d6e3 043e

model.6.running_var f4 [64]
0.33676273 0.6012439 2.3766854 12.51716 11.773465 6.102048 5.9750905 0.8121082
2.4731803 8.353196 0.69522345 8.1869955 7.519903 3.5171103 10.17323 1.3539528
9.199442 2.2030046 5.2562175 0.439723 0.43015167 9.379921 3.3479252 6.0861125
4.4197536 2.9375982e-05 4.799176 9.585789 2.3173645 11.608925 1.3641019 2.9397235
15.645869 6.78676 1.67507 4.7361765 3.7754014 5.4190845 4.6270623 1.3333336
1.6731228 3.207821 8.273322 4.2512 2.7946498 4.9177475 0.5200886 1.7675447
5.950572 0.48730996 1.6421566 2.698139 1.4518435 6.319504 6.3133373 7.799592
3.3013785 2.189981 2.2154617 3.1973953 2.548774 9.876233 5.0906816 4.8727264
00000000: 2a6c ac3e 1feb 193f 9d1b 1840 4a46 4841
00000010: 1d60 3c41 fa43 c340 f133 bf40 53e6 4f3f
00000020: 9648 1e40 b1a6 0541 2afa 313f effd 0241
00000030: 0ca3 f040 5618 6140 8dc5 2241 534e ad3f
00000040: ea30 1341 07fe 0c40 ef32 a840 6023 e13e
00000050: d73c dc3e 2814 1641 6844 5640 6fc1 c240
00000060: 9f6e 8d40 716c f637 da92 9940 645f 1941
00000070: b34f 1440 28be 3941 e49a ae3f 6e24 3c40
00000080: 7b55 7a41 232d d940 b268 d63f c28e 9740
00000090: 2da0 7140 2469 ad40 e510 9440 adaa aa3f
000000a0: e328 d63f f04c 4d40 875f 0441 d509 8840
000000b0: 8bdb 3240 305e 9d40 8724 053f e83e e23f
000000c0: 166b be40 b180 f93e 3032 d23f 4fae 2c40
000000d0: 02d6 b93f 6039 ca40 dc06 ca40 4296 f940
000000e0: c949 5340 a628 0c40 20ca 0d40 20a2 4c40
000000f0: 1d1f 2340 0d05 1e41 dde6 a240 60ed 9b40

model.7.weight f4 [32, 64]
-0.21304071 -0.62223 0.2311555 0.10856025 -0.3710955 -0.51033324 0.34740508 -0.015676958
-0.20867738 0.7409581 -0.48335323 -0.31062442 0.22620355 0.047128376 0.59801257 0.14733858
0.20255059 -0.7148911 -0.02586093 0.06393475 0.011335642 0.48145747 0.2642533 0.04555698
-0.096211195 -0.6668348 0.083530895 0.6845964 -0.067970246 0.15366699 0.17752178 0.5944744
0.35882124 -0.6424164 -0.47202605 0.3176112 0.15905869 -0.7161955 0.08600506 -0.3490787
0.47301966 -0.33275214 -0.21229099 0.5919454 0.09011263 0.6496027 -0.25524738 0.016318325
-0.1932158 0.4252062 -0.49245998 0.2287673 0.746663 0.52537006 -0.16817759 -0.1762785
-0.112590484 0.10313958 -0.20664127 -0.024077779 0.14946114 0.42886886 0.10742444 -0.068393394
0.40758127 -0.5441443 -0.0853364 -0.46878746 -0.22230719 -0.5408626 0.004097391 -0.6800207
-0.186941 -0.14030948 0.19412246 -0.6304904 -0.58636177 0.2745969 0.581101 0.16875133
0.24167646 -0.37563825 0.6348872 -0.41856655 -0.028960546 0.15077513 0.4949246 0.6158096
-0.36790654 -0.17359678 -0.032084372 -0.33432198 -0.312963 0.149366 -0.051518295 -0.4743369
-0.76228356 -0.2464903 0.32754987 -0.28539515 0.028673185 0.725122 -0.6882811 0.3462587
0.4210679 -0.66578144 -0.15249446 0.12695572 0.0024426978 -0.044967648 0.34316245 0.13440557
0.78196096 -0.06377034 -0.34607744 0.054571018 -0.17659421 0.05222594 0.41021395 -0.6032353
-0.10881332 -0.1522162 0.020960007 0.16780436 -0.17494616 0.00998166 -0.19324324 0.048439216
-0.16853878 -0.5276358 0.014046577 -0.31302115 -0.2102252 0.7094826 0.11643792 0.18095584
0.33273098 -0.4390639 -0.15321097 0.08209281 0.06385831 0.37589255 0.29373065 -0.03690229
0.20201364 -0.3419121 -0.17185336 -0.5588949 -0.4023014 0.058363624 -0.07028676 0.27277222
0.2788958 -0.109057784 -0.004655189 -1.0494043 0.027938915 -0.25692105 -0.1479649 0.15842035
0.6107864 0.7728983 0.80431855 0.3938427 -0.7513843 0.12723126 0.012404987 0.11740967
-0.15325536 -0.29197305 -0.5178393 0.4353633 0.36210325 0.4121047 0.16673201 0.3673635
0.43352523 0.104781665 -0.048531324 -0.08786665 -0.18869676 -1.0113294 0.14943439 0.1418
0.07732617 -0.34540755 0.5053519 0.35600725 -0.45902362 -0.44116157 -0.43832117 0.06190947
-0.14975178 -0.14420506 0.48543665 0.067093626 0.29188073 -0.90200335 0.074099906 -0.3216937
-0.22057988 -0.080869064 0.44282913 -0.4182877 -0.3663801 -0.1942457 -0.2659648 -1.0053307
0.052743685 -1.0041453 0.36622998 0.23994128 0.10099348 -0.85855585 0.16232172 -0.3961329
0.23772177 -0.44957864 -0.12116057 0.011823182 0.21445145 0.29542115 0.22671144 0.076370254
-0.12481314 -0.120887265 -0.17528972 0.061390027 0.6252863 0.020495346 0.040990286 -0.11211722
0.509818 0.608337 0.4172277 0.19507869 -0.24345906 -0.19898339 -0.16847797 -0.23451863
-0.049716637 -0.5251467 -0.5461047 -0.5840914 -0.15939246 0.32508838 -0.37477317 -0.07733499
0.081745 0.40731224 -0.27747005 -0.64137274 0.37898055 0.16388245 0.6864709 0.49607402
00000000: 5827 5abe 774a 1fbf 07b4 6c3e d654 de3d
00000010: 3b00 bebe 33a5 02bf 14df b13e f76c 80bc
00000020: 86af 55be 6eaf 3d3f 137a f7be 2a0a 9fbe
00000030: e7a1 673e af09 413d 5a17 193f eddf 163e
00000040: 6c69 4f3e 1a03 37bf 4dda d3bc 39f0 823d
00000050: 21b9 393c 9881 f63e 354c 873e f599 3a3d
00000060: 600a c5bd afb5 2abf 3f12 ab3d b641 2f3f
00000070: fc33 8bbd e15a 1d3e 45c8 353e 792f 183f
00000080: 6bb7 b73e 6775 24bf 66ad f1be ef9d a23e
00000090: 48e0 223e 9758 37bf 6c23 b03d 72ba b2be
000000a0: a22f f23e 7d5e aabe cf62 59be bc89 173f
000000b0: f88c b83d 5d4c 263f c9af 82be 02ae 853c
000000c0: 5dda 45be a1b4 d93e b723 fcbe fa41 6a3e
000000d0: 4e25 3f3f a77e 063f bf36 2cbe 5a82 34be
000000e0: d795 e6bd d83a d33d c599 53be c33e c5bc
000000f0: 570c 193e b394 db3e 5801 dc3d d611 8cbd
00000100: 7eae d03e 0a4d 0bbf dac4 aebd e904 f0be
00000110: 7fa4 63be f975 0abf 6843 863b d615 2ebf
00000120: 766d 3fbe 4aad 0fbe 0ac8 463e d267 21bf
00000130: ce1b 16bf f797 8c3e 09c3 143f 26cd 2c3e
00000140: 097a 773e a853 c0be f887 223f 5b4e d6be
00000150: ab3e edbc cc64 1a3e c266 fd3e b3a5 1d3f
00000160: 3f5e bcbe 5bc3 31be e76a 03bd 402c abbe
00000170: b03c a0be 67f3 183e d904 53bd 49dc f2be
00000180: 0425 43bf f467 7cbe 9eb4 a73e 501f 92be
00000190: 07e4 ea3c 98a1 393f 3133 30bf d248 b13e
000001a0: 3696 d73e a770 2abf 8227 1cbe ae00 023e
000001b0: ab15 203b ff2f 38bd fdb2 af3e 9da1 093e
000001c0: 982e 483f 069a 82bd 1031 b1be dc85 5f3d
000001d0: 1dd5 34be deea 553d 9007 d23e a16d 1abf
000001e0: 85d9 debd 90de 1bbe 52b4 ab3c e8d4 2b3e
000001f0: 1625 33be 1e8a 233c 8ee1 45be 3368 463d
00000200: 6e95 2cbe 2413 07bf 9d23 663c 4f44 a0be
00000210: 4645 57be a7a0 353f 0177 ee3d 7d4c 393e
00000220: b75b aa3e fccc e0be 56e3 1cbe 4620 a83d
00000230: 25c8 823d fd74 c03e dd63 963e db26 17bd
00000240: aadc 4e3e 1a0f afbe 54fa 2fbe bc13 0fbf
00000250: 73fa cdbe b20e 6f3d 81f2 8fbd cda8 8b3e
00000260: 6ecb 8e3e b059 dfbd 8e8a 98bb e152 86bf
00000270: 27e0 e43c 288b 83be 1c84 17be f238 223e
00000280: 7f5c 1c3f aadc 453f d2e7 4d3f c0a5 c93e
00000290: b95a 40bf e948 023e 493e 4b3c 7b74 f03d
000002a0: f9ee 1cbe 7e7d 95be 1e91 04bf f0e7 de3e
000002b0: 9965 b93e 63ff d23e ccbb 2a3e 1217 bc3e
000002c0: 05f7 dd3e c597 d63d c8c8 46bd 6ef3 b3bd
000002d0: b939 41be 3e73 81bf 5405 193e 0534 113e
000002e0: 2f5d 9e3d 42d9 b0be be5e 013f 9546 b63e
000002f0: 2505 ebbe eedf e1be a26b e0be c994 7d3d
00000300: 8858 19be 7eaa 13be 278b f83e 6268 893d
00000310: 6471 953e b1e9 66bf b1c1 973d 09b5 a4be
00000320: b1df 61be ae9e a5bd 80ba e23e ce29 d6be
00000330: 2c96 bbbe 58e8 46be 8a2c 88be adae 80bf
00000340: c309 583d d587 80bf 7f82 bb3e 2bb3 753e
00000350: abd5 ce3d 51ca 5bbf aa37 263e eed1 cabe
00000360: 566d 733e 2c2f e6be 0823 f8bd 05b6 413c
00000370: 2999 5b3e 7141 973e 0b27 683e 0268 9c3d
00000380: 089e ffbd be93 f7bd 267f 33be 1c74 7b3d
00000390: c312 203f dbe5 a73c 6ee5 273d b79d e5bd
000003a0: 6f83 023f f9bb 1b3f de9e d53e b5c2 473e
000003b0: 554d 79be 4dc2 4bbe 7d85 2cbe a725 70be
000003c0: aca3 4bbd 0470 06bf 85cd 0bbf 0487 15bf
000003d0: c737 23be fc71 a63e 45e2 bfbe cf61 9ebd
000003e0: ec69 a73d 3b8b d03e 8e10 8ebe 0131 24bf
000003f0: bd09 c23e cdd0 273e 8fbc 2f3f 6afd fd3e

model.7.bias f4 [32]
-0.44417387 -0.28333357 -0.76635236 -0.9957178 -0.7948244 -0.5712432 0.0352452 0.7131814
-0.24892943 -0.44900343 -0.29245418 -0.8828811 1.9876775 0.14149679 -0.1931852 0.88860536
0.10563792 -0.6509976 -0.07878482 0.2320751 -0.939768 0.101169504 -0.7217652 -0.09854842
0.43134278 -0.60703975 1.3319938 0.068033546 -0.68560183 -0.2916867 -0.5488913 -0.05869141
00000000: c26a e3be 1911 91be ab2f 44bf 5de7 7ebf
00000010: 9d79 4bbf ff3c 12bf 455d 103d 0e93 363f
00000020: 5be7 7ebe c7e3 e5be 8ebc 95be 7f04 62bf
00000030: 376c fe3f 89e4 103e 57d2 45be a47b 633f
00000040: b258 d83d c7a7 26bf f059 a1bd 18a5 6d3e
00000050: a394 70bf f531 cf3d 9bc5 38bf c1d3 c9bd
00000060: f6d8 dc3e f566 1bbf c67e aa3f 2c55 8b3d
00000070: 9a83 2fbf f657 95be 2484 0cbf 6766 70bd

model.9.weight f4 [32]
0.6324068 0.80771714 0.85460025 0.9335934 0.63417506 0.9427982 0.8216132 1.0534036
1.4146647 0.83440715 1.3137605 1.2245265 1.3957976 0.8699575 0.82861 0.90293354
0.91576695 0.60848826 1.2432972 0.9033841 1.1343601 0.656942 1.216844 1.3715405
0.98569506 0.80708885 0.9208043 0.8172733 0.7308998 0.71549886 0.8005751 1.2192667
00000000: 69e5 213f 8dc6 4e3f 15c7 5a3f faff 6e3f
00000010: 4c59 223f 395b 713f 3e55 523f eed5 863f
00000020: bc13 b53f b59b 553f 4e29 a83f 49bd 9c3f
00000030: 7fa9 b23f 89b5 5e3f c91f 543f a726 673f
00000040: b46f 6a3f e3c5 1b3f 5d24 9f3f 2e44 673f
00000050: b632 913f 5a2d 283f 8bc1 9b3f a48e af3f
00000060: 8356 7c3f 609d 4e3f d5b9 6b3f d338 513f
00000070: 401c 3b3f ef2a 373f 7df2 4c3f ee10 9c3f

model.9.bias f4 [32]
-0.08725927 -0.052388843 -0.074818335 -0.06683276 -0.103670985 -0.068685316 -0.08510082 -0.01903478
-0.023805084 -0.18975367 -0.12985857 -0.028769756 0.05033058 -0.05311943 -0.09413917 0.086879626
0.04682562 -0.1556868 -0.031880762 -0.1084118 -0.104380794 -0.09837986 -0.053959627 -0.06774313
-0.030701717 0.013759803 0.01977123 0.07902631 0.052788425 -0.09335807 -0.034162566 -0.048129372
00000000: fdb4 b2bd af95 56bd 5b3a 99bd 9ddf 88bd
00000010: 7451 d4bd e3aa 8cbd 5749 aebd d4ee 9bbc
00000020: e102 c3bc c94e 42be a5f9 04be 8dae ebbc
00000030: 7027 4e3d c293 59bd 0acc c0bd f2ed b13d
00000040: 39cc 3f3d 5c6c 1fbe 6795 02bd 0107 debd
00000050: 99c5 d5bd 617b c9bd c504 5dbd e9bc 8abd
00000060: 2b82 fbbc cc70 613c 46f7 a13c 8cd8 a13d
00000070: ad38 583d 8432 bfbd 0cee 0bbd 4e23 45bd

model.9.running_mean f4 [32]
-0.5434976 -0.4295919 -0.7978449 -0.8134542 -0.72429264 -0.6017935 0.99916625 4.4733233
-0.6369947 -0.80332035 0.235459 -0.6614437 5.757812 0.39227757 1.3687782 3.6865993
1.5351024 -0.47629657 0.07150317 -0.098811656 -0.8627349 0.33901054 -0.64850897 0.59886956
1.5827384 -0.77012914 4.6840816 0.44651848 -0.83794457 -0.44383913 0.045623764 0.55821514
00000000: a922 0bbf 78f3 dbbe 903f 4cbf 893e 50bf
00000010: 3e6b 39bf 240f 1abf 5cc9 7f3f 7725 8f40
00000020: 1612 23bf 67a6 4dbf 2a1c 713e 6054 29bf
00000030: ff3f b840 9bd8 c83e 2034 af3f 3ef1 6b40
00000040: 3c7e c43f 25dd f3be 4170 923d c45d cabd
00000050: 32dc 5cbf ca92 ad3e af04 26bf 844f 193f
00000060: 2c97 ca3f 2f27 45bf ffe3 9540 129e e43e
00000070: 8983 56bf e23e e3be fcdf 3a3d 30e7 0e3f

model.9.running_var f4 [32]
1.2159486 0.76091033 0.25291228 0.31209952 0.27837327 0.43507293 2.336149 4.1324296
0.5863642 0.4341746 2.3302493 0.719203 6.5795627 2.054773 4.4586453 3.2999802
2.39237 0.8767385 1.8034942 0.66637725 0.36095387 2.2581174 0.87474066 1.571455
3.766413 0.21313943 4.0561647 2.1589847 0.11376956 0.88942844 1.7285211 1.8826689
00000000: 34a4 9b3f 05cb 423f b87d 813e 82cb 9f3e
00000010: f186 8e3e e1c1 de3e 7783 1540 dd3c 8440
00000020: f71b 163f 224c de3e ce22 1540 b01d 383f
00000030: c78b d240 6781 0340 39ad 8e40 e032 5340
00000040: 971c 1940 ef71 603f e6d8 e63f b397 2a3f
00000050: f2ce b83e ff84 1040 01ef 5f3f 7025 c93f
00000060: e90c 7140 3941 5a3e 1acc 8140 ce2c 0a40
00000070: 0400 e93d 95b1 633f 2e40 dd3f 4bfb f03f
