Deep Reinforcement Learning Nanodegree/continuous-control/critic_weights.pth (torch_old, 64811 bytes, 13 tensors)

model_1.0.weight f4 [33]
000000 27 0e 83 3f 48 07 0a 3f ed 1a 84 3f fc fb 56 3e
       1.0238694 0.5391736 1.0320717 0.20994562
000010 7f 4c 5b 3e 28 59 11 3e 5e 6c c3 3e d6 47 56 3e
       0.214159 0.14194167 0.38168615 0.2092584
000020 02 d5 06 3e 9d b9 91 3e 79 56 97 3e 8b 85 b7 3e
       0.13167194 0.28461924 0.2955816 0.35844073
000030 85 2b a5 3e f4 1a ac 3f b7 95 8d 3f db cf de 3f
       0.32259765 1.3445725 1.1061314 1.7407182
000040 a5 e8 c6 3e 81 5a 03 3f 41 32 9f 3e d5 64 18 3f
       0.3884937 0.51309973 0.31093028 0.5952886
000050 58 b1 b7 3e 54 c2 8f 3e cd de 85 3e c0 37 5e 3f
       0.3587749 0.28077948 0.26146546 0.8680382
000060 14 bd fe 3e bd 3f 83 3f 62 4e 91 3f ac 44 fe 3e
       0.4975363 1.0253826 1.1352046 0.49661767
000070 e6 d3 90 3f fc e2 55 3e e6 fb 5b 3f 87 b4 6f 3f
       1.1314666 0.20887369 0.8593124 0.9363484
000080 88 f8 a9 3f
       1.3278971

model_1.0.bias f4 [33]
000000 0e 6d 63 3d 6e 70 95 be c2 45 5b 3d ef b1 3e 3e
       0.055523925 -0.2918734 0.053533323 0.18622564
000010 b4 48 8d 3d 1e 6e 0d bd 04 3b 29 be e1 b2 f2 bd
       0.06898633 -0.034528844 -0.16526419 -0.11850525
000020 46 8c b7 3b 62 a7 15 3e 19 87 49 be 75 c0 ce be
       0.0056014387 0.14614633 -0.19680442 -0.40381208
000030 a9 27 73 bd ff fe f6 3c 5a e0 07 3e de 5d ca bd
       -0.059363995 0.030150888 0.13269177 -0.09881185
000040 6e 1c 23 3d f5 b0 be 3d d7 45 09 be 17 a7 b3 3d
       0.039822035 0.093110956 -0.13405548 0.08772104
000050 d9 83 07 be 4e 3f 82 3b ac 9a 2e 3d c2 7a ac 3d
       -0.1323389 0.0039748317 0.042627975 0.08421852
000060 d7 f4 13 3d fd 43 e8 bb 33 66 73 3d f5 df bf 3e
       0.03612217 -0.007088183 0.059423637 0.37475553
000070 8b cb 2d 3d ce f5 3f 3e ae a3 23 be 53 7a da 3e
       0.04243044 0.18746111 -0.15980408 0.4267145
000080 76 bc 8c 3d
       0.068718836

model_1.0.running_mean f4 [33]
000000 fc 45 8d be ef dd 24 c0 0d 16 5c 3e 1f 7f 60 3f
       -0.27592456 -2.5760458 0.21492787 0.8769397
000010 7a d2 07 bd 78 5d f2 bb f1 e3 fb 3c 2e ac 04 3c
       -0.03315971 -0.0073963962 0.03074834 0.008097691
000020 22 f0 1c bc 16 dd 9e ba fe c2 7f bc 5c a9 b6 3c
       -0.0095787365 -0.0012120332 -0.015610455 0.022297554
000030 ba 47 85 bb 03 d0 a4 be 4a 82 16 c0 0d 2f 9a 3e
       -0.0040673884 -0.3218995 -2.3517022 0.30114022
000040 e5 01 e1 3b b3 3e f8 3c 92 02 01 3c fe 5f 9b bc
       0.006866681 0.030303335 0.007874148 -0.018966671
000050 63 5c c4 3b 0e c8 ba bb 65 da 8f bc e1 5f 7c 3c
       0.0059924587 -0.005700118 -0.017560193 0.015403719
000060 38 4a 2a 3e c2 25 03 bd 8c f7 70 bb fc ff 7f bf
       0.16629875 -0.03201843 -0.0036768643 -0.99999976
000070 0d 43 5a 3c 00 00 00 00 fc ff 7f 3f 00 00 00 00
       0.01332165 0.0 0.99999976 0.0
000080 68 8c f9 bc
       -0.030462459

model_1.0.running_var f4 [33]
000000 42 8f 88 40 cd d4 bb 3e 71 d1 95 40 f4 6a 27 3d
       4.2674875 0.36685792 4.6818166 0.040873483
000010 7f 6f 91 3d b2 f5 52 3c f3 c9 d5 3d 1a 07 6f 3e
       0.07101344 0.012875961 0.104389094 0.23342553
000020 6c 13 3e 3d 64 c2 92 3d d7 64 c1 3f 6f 36 14 3f
       0.04640524 0.07165983 1.5108899 0.5789556
000030 05 19 e1 3f f1 6c 99 41 d3 d9 9a 3f ba b1 ae 41
       1.758576 19.178194 1.2097725 21.83678
000040 c0 5d 95 3d 5b eb 6d 3e d2 a6 88 3d 65 a1 20 3f
       0.07293272 0.23234312 0.066724434 0.6274627
000050 97 5d 6a 3f 1a 27 f0 3e 34 b1 d1 3e 51 fe d1 40
       0.91549057 0.46904832 0.40955508 6.5622945
000060 44 e1 1c 40 6a b4 f3 40 63 2d 00 42 04 00 00 00
       2.4512491 7.615773 32.044323 6e-45
000070 f6 46 00 42 04 00 00 00 04 00 00 00 04 00 00 00
       32.069298 6e-45 6e-45 6e-45
000080 f9 33 a6 3e
       0.32461527

model_1.1.weight f4 [128, 33]
000000 c9 fe 92 bc 83 d8 b5 be 22 8f 9f 3e f6 71 90 3d
       -0.017943757 -0.35516748 0.3116389 0.07052986
000010 31 22 6f 3e 81 b1 df 3d 3c 01 b4 3d 0b 4a bc bc
       0.23352887 0.10922528 0.08789298 -0.022984525
000020 a8 5b c5 bd 5e 8d e1 bd 96 05 01 bb 82 f6 1b be
       -0.09636623 -0.11013292 -0.0019687167 -0.15230754
000030 2b 34 42 bf f3 e8 6f 3d f0 03 af 3e ba 58 1e bf
       -0.7586085 0.058571767 0.34182692 -0.61854136
000040 3e b1 cb 3d b3 c4 5e 3d ae f9 5f 3e f1 90 ea be
       0.09945916 0.054386806 0.21872589 -0.45813707
000050 af 09 9e be 07 7b 6d 3e ed 98 bf 3a bb 54 ff 3e
       -0.30866763 0.23191462 0.0014617719 0.49869332
000060 64 6f ac 3d 8e 01 d4 3e a8 3a aa bb 84 4f 83 3e
       0.084196836 0.41407436 -0.0051949807 0.25646603
000070 fe 52 78 3f 1c 83 82 3c b6 57 88 3d 65 44 f0 3d
       0.97001636 0.015931658 0.066573545 0.11731795
000080 a1 33 6b bd 81 60 9d 3e 85 98 95 be ac 29 89 3c
       -0.057422284 0.3073769 -0.29217926 0.016743504
000090 17 c1 98 be 7d 34 f9 3d 1f 1c 59 3e 93 a8 56 3e
       -0.29834816 0.121682145 0.21202134 0.20962743
0000a0 70 e6 02 3e ee e7 f3 3e ef a9 87 3d be 71 1e 3e
       0.12783217 0.47637886 0.06624209 0.15473077
0000b0 5c 41 7c 3e d6 e5 3c be 1c fe f9 3e 4b c2 4c 3e
       0.24634308 -0.1844705 0.48826683 0.19995992
0000c0 9f 9f 89 3e 2b 1d 49 be b3 09 ea bd 16 ea 8a be
       0.26879594 -0.19640033 -0.11427631 -0.27131718
0000d0 64 18 4b be 37 6c cf bc ed 19 8e 3e fc 3a fe 3c
       -0.19833523 -0.025320156 0.27754155 0.031033985
0000e0 ad 4b b4 3d b9 7f 08 3e ea ae bb 3d f7 aa 30 3d
       0.088034965 0.13329972 0.091642216 0.043131795
0000f0 4f 47 ca be 53 36 52 bf e1 e8 3e be bd 3b 1f 3e
       -0.3950753 -0.8211414 -0.18643524 0.15550132
000100 65 ca 42 be 9c 60 fd 3e ed 70 e3 bd 04 87 9c 3e
       -0.1902252 0.4948777 -0.11105523 0.3057176
000110 c3 6c 3b 3c c8 c1 22 be e8 89 40 be de a7 a2 3d
       0.011439505 -0.15894234 -0.18802607 0.079421744
000120 8a 9a f6 39 a8 f7 9c bc 03 88 d0 3b 45 ec be 3d
       0.00047035917 -0.01916106 0.00636387 0.093224086
000130 bf 55 6f 3e 5c f8 8b 3e ea ba a9 bd e8 e6 37 3e
       0.23372553 0.2733792 -0.08287604 0.17959177
000140 d2 23 23 be 2c 80 ac bd 6d 78 3f be d4 e1 2f 3d
       -0.15931633 -0.08422884 -0.18698283 0.042939976
000150 1b 86 32 3e 7f a7 da 3c 5a 90 27 bb 02 0f 5f bd
       0.1743397 0.026691196 -0.0025568218 -0.054457672
000160 f0 fd 30 be ef 9e 19 bd 5e bc 7f bd 4c 0a 2e 3b
       -0.1728437 -0.037505087 -0.0624355 0.002655643
000170 fa 4b a2 bc 2c dc 32 bf 26 ec 33 3e 70 fa ca be
       -0.01981162 -0.69867206 0.17570552 -0.39644194
000180 dc b5 ae 3e 86 35 3e bf 84 51 b5 3d fc 7b 45 3d
       0.34123123 -0.7430042 0.088534385 0.048213944
000190 7d 10 74 bd 9c 7d f2 3d 6d 73 9b bd 46 e7 bf bb
       -0.059586037 0.11840364 -0.07590375 -0.0058564274
0001a0 9b 62 4e 3e 72 71 50 bc bb e6 55 3e ca 21 4a 3d
       0.20154803 -0.01272236 0.20888798 0.04934863
0001b0 f6 22 7d bd df 94 ac 3d 6a 7f ab 3d a6 d3 b5 bc
       -0.06180092 0.084268324 0.08373912 -0.022195648
0001c0 a0 53 3b 3f 71 a7 30 3e 86 14 fc be 3d 30 c8 bd
       0.73174477 0.17251374 -0.49234408 -0.09774826
0001d0 ce 70 b5 3c ae 2b a5 3b 62 73 2d 3e b4 0c 93 bd
       0.022148516 0.0050406074 0.16938546 -0.07180157
0001e0 6d 60 83 bd b4 cb 99 3d b3 c2 0d be 8d 47 86 3e
       -0.06414876 0.075095564 -0.13843803 0.26226464
0001f0 9c 0f 36 3e 37 61 70 bf 03 de 77 be ee 04 0c 3f
       0.17779392 -0.9389834 -0.24205784 0.5469502
000200 9a f1 d6 bc 89 d0 6a bd 37 a6 1e be 52 ab 62 bc
       -0.026238251 -0.05732778 -0.15493093 -0.013834791
000210 ad 43 46 3e 93 08 07 be 9b 51 2e 3e 05 e5 91 3e
       0.19361754 -0.13186865 0.17023318 0.2849504
000220 5d ac a3 bd c6 6c e3 3d 64 c6 c4 bd 48 6a f7 3d
       -0.0799186 0.11104731 -0.096081525 0.120808184
000230 53 0f 6e bb 46 ce 76 3e 37 44 c6 3e 5d 7d 2d be
       -0.0036325052 0.24102125 0.3872392 -0.16942354
000240 d5 76 bf bc 50 0d 91 3e a2 17 93 be e0 fc 8e be
       -0.023372093 0.2833047 -0.28728968 -0.27927303
000250 a7 27 12 bf b7 97 87 be 0b 95 36 3f af 14 55 3f
       -0.57091755 -0.26482937 0.7132117 0.83234686
000260 b3 9b 85 bd a4 2a 95 3d 42 3d 36 be ae b8 8d be
       -0.06523838 0.07283524 -0.17796806 -0.27679962
000270 68 24 b5 bd 0a 1c 28 3e b5 38 42 be ec 8c 7a be
       -0.088448346 0.16416946 -0.18966945 -0.2446782
000280 8d e9 8f 3e 12 29 57 be 62 c4 8f 3e 5c a8 6b be
       0.28107873 -0.21011761 0.28079516 -0.23013443
000290 cb fa 54 3e c5 a4 e2 3d d1 bd b3 3e a0 eb 2e bd
       0.20798795 0.110665835 0.35105756 -0.04270518
0002a0 23 6b cc be 11 45 11 be 22 cd b7 be e2 d4 ac 3e
       -0.3992549 -0.14186503 -0.3589869 0.33756167
0002b0 9c f4 10 3c c9 d8 28 be 21 45 dc be 9c 55 6f be
       0.008847382 -0.16488947 -0.4302149 -0.23372501
0002c0 c0 08 bd 3d 17 49 d7 3e dd 6f 05 be 42 17 f3 3d
       0.092301846 0.4204795 -0.13030954 0.118696705
0002d0 fa bc 17 3f 0c d6 28 bd 19 2c 00 be 7c f5 04 3e
       0.5927273 -0.041219756 -0.12516822 0.1298427
0002e0 9c 38 f6 bd ea 24 3d 3e c6 a9 58 3d cc 09 1c 3e
       -0.12022516 0.18471113 0.052896284 0.15238112
0002f0 a5 93 8a be c6 fa 8b bc 3a c7 d2 3d 83 d4 70 3d
       -0.2706577 -0.017087352 0.10291906 0.058796417
000300 8a 88 61 be 84 ab d5 3e 30 2f 76 be 70 1a 46 3e
       -0.22024742 0.4173242 -0.24041438 0.19346023
000310 b4 a5 e6 be 3b f5 42 3f 00 a0 39 3e f1 14 80 be
       -0.45048296 0.7615544 0.18127441 -0.25015977
000320 55 cf ec bd 1c 30 b0 3c 71 f0 af be 0f 5d b5 3c
       -0.11562983 0.021507315 -0.3436313 0.0221391
000330 24 e0 2f 3d f9 8d d4 bc f2 63 b0 3c 47 16 b7 be
       0.042938367 -0.025946604 0.021532033 -0.35759184
000340 38 f0 27 bd 73 46 1b 3e ee 87 49 3d 1a 53 ac be
       -0.041000575 0.15163593 0.0492019 -0.3365715
000350 0d 8f 90 3d b9 4d be 3d 4e 84 16 3f 57 c6 94 be
       0.07058535 0.09292168 0.5879563 -0.2905757
000360 12 f6 9c 3e 71 ea 6b 3e 61 d4 34 3b 57 37 28 3e
       0.30656487 0.23038651 0.0027592408 0.1642736
000370 f2 93 1b bd 8b de 44 be a9 26 c7 3d 8e 96 a2 3d
       -0.03798289 -0.19225518 0.09724171 0.07938872
000380 cc 50 24 3f d3 5e a5 be 9d 4b bc bb 15 b4 35 be
       0.64185786 -0.32298908 -0.0057463185 -0.17744477
000390 07 8d 50 3d 75 2e c5 be 0a 7f 0f 3f a9 6c fa bd
       0.050915744 -0.38512006 0.5605322 -0.122277565
0003a0 b3 e4 c9 3e 3c ed 45 bf 64 3b 1c be de e0 5a 3c
       0.39432296 -0.77315116 -0.1525703 0.013359277
0003b0 26 ed b2 3d 0a 98 3a bf aa cb 15 3e 16 be 19 3e
       0.08736639 -0.72888243 0.14628473 0.15013918
0003c0 b5 50 d1 3d 1d d1 e5 3c be 22 9d be dd 9b f3 be
       0.10220472 0.028053815 -0.3069057 -0.47579852
0003d0 ac 3b d1 bd 6b 00 c0 be bd 1f a7 be 2a ef 1c bc
       -0.1021646 -0.3750032 -0.32641402 -0.0095785055
0003e0 c5 27 74 be 9a 8e 48 be d3 22 2c bd 0e 21 63 3e
       -0.23843296 -0.19585648 -0.0420254 0.22180578
0003f0 12 fb 80 3e 18 37 01 bf 8a b6 2b be 0d f2 35 bd
       0.2519155 -0.5047469 -0.16768852 -0.04442029

model_1.1.bias f4 [128]
000000 06 40 bd 3d 2d 98 9c be 96 8e 4c bf 87 05 09 be
       0.09240727 -0.3058485 -0.7990507 -0.13381015
000010 18 28 92 bd 3b 97 9e be 2a af d3 be fa f2 f9 3d
       -0.071365535 -0.30974755 -0.41344577 0.12204547
000020 ee 2c c3 be 75 32 fd 3c b9 16 90 3e e2 df 01 bf
       -0.38120216 0.030907849 0.28142336 -0.50732243
000030 dc 3c 91 3e b4 62 cb 3d b3 77 c1 3e e5 82 5a be
       0.28366745 0.099309355 0.37786636 -0.21338995
000040 45 c8 33 bf 36 87 58 be 1e ff cb be 05 97 9c be
       -0.7022746 -0.21145329 -0.39843076 -0.3058397
000050 45 0b da be 86 ef 36 bd 3d 4c 11 bf 99 fb e7 3e
       -0.42586723 -0.04466202 -0.56756955 0.4530914
000060 52 0c 30 3e cb a2 8e be ed f3 06 bf e8 15 fa be
       0.171922 -0.27858576 -0.5271595 -0.48844838
000070 5a 40 d3 3d 1c 07 7c 3e dd 9e f3 bd 25 c5 11 3d
       0.103150085 0.24612087 -0.11895535 0.035588402
000080 ff 11 bb 3e 02 c0 2a 3e 4f 13 63 3e 6d bc 33 be
       0.36537167 0.16674808 0.22175334 -0.17552347
000090 29 30 0b bf 31 05 7c 3e 8a 02 14 bf 22 88 95 3e
       -0.5437036 0.24611355 -0.57816374 0.29205424
0000a0 65 72 80 3d 53 ed b9 be 71 fa 6f be cf 31 e0 be
       0.06271819 -0.36313877 -0.2343538 -0.43788
0000b0 43 bb a5 3e 64 33 2d be db 86 81 3e 40 6d 70 be
       0.32369432 -0.16914135 0.252982 -0.23479176
0000c0 00 41 b3 be 65 a3 09 3e a5 54 ca 3d d5 1d 95 3e
       -0.3501053 0.13441236 0.09879426 0.29124323
0000d0 ac 1b de be fd 04 90 be 05 fb 02 bf 0a bd 22 bf
       -0.43380487 -0.28128806 -0.51164275 -0.635697
0000e0 5a 77 cb be 63 60 05 bf 2c b3 7c 3e 99 f3 ad be
       -0.39739496 -0.521002 0.24677724 -0.33974913
0000f0 21 e4 94 be fa 6c eb be 75 e0 98 be 31 a4 25 be
       -0.290803 -0.4598158 -0.29858747 -0.16175915
000100 09 cd 29 bf 1f bf b8 3d b3 0e 0f 3e 3b ee fe be
       -0.66328484 0.090208285 0.13970451 -0.4979113
000110 ff 35 9a 3e 51 92 67 be 71 09 1a be 82 31 29 3e
       0.3011932 -0.22614409 -0.15042664 0.16522792
000120 79 e5 0d bf de 1d 97 be 29 d4 b6 be f0 ce da be
       -0.5542827 -0.29514974 -0.3570874 -0.42736006
000130 2a fd c8 be c2 a1 97 be f4 1c e2 be c0 01 08 3e
       -0.3925565 -0.296156 -0.44162714 0.13281918
000140 f2 80 c9 be 84 d7 a6 3d e5 18 ba be 3c 2f 64 3e
       -0.3935619 0.08146575 -0.36347118 0.22283643
000150 e3 be 81 3e df 9b 07 bf 00 0a dc ba b7 48 0e bf
       0.25340948 -0.52972215 -0.0016787648 -0.55579704
000160 4c 73 49 bf 6b ba f6 bd e8 f2 03 bd ff bf da 3c
       -0.78691554 -0.12047275 -0.032214075 0.026702879
000170 39 1c df be 51 a7 fd 3d e4 06 22 bf 94 53 db 3c
       -0.4357622 0.12385429 -0.63291764 0.026773252
000180 13 aa d0 be 9f 64 90 3e 5f c1 54 be 66 5b d0 3d
       -0.40754756 0.28201768 -0.2077689 0.10173683
000190 87 71 0d 3e 7e 8c e4 3d 01 79 8b be 85 8c 22 bf
       0.13812838 0.11159609 -0.27240756 -0.63495666
0001a0 0d 80 19 bf 5a 28 45 3d 5d 1c 88 3e 15 2d 76 be
       -0.59961015 0.048134185 0.2658414 -0.24040635
0001b0 ac be 8d be cd 2f d6 be 4f c0 7d 3e f9 d9 a9 be
       -0.27684534 -0.41833344 0.24780391 -0.33174112
0001c0 c7 27 48 be 78 61 0e bf 4f a8 1a bf 83 cf b2 3d
       -0.19546424 -0.55617476 -0.6041307 0.08730986
0001d0 a2 e1 96 3e f7 39 ba 3d 55 89 bb 3d 74 94 d6 3d
       0.2946902 0.09093087 0.091570534 0.10477534
0001e0 7d d4 99 be 3b c4 f0 3d ad 44 c5 be 0b 8d 06 bf
       -0.30044928 0.11756178 -0.38528958 -0.52558964
0001f0 0b f4 c9 be 6c 71 c1 be 43 02 2f be 61 88 7f be
       -0.39444003 -0.37781847 -0.17090707 -0.24954368

model_2.0.weight f4 [64, 132]
000000 c9 71 9e be 9e 2c b9 3a 7e 98 0d be 64 56 81 be
       -0.30946186 0.0014127677 -0.13827702 -0.25261223
000010 da eb ac bd 0d 5a 5a be 1a d0 86 3d bf 16 68 3d
       -0.084434226 -0.21323414 0.06582661 0.056662317
000020 e2 cd 34 be 16 e2 94 3d 0b 0b 10 be 12 eb e4 bd
       -0.17656663 0.07269685 -0.14066713 -0.111776486
000030 1f 5b 08 be c2 4f 91 be 72 a2 27 bc cd 13 23 3e
       -0.1331601 -0.28381163 -0.010231601 0.15925522
000040 19 65 6c bd 88 e3 16 be 43 52 70 3d 63 db 09 be
       -0.0577136 -0.14735234 0.0586722 -0.13462596
000050 52 9b 0b be ce bb 78 be a2 99 0a be 77 60 ed bd
       -0.13633469 -0.24290392 -0.13535169 -0.11590665
000060 80 5a e0 be b6 c8 1a 3e 29 35 ee bd ae 58 90 bd
       -0.43819046 0.15115628 -0.11631233 -0.07048164
000070 4a ce 09 3e 7a 7d b8 3d 27 93 ad be 4f 12 58 be
       0.134576 0.09008308 -0.3390133 -0.21100734
000080 55 eb a1 bd 67 27 ee 3d 04 f6 82 be 24 32 c1 3d
       -0.07906214 0.11628609 -0.2557832 0.09433392
000090 f9 c4 3a 3c a9 e7 65 3e e5 33 18 be 59 c1 0f 3e
       0.011399501 0.22451653 -0.14863546 0.140386
0000a0 1c 14 c0 bd e8 de 7a be 68 5e 35 be 58 cb 74 bd
       -0.093788356 -0.24499094 -0.17711794 -0.059764236
0000b0 58 c3 d8 3d 99 d5 5e 3e b4 a3 73 be 08 2b bc be
       0.10584134 0.21761169 -0.23792917 -0.3675158
0000c0 b9 28 8a be 1d 83 a1 bd c0 4d e6 bc 42 a5 33 be
       -0.26984194 -0.07886336 -0.028113246 -0.1754351
0000d0 a8 8a 77 3e 87 5b 27 3d 9d 7c 99 3e 84 19 4c be
       0.24173987 0.04085877 0.29977885 -0.19931608
0000e0 51 12 00 3e 7b 6d 07 be 1f 3f c1 3d 7f de 35 be
       0.12506987 -0.13225357 0.094358675 -0.17760657
0000f0 a5 ad 9a 3e 69 5b cd bc 8b 32 05 be 0f 4f 17 bd
       0.30210605 -0.025068002 -0.13007562 -0.03694063
000100 f0 f0 af 3b db b3 1d 3e 66 1e 67 be fa 8d 3d bd
       0.005369298 0.1540064 -0.2257019 -0.046277978
000110 67 ed 1a be 4a da 09 bd b4 f5 88 3d bb f6 70 bb
       -0.15129624 -0.033655442 0.06687489 -0.0036768157
000120 09 e9 6a bd ee 7d 81 be 1a 5f 41 3e 31 47 53 be
       -0.057351146 -0.2529139 0.18883935 -0.20632626
000130 36 25 5d be 9d 58 a8 3c 05 e5 02 bd cc f4 2e 3e
       -0.21596226 0.020550067 -0.03195669 0.1708557
000140 dd 1a f0 bd bb f3 97 3e 7d 7d 1d be 10 57 3d be
       -0.11723874 0.2967814 -0.15379901 -0.18490243
000150 34 73 0e be c9 5e b2 bc b7 91 64 3d 9b e5 91 be
       -0.13911134 -0.021773713 0.055803027 -0.28495488
000160 17 d0 e5 3d 33 1e de bd dc 13 c7 be c0 03 7e be
       0.112213306 -0.10845604 -0.3888234 -0.24806118
000170 84 0e d0 bd 54 7b 89 3d 9e fe f4 bd 6d 2f 1f 3e
       -0.10159019 0.06712976 -0.11962627 0.15545435
000180 86 d1 a6 bd cc ab 32 3e 0e 45 21 bf 22 a2 48 bf
       -0.08145432 0.17448348 -0.62995994 -0.78372395
000190 27 48 48 be c1 da 84 be 2a 86 47 be a1 17 49 bd
       -0.19558774 -0.25948146 -0.19484773 -0.0490948
0001a0 95 40 4a 3d cd bc 80 3e 83 a0 4b bd 5d cd be 3d
       0.049377996 0.25144044 -0.049713623 0.09316514
0001b0 04 d0 13 3e fe 57 02 be 8f d4 df bd 29 5b c2 bd
       0.1443482 -0.12728879 -0.10929214 -0.09490044
0001c0 bd 20 8b be 87 b2 4a be 48 ec 14 bc 8a d6 9e bd
       -0.27173415 -0.19794665 -0.009089537 -0.07755764
0001d0 40 69 4c be 04 6f a1 bd 72 69 50 be a6 19 6c 3e
       -0.19962025 -0.07882503 -0.20352724 0.23056659
0001e0 a2 ca 4a be 05 aa e4 bd ad 7c 31 be 77 1d e1 3b
       -0.19803861 -0.11165241 -0.17332716 0.0068699676
0001f0 dd 1e 82 bd 22 57 aa bc 63 d6 00 bf 9f 08 f9 bd
       -0.06353543 -0.020793501 -0.5032713 -0.121598475
000200 85 d5 0d 3e f4 4e 86 bd 44 aa ba 3d 64 ba 21 be
       0.13850982 -0.06558028 0.09114507 -0.15793759
000210 28 46 8f 3d 03 70 b9 be e2 3e d3 bc c6 cb cf 3d
       0.06995803 -0.3621827 -0.02578682 0.101462886
000220 7f 9b 01 3d d6 fe 3e bc 28 35 77 3c d1 b8 33 3e
       0.031642433 -0.011657437 0.015088357 0.1755097
000230 4f e7 19 3c dc 75 59 be 1a ec 5d bd c6 40 6a 3c
       0.009393527 -0.21236366 -0.054180242 0.01429767
000240 23 d9 4c 3e de e6 17 3d e0 e7 d4 3d 7c 52 ef 3d
       0.20004706 0.037085406 0.10395789 0.116856545
000250 64 20 c7 3d 9a 41 c5 bd 85 a4 2b bd 88 6f d0 bd
       0.09722975 -0.09631653 -0.041904945 -0.10177523
000260 99 16 bc bd 47 51 1d 3e ae d0 43 be 7b b3 90 3d
       -0.09183998 0.15363036 -0.19122574 0.07065483
000270 1b 39 00 3e 88 65 17 bc 5f 57 a8 be 62 ec ef bc
       0.12521784 -0.0092405155 -0.3287916 -0.02928752
000280 cb 92 e2 bd 83 6f 50 be 6c d9 93 3e 20 fe 07 3e
       -0.11063155 -0.20355038 0.28876817 0.13280535
000290 71 03 48 3d c9 63 b3 bc 0e 30 cb bd 3a b7 8e 3b
       0.048831407 -0.021898167 -0.09921275 0.0043553384
0002a0 b7 24 98 be 7e 3d b3 3c 78 55 f5 3c 41 de 77 be
       -0.2971551 0.021879908 0.029947981 -0.24205877
0002b0 e1 91 cb bd ec 84 cc be 84 02 01 bf b6 7c 4a bd
       -0.099399336 -0.3994516 -0.50394464 -0.04943534
0002c0 d2 78 d6 bd ad 12 4c be ea ac 9d 3e 1b 20 8c 3e
       -0.104722634 -0.19928999 0.30795985 0.27368245
0002d0 00 58 8c 3e e0 c6 51 bd 79 10 f2 3d 9e 00 8c bd
       0.2741089 -0.051215053 0.11819548 -0.06836055
0002e0 1f b5 86 bd 6e 74 01 bf 51 85 e5 3d 2e a7 ab be
       -0.06577515 -0.5056828 0.11207069 -0.33525985
0002f0 1d 07 e1 3d 60 59 87 bd 60 84 a3 3d 74 76 97 3e
       0.10987685 -0.06608844 0.07984233 0.2958256
000300 da e2 2a be 47 27 eb 3d 04 ce 78 3c b1 4b 19 3e
       -0.166881 0.11482101 0.015185837 0.1497028
000310 ae b4 0d 3e fa 93 e9 3d 3f 37 17 3d b5 3b 30 be
       0.13838455 0.114051774 0.03691792 -0.17210276
000320 6e 48 ab be 9a 22 b4 3e 37 b1 af 3d e4 d7 d6 3d
       -0.33453697 0.3518265 0.08578723 0.104903966
000330 e7 fa 80 be dd 5d 5d 3e a9 b0 bf bd 1d c8 14 be
       -0.25191423 0.21617837 -0.09359867 -0.14529462
000340 b3 81 13 be cf fa 9d be 3a 63 f1 3e 7b b6 36 be
       -0.14404945 -0.30855414 0.47146016 -0.17843048
000350 fc f7 e9 bd 51 37 38 be c5 48 89 3e 5a 3c 08 3d
       -0.114242524 -0.17989852 0.2681333 0.03326068
000360 03 5c cd 3d da 98 41 3e 24 2b 93 be 36 26 36 bd
       0.100273155 0.18905964 -0.2874385 -0.044470035
000370 54 d0 f2 be e4 7f 1b bc cc c1 59 3e 2d 44 71 bd
       -0.47424567 -0.009490941 0.21265334 -0.058902908
000380 dd 6b 4a 3e a4 20 05 bf 2a 91 31 3e 97 58 38 3c
       0.19767709 -0.5200293 0.17340532 0.01125159
000390 ac a5 33 3e 12 e8 b1 bb e2 c8 aa 3d a3 9d 02 3e
       0.17543668 -0.0054292763 0.083390966 0.12755446
0003a0 7c b2 72 3d 16 14 ef bd b1 c7 86 3e 80 ea bb bc
       0.059252247 -0.11673753 0.26324227 -0.022938967
0003b0 78 e4 7c be ab 8e 1f bd 58 90 00 bd 05 7d 7a 3e
       -0.24696529 -0.03895442 -0.031387657 0.24461754
0003c0 03 5f 33 bd 22 2e a2 3d e0 a6 8a bc 8d 9d 43 be
       -0.043791782 0.079189554 -0.016925275 -0.1910307
0003d0 a4 53 85 bd 19 12 d2 3e 54 fd bb bc 94 1d 75 be
       -0.06510094 0.41029432 -0.022947945 -0.23937064
0003e0 36 16 07 3c ff 0f 8b 3d 55 2e 5b 3e d2 9d 2e be
       0.008245042 0.067901604 0.21404393 -0.17052391
0003f0 de c1 82 3e 0a 30 df 3e 45 5b 1d 3d eb dc f8 3d
       0.25538534 0.43591338 0.03841712 0.12151512

model_2.0.bias f4 [64]
000000 d0 69 ac 3d 7c 77 87 bd 37 1e 6b be 90 7b af 3e
       0.0841862 -0.06614587 -0.22960745 0.34273958
000010 9d fe 01 bf c7 3d 79 be 10 ae bf bd 57 f1 1d bf
       -0.50779134 -0.24339972 -0.09359372 -0.6169638
000020 e5 c6 ad be 69 86 59 bd 31 1c 00 bf dc da 60 bd
       -0.33940807 -0.0531067 -0.50043017 -0.05489622
000030 13 dc b9 be ec 3f 99 be 02 bf 8e be 98 ba b3 3d
       -0.36300716 -0.2993158 -0.27880102 0.08775824
000040 6e 40 2b bf 21 b6 af be 52 6a be be ac 7b 16 be
       -0.66895187 -0.3431864 -0.3719049 -0.14695615
000050 d8 af 75 be 28 a0 85 be 8c 2e 23 bd 8c 74 a3 be
       -0.2399286 -0.26098752 -0.039839312 -0.31924856
000060 dd f0 64 be 9f 79 94 3b 03 6f 01 bf f5 d4 d0 be
       -0.22357507 0.0045311 -0.50560015 -0.40787473
000070 1e 46 a1 be 27 f4 34 3c cf b7 d6 be d1 e3 73 be
       -0.31498808 0.011044539 -0.4193711 -0.23817374
000080 a8 d2 da be 6d 92 85 3c 81 d7 b5 be 6c 02 92 3e
       -0.42738843 0.016305173 -0.3551598 0.28517473
000090 4b 90 89 3e 95 a5 2d 3d d3 33 2f be 3f 9c c4 bd
       0.268679 0.04239424 -0.17109613 -0.09600114
0000a0 cd f3 d2 be b4 85 03 bf 21 3e 14 bf 7f 55 19 bf
       -0.4120163 -0.5137589 -0.579073 -0.5989608
0000b0 71 f7 79 be f7 69 14 bf d3 60 1c bf 47 08 93 be
       -0.24410798 -0.5797419 -0.6108524 -0.28717253
0000c0 fe 62 5e bd d6 dc 4c be b7 78 e6 bd 33 78 33 3e
       -0.054293625 -0.20006117 -0.11253493 0.17526321
0000d0 de 04 21 be c3 00 14 3e 32 d8 a6 bc 5d aa 0b bf
       -0.15724513 0.14453416 -0.020366762 -0.5455683
0000e0 ac 5a de be 87 cb ad be e5 25 9b be fd 30 16 bf
       -0.43428552 -0.33944342 -0.3030235 -0.586685
0000f0 03 79 03 bf b1 97 c9 be c5 09 95 be 4b 52 39 be
       -0.51356524 -0.39373544 -0.29109016 -0.18097799

model_2.2.weight f4 [32, 64]
000000 4d 46 5e bd 4f cb 11 bd 5e 97 37 3e 0f e0 63 bc
       -0.054266263 -0.03559428 0.17928836 -0.0139084
000010 ca 8d db 3d 65 13 4c bc d0 fe 31 3e 3c cb 08 3d
       0.107204035 -0.012455796 0.1738236 0.033396944
000020 31 ec 44 be 07 57 01 3e cd 54 cd bd ca 9c d4 bd
       -0.19230725 0.12630855 -0.1002594 -0.10381468
000030 65 85 0f be 69 9a e9 3d 07 bf c4 bc ba 19 11 be
       -0.1401573 0.114064045 -0.02401687 -0.1416997
000040 81 61 c3 bd 2a 38 97 3d 6c 11 bf 3d cf ec 10 3e
       -0.09540082 0.07383759 0.09329495 0.14152835
000050 68 0b 0a 3e 2f 57 35 3d 3d fe 5b bb 0e 87 a2 bd
       0.13480914 0.044272598 -0.0033568286 -0.07935916
000060 da db 92 bd 8b a6 a7 3d d3 b9 a3 3e 42 1b 85 3e
       -0.071708396 0.081860624 0.3197771 0.2599736
000070 54 c7 ac bd 04 05 6f bd 93 71 dc 3c e6 3b c7 bd
       -0.08436456 -0.058354393 0.026909625 -0.097282216
000080 1d 02 fd bd 79 51 ff 3b d8 4c d6 be 5e 63 8b b7
       -0.12353919 0.0077916947 -0.41855502 -1.6616363e-05
000090 ca c2 36 be 63 b8 29 bd db fd dd be 09 ba 26 3c
       -0.17847744 -0.04143561 -0.4335774 0.01017619
0000a0 2b ac f2 3d 66 8d fd bd 74 04 e4 3d e2 b1 2b be
       0.11849245 -0.12380485 0.11133662 -0.16767076
0000b0 81 b4 af b9 38 f6 7f be 96 37 02 be 9f 01 a6 be
       -0.00033513087 -0.24996269 -0.12716517 -0.32423112
0000c0 ab 8d c3 3e 96 12 f8 bd ff 5a 00 be 0a 9c 8c bd
       0.38194022 -0.1211292 -0.12534712 -0.068656996
0000d0 29 f5 39 be ca 9a 25 be 2a f0 3d bc f1 bd 52 be
       -0.18159927 -0.16172329 -0.011592904 -0.2058027
0000e0 22 4f 0a be 0d 0f 42 3e b3 c7 c6 bd 83 fe 89 3d
       -0.1350675 0.18951054 -0.09706058 0.067379974
0000f0 99 18 46 be ba 57 87 bc 2a bf 95 3e 6b 71 81 3d
       -0.19345321 -0.016521323 0.2924741 0.06320461
000100 d9 bb 05 bd 51 93 0f be 12 64 dc 3c 17 c5 62 be
       -0.03264985 -0.1402104 0.026903186 -0.22145496
000110 48 7e 86 bd 56 c4 e5 3e 2e a6 e1 bd b2 e9 b6 3d
       -0.06567055 0.44876355 -0.110180244 0.089312926
000120 26 34 52 bd 15 e1 fc bd 57 2e 4f be 4d 25 9d bd
       -0.051319264 -0.123476185 -0.20232521 -0.0767313
000130 8b 4b ce be 3a 8c 61 3e 59 6a 2c 3e 6f d9 96 bd
       -0.4029201 0.22026148 0.16837443 -0.07365691
000140 99 76 93 3e 58 80 ef 3d bc d1 5e bd 58 f9 bc 3d
       0.2880142 0.116944015 -0.054399237 0.09227246
000150 40 1b de 3d 0a b8 b4 be ce 07 45 be b0 b6 8e 3e
       0.10845041 -0.3529666 -0.19241259 0.27873755
000160 aa e0 8c 3c 06 56 83 3e a9 ab c1 3d fd 1d 13 3e
       0.017196972 0.25651568 0.0945657 0.14366908
000170 43 03 b6 3d f7 b7 ac 3e 30 59 b7 3c 5a 3f 81 3d
       0.08887341 0.33734104 0.022381395 0.063109115
000180 a5 ba 07 be 0b 18 04 3e 4c b4 c2 3d 77 13 58 bd
       -0.13254793 0.12899797 0.09507045 -0.052752938
000190 6f 33 b1 bd f2 dc 52 be c1 57 d9 3b b6 fa c8 be
       -0.08652388 -0.20592096 0.0066327755 -0.39253777
0001a0 00 9f e2 bc 5b 81 b0 bd f8 43 f1 3b af 44 e7 bc
       -0.027663708 -0.086184226 0.007362839 -0.028230993
0001b0 1a 2f 1d 3d 3d 52 80 bd 4d 21 a4 bc 67 9d 7d 3e
       0.038374998 -0.06265686 -0.02003541 0.24767075
0001c0 ae ed a3 3e d9 03 b6 be 3a 49 69 be d4 19 0a be
       0.32017273 -0.3554981 -0.2278184 -0.13486415
0001d0 7c 07 c8 3e de 70 02 3e a9 e4 11 3e 68 48 9b bd
       0.3906821 0.12738368 0.14247383 -0.0758217
0001e0 c4 74 f6 bd 22 9b 81 bd d3 78 d6 3d 3d 71 dc 3d
       -0.1203399 -0.06328417 0.10472264 0.10763786
0001f0 91 18 86 bd c0 f6 42 3e 57 5a 3b be 94 76 ad be
       -0.065476544 0.1903944 -0.1829618 -0.3387953
000200 ab fb 2c 3d bd ae ca 3b c4 c8 27 3e ce e0 25 3c
       0.042232197 0.006185381 0.1638518 0.010124398
000210 9d c7 59 be a6 1f b2 3c 36 92 74 bd 7f f7 15 3d
       -0.21267553 0.021743607 -0.05970975 0.036612984
000220 57 59 2c 3e 9b c4 d5 bc 06 80 12 3d a0 4a 8b bd
       0.16830955 -0.026094725 0.035766624 -0.06801343
000230 75 99 52 bd f0 53 97 bd 33 32 f8 3d 15 28 88 bd
       -0.05141588 -0.07389057 0.1211895 -0.0664827
000240 a5 d1 6e 3e f6 60 43 be 4e 39 01 be 62 a2 2b be
       0.2332216 -0.19079956 -0.12619516 -0.16761163
000250 bb 3f 26 bd ef 94 c4 bd 1d 37 86 bd e5 04 02 3e
       -0.04058812 -0.09598719 -0.06553481 0.1269718
000260 45 87 cf 3d c4 0d 39 3a 3f 14 a4 3d 12 93 f8 bc
       0.101332225 0.0007059241 0.08011674 -0.030343566
000270 cb 3c 89 3d 2c 51 13 bd 99 47 1d be 53 d7 ac bc
       0.067010485 -0.035966083 -0.15359344 -0.021098768
000280 06 65 82 3e 7d c6 ba bd 4c fd 86 bd 8c c0 f1 bd
       0.254677 -0.0911989 -0.06591281 -0.118043035
000290 d7 25 a4 bd e4 84 81 be 13 f2 4c be e6 49 84 3d
       -0.0801503 -0.252967 -0.20014219 0.064594075
0002a0 1e 08 32 be 5e 77 0c 3e 76 9e b6 3d 68 65 3a 3d
       -0.17385909 0.1371741 0.08916943 0.045506865
0002b0 ad 09 f6 bd 52 24 6d 3d 0d be 5f 3e d2 7c c0 bc
       -0.12013564 0.057895966 0.21849842 -0.023497019
0002c0 7d b4 17 3d 78 3c 23 3e 06 d6 b4 3d 08 6e be bd
       0.03703736 0.15941036 0.08829884 -0.092983305
0002d0 76 89 ec be e9 cc 10 3e ea 64 ed 3d 58 da 32 3e
       -0.46198624 0.14140667 0.115915135 0.17466104
0002e0 55 13 1b 3e 4d 96 24 be bc 1d 1e bc 3e c1 6f 3d
       0.15144093 -0.1607296 -0.009650644 0.0585339
0002f0 0a 22 53 3d bc ad 36 3d b9 70 18 bd 4c cf 4c 3d
       0.051546134 0.04459928 -0.037216876 0.05000238
000300 38 27 8e bd 21 b7 65 be bb f5 bf 3e 69 08 97 be
       -0.06941074 -0.2243314 0.37492165 -0.29498604
000310 a1 c8 53 3b 15 f5 99 3e 09 90 68 be 24 6d 61 3e
       0.003231563 0.30069795 -0.22711195 0.2201429
000320 bb 60 dc bc 85 d9 46 be 9f ec 95 3e 13 44 44 3e
       -0.026901593 -0.19418915 0.2928209 0.19166593
000330 16 4c 1a bd 1e d7 96 bd 70 78 b7 be ad da 6c bf
       -0.037670217 -0.07365249 -0.35834074 -0.9252117
000340 6b de cc 3e 8a 28 08 bb dd 8f 97 bd 1b f4 f4 3c
       0.4001344 -0.0020776116 -0.074004866 0.029901555
000350 ca 12 f6 bd 5e e7 d4 3d 62 df 88 3e ef 92 71 3e
       -0.120153025 0.10395692 0.26732928 0.23591207
000360 e7 89 d8 3b b7 25 87 3d 03 8e 64 3e 57 cc 99 bd
       0.006608236 0.065989904 0.22319798 -0.07509678
000370 8b 02 a2 3e 9c ac 8a bd f9 8b 85 3e 6a 39 40 bd
       0.31642565 -0.06771204 0.26083353 -0.046929754
000380 82 f1 17 3c da 50 2d be e0 3c f9 3d 4f f9 58 be
       0.009273889 -0.16925374 0.12169814 -0.21188854
000390 0b 88 c5 3d 7f 27 b2 be 60 4f 88 be 9b f6 88 be
       0.09645089 -0.34795758 -0.26623058 -0.26750645
0003a0 a7 12 7a 3c 12 44 9d 3e 31 37 2b 3e 0a d2 c9 3e
       0.015263236 0.30715996 0.16720273 0.3941806
0003b0 f7 9c 19 be ec d2 18 3e 33 2a c8 3e af 02 81 3c
       -0.15001284 0.1492421 0.39094695 0.01574835
0003c0 92 ff 1a 3d b2 4f 81 be 18 46 1f 3e fd f6 98 bd
       0.037841387 -0.25256115 0.15554082 -0.07468984
0003d0 5c e4 ba bd 52 4a 96 bd 39 6f 1f 3e c7 0c c5 3d
       -0.09125587 -0.07338394 0.15569772 0.09621578
0003e0 52 6d 94 3b 82 bb 10 bb f9 f8 f0 3d af 6c d5 3d
       0.0045296336 -0.002208442 0.11766238 0.104211204
0003f0 d8 5a 86 3e 04 1a 60 be 59 e0 cb 3d 7b 62 b5 be
       0.26241183 -0.21884924 0.099549 -0.35426697

model_2.2.bias f4 [32]
000000 8f 91 8b 3e e0 39 d8 bd f1 b0 56 3b 05 2f 17 bf
       0.2725949 -0.10557914 0.0032759274 -0.5905612
000010 59 b8 33 be 0c 77 60 bf 89 19 95 3e 42 6d 46 be
       -0.17550792 -0.8768165 0.29121044 -0.19377616
000020 3c 51 0c 3f 7c 2d 0d 3e 65 aa 8d be 7b be 9a 3e
       0.54811454 0.13786882 -0.27669063 0.3022345
000030 5b 98 85 be 9d 11 a4 3d 14 5a ec 3e f1 bc c2 3e
       -0.260928 0.08011172 0.46162474 0.38034776
000040 cc b6 9e 3d 30 81 da 3d 3f 32 a4 3e 15 98 2f 3e
       0.077497095 0.10669172 0.32069585 0.17147858
000050 f2 3f bf be 3a 90 d8 3d 94 19 96 3e f0 d4 40 bd
       -0.37353474 0.10574384 0.2931639 -0.047078073
000060 38 1c b4 3e 71 47 1c bf 5c 6d 92 be 96 8d 91 3d
       0.3517778 -0.6104651 -0.2859906 0.071070835
000070 2c 21 13 bf 99 e1 dc 3e 20 c0 11 bf fa ba 2b bf
       -0.5747249 0.43140867 -0.56933784 -0.6708218

model_2.4.weight f4 [16, 32]
000000 77 93 d0 3d 87 83 11 3e 00 9c 87 3c 86 e2 99 be
       0.10184377 0.1421033 0.016553879 -0.30055636
000010 ee 4f 19 3e 48 39 0b be 94 83 66 3e 93 ab 20 be
       0.14971897 -0.1359607 0.2251113 -0.1569045
000020 27 8f 24 be 51 75 37 3e be b0 45 3e 6e 4d 4e 3c
       -0.16070233 0.17915846 0.19305703 0.012591703
000030 cf b0 85 be 44 69 4f bc 11 f6 6a 3d c5 b7 44 3b
       -0.26111457 -0.012659375 0.057363573 0.0030016762
000040 05 00 66 be 04 bb ff bd 9e ac 15 be 5d 57 f7 3c
       -0.22460945 -0.12486842 -0.1461663 0.030193025
000050 f4 61 62 be 96 96 06 3e 76 63 07 be 8f 7a 23 bc
       -0.22107679 0.13143381 -0.13221535 -0.009977951
000060 01 d7 68 bd 64 db be be b6 10 38 be d8 c1 19 bb
       -0.05684567 -0.37276757 -0.17975125 -0.0023461487
000070 af 07 9f be a5 6d 04 3e 69 97 15 be f0 bd 98 be
       -0.3106055 0.12932451 -0.1460854 -0.2983241
000080 e1 3a a9 be b4 f6 11 be 12 e4 0f bf 4a ad 64 bb
       -0.33052734 -0.14254266 -0.5620738 -0.0034893327
000090 0f a1 7c be 89 76 c2 3e 2d 04 6a 3e 26 f8 ef 3e
       -0.24670814 0.3798106 0.22853155 0.4686901
0000a0 fe eb 9d be 79 74 5f 3d 68 1d 56 3e 0f f1 42 bd
       -0.3084411 0.054554436 0.20909655 -0.047593173
0000b0 2d b4 bf 3d 14 20 cb bd 4c 22 09 bf ef 4a 21 be
       0.09360538 -0.09918228 -0.5356796 -0.15751241
0000c0 10 f3 d7 be 78 19 f7 be b8 4d cb be 46 bc 02 bf
       -0.4217763 -0.4826162 -0.39707732 -0.5106853
0000d0 2e 36 87 bd 9f 71 b3 be 86 68 77 be 75 9f d1 be
       -0.06602131 -0.35047624 -0.24160966 -0.4094197
0000e0 89 59 7b 3d d8 b0 d8 3e 13 73 9e be 43 0d 29 bd
       0.061364684 0.4232242 -0.3094717 -0.041272413
0000f0 b4 23 bc 3e 4b 17 00 bf 32 0d 47 3e dd 93 ac 3e
       0.3674599 -0.5003554 0.19438627 0.3370656
000100 d8 30 fe bc 92 1c 2d 3d 25 ea c1 3d 4f 56 28 be
       -0.03102915 0.042263575 0.09468488 -0.16439174
000110 ad 5f 93 be d3 f7 a5 be e7 88 a7 be a7 72 a0 be
       -0.28783932 -0.32415637 -0.32721636 -0.31337473
000120 b9 a4 38 3e c9 70 1a 3e 20 2a 99 3d 4f 78 a3 3d
       0.18031587 0.15082087 0.07478738 0.079819314
000130 2a 98 e9 bb 93 fa b8 3d 16 57 c0 3d 74 c2 9e 3c
       -0.007128735 0.09032168 0.0939161 0.019379832
000140 42 47 4a 3e 28 1d 82 bd 35 de 21 3e 49 c4 24 3e
       0.19753745 -0.06353217 0.15807422 0.16090502
000150 ad 0f 1d 3e 6c eb 37 3d fc c3 31 3e 1f 60 15 3d
       0.15338011 0.04490225 0.17359918 0.03646862
000160 c1 b7 42 3d 89 2e aa be b8 3e 51 bd e8 99 83 bd
       0.047538523 -0.33238629 -0.051085204 -0.0642584
000170 e8 0f 9a bd 81 16 2d be 3e 3d af be 59 28 53 be
       -0.07522565 -0.16903116 -0.34226412 -0.2062086
000180 fe 2d 44 3d 07 0a b8 3d d9 61 ab bd 32 1b b7 be
       0.047895424 0.089862876 -0.08368272 -0.35762936
000190 3d ab a6 bd 63 d0 f1 be 8a 0b 7d 3d fd 9f ff bc
       -0.0813813 -0.472293 0.061778583 -0.031204218
0001a0 42 d2 7a 3d dd fe fa 3d 9f 2b ec bb 76 72 82 bd
       0.061235674 0.122556426 -0.0072073485 -0.06369488
0001b0 5c 20 2a 3e 5b bf 4f 3e 62 60 1f 3d 31 cc 1a 3e
       0.16613907 0.2028784 0.038910277 0.15116955
0001c0 92 fa 19 3e 4a 83 1a 3e 3d 94 6d 3d 17 24 c5 3c
       0.15036991 0.15089145 0.0580027 0.02406506
0001d0 e8 0a c6 3c 53 89 6e be e2 f0 14 3e 53 e2 b0 3d
       0.024175122 -0.23294573 0.14545015 0.08636918
0001e0 af 6d 8e 3d cb 9d 23 be 4f a7 2e be e5 d9 24 3d
       0.06954514 -0.15978162 -0.1705601 0.040246863
0001f0 bc 30 cc be 52 c0 32 3e cb 78 86 be ff fc f3 be
       -0.3988093 0.17456177 -0.26264033 -0.47653958
000200 6c 7b 25 be 93 48 04 3e 65 fa 9b be 7f 7e f7 be
       -0.16160363 0.1291831 -0.30464473 -0.48338696
000210 5d 0b 01 3e 3b 33 45 bf 3f cc 51 3e 6d 5d 08 3f
       0.12601991 -0.77031296 0.2048807 0.53267556
000220 d2 d7 9d 3e 60 80 d2 be 95 4e d2 be 22 8e b1 3c
       0.3082872 -0.41113567 -0.41075578 0.02167422
000230 3f ee 88 3c 55 15 ab be d8 fa 53 3d e2 e2 4a b6
       0.016715167 -0.33414713 0.051752895 -3.0232409e-06
000240 54 bc 10 be 00 20 56 3d aa bc 27 be 35 51 2e be
       -0.14134341 0.05227661 -0.16380563 -0.17023166
000250 b3 65 cc bd fa 76 04 3e e9 80 26 3e ed 6d fe bd
       -0.09980335 0.12936011 0.16260113 -0.124233104
000260 8a 53 a0 3c b4 d0 b0 be 57 a5 2e 3e 4b 8c 23 be
       0.019571085 -0.34534228 0.1705526 -0.15971486
000270 e0 fe 42 bf 4e 63 2e 3d e8 e8 28 3e 17 25 0e bf
       -0.7617016 0.042575173 0.16495097 -0.55525345
000280 9f de c9 bb 0d 2a f3 39 12 a3 f6 bb 3b 20 9b bc
       -0.0061605717 0.00046379902 -0.0075267637 -0.018936267
000290 5b 16 50 bc fa 6b 9b bc 4b 47 49 3b 7a c9 4b bc
       -0.012700642 -0.018972386 0.003071266 -0.0124381725
0002a0 66 3a 2b bb ef 13 32 bb e3 b7 22 3c 9d 38 c0 3a
       -0.0026127337 -0.0027172526 0.009931537 0.001466531
0002b0 cb 52 95 bb 1e 65 47 3b e4 dd 86 3b 62 44 f3 bb
       -0.004556989 0.003042526 0.004115807 -0.0074239234
0002c0 f4 0b d2 ba b1 83 2c 3c eb 84 b0 3a d4 89 f9 3b
       -0.0016025291 0.010529445 0.0013467347 0.0076153073
0002d0 c9 d3 67 3b fc 17 a1 ba 4e 55 92 3c 4d e8 d5 bb
       0.0035374037 -0.0012290473 0.017862942 -0.0065279366
0002e0 9c 54 e5 3a 7b a2 bc bc ad a6 24 3a 29 1f e1 3a
       0.0017496529 -0.023026695 0.000628094 0.0017175424
0002f0 c2 da 00 3b 23 9d 4a 3a 0c b3 ad bb 43 53 52 3c
       0.001966164 0.00077291037 -0.005300885 0.012837234
000300 0d 17 b3 3a f3 ed 4d bc 4f 3e df bb 15 74 3d 3d
       0.0013663486 -0.012568939 -0.0068128477 0.046253283
000310 e8 b1 28 bb b3 cd 25 3c d8 d1 bc 3b 23 c9 ca 3b
       -0.0025740806 0.010119843 0.00576232 0.006188528
000320 69 95 1a bb 4c b3 12 39 b4 d0 db bc c3 29 67 bb
       -0.002358759 0.00013990438 -0.026832916 -0.0035272695
000330 74 34 41 3b dc 62 74 bb bf f6 00 bb 18 18 fb 39
       0.0029480727 -0.003729037 -0.0019678322 0.00047892402
000340 55 66 42 3b 6f 14 ce 3a e3 1e e2 bb 93 dc 4c bb
       0.0029663045 0.0015722642 -0.0069006546 -0.0031259402
000350 90 76 a1 3a a5 bf 03 bc 17 dd ff bb 94 8a c6 3b
       0.001231866 -0.008041297 -0.0078083384 0.0060590003
000360 1b 4d 92 3b 68 f4 06 3d f5 50 89 bc 13 a5 c6 bb
       0.004464758 0.032947928 -0.016762236 -0.006062159
000370 4d 82 c2 bc 9e 15 ec 39 0f d1 0e 3c 1e 20 19 bc
       -0.023743773 0.00045029534 0.008716836 -0.009346036
000380 22 bc 5e 3b 37 62 14 3c 76 10 1c 3c ff 0f 7d 3c
       0.0033986648 0.009056619 0.009525409 0.015445708
000390 6f 90 80 ba 00 71 43 3c 37 0c 9a bb ff cf 60 bb
       -0.000980867 0.011928797 -0.004701163 -0.0034303663
0003a0 92 ed 76 3b 46 61 23 3c 2c 99 45 3c 0d 92 8f bb
       0.0037678224 0.009971922 0.012060445 -0.0043814243
0003b0 b0 c1 41 3c ef 9e c3 ba 7d 8f 6e 3b 33 85 1b 3b
       0.011825964 -0.0014924685 0.0036401444 0.0023730516
0003c0 1f 83 83 bb 41 7d 5c 3a 8f 80 19 3c be 86 9b 3b
       -0.0040134336 0.0008410998 0.00936903 0.004746287
0003d0 af 41 9f bb a0 01 a6 3b b5 45 74 3c f8 13 8c 3b
       -0.004860125 0.0050661117 0.014909198 0.0042748414
0003e0 19 49 c5 3a 17 4c 1f 3d 40 98 87 3c 05 be 4c 3b
       0.0015051692 0.038890924 0.01655209 0.003124119
0003f0 bb a6 63 3d 94 ae 98 39 d5 74 9a bc a7 98 53 3c
       0.05557893 0.0002912177 -0.018854538 0.012914813

model_2.4.bias f4 [16]
000000 17 bf 16 3f ef 05 21 bf 6b 70 df 3e 08 68 f1 3e
       0.5888533 -0.6289968 0.43640456 0.47149682
000010 c2 a8 67 3f 0d 03 be bd 06 a8 02 3e 54 42 16 3d
       0.9049188 -0.09277926 0.12759408 0.03668435
000020 4d f7 12 bf 99 1c 14 bf a8 4a 80 3e e1 26 9f 3e
       -0.574086 -0.57856137 0.25056958 0.3108435
000030 58 8b 7f bd 24 5d 4b 3d 03 26 23 bf 0f f2 21 3e
       -0.062388748 0.049649373 -0.63729876 0.15814994

model_2.6.weight f4 [1, 16]
000000 34 5b 4e 3e 3c a6 07 bf 57 46 38 3e f0 45 77 3e
       0.20151979 -0.5298803 0.17995583 0.24147773
000010 79 ed 37 3e 25 04 50 ba 16 79 71 38 bf 52 09 ba
       0.17961682 -0.0007935188 5.7571648e-05 -0.00052384654
000020 20 b9 f1 be f2 55 a0 be 68 8a 12 3e ff 24 54 3e
       -0.47211552 -0.3131557 0.1431061 0.20717238
000030 54 4b dc b8 97 19 8c 3a 58 3f 08 bf 00 f6 2d b9
       -0.000105044484 0.0010688779 -0.53221655 -0.00016590208
