Deep Reinforcement Learning Nanodegree/collaboration-competition/actor_agent_0.pth (torch_old, 60694 bytes, 14 tensors)

model.0.weight f4 [128, 24]
00000000: 7483 f33e 947c a03f 2d1d 513d da7d 63bc
00000010: 942a 0cbf 1612 013e 26b0 6cbd 8172 573d
00000020: de10 cf3e dabd 9a3f 33c9 3ebe 5806 483e
00000030: 95cf 66bf e1b5 533f 51fe c6bd a444 893e
00000040: aec8 053f d755 9a3f 1bf9 f33c a369 06bf
00000050: 5389 a5bf 017d b13f 5adb 96bd 63be f3be
00000060: f951 853f 324a 953d c528 2bbe 7683 c03e
00000070: f687 0dbf c931 15bf 814a fdbd 3499 bd3e
00000080: bdc0 4f3f f25f 3f3e 4cbe 713e 5098 133f
00000090: 1fb1 993b f7ef 24bf e984 6a3e a26c 003f
000000a0: b23d 673f e959 073f d2c8 73be 196e 7f3e
000000b0: d7f9 183e 02ac e2bf 51f3 77be 751f 8f3e
000000c0: d12f 0cbe 5606 633d 76b7 ea39 8a9e 303d
000000d0: fa02 823c 2caf b63f 37bc 633c d436 8c3d
000000e0: fe74 1cbd 1dde 16be 0063 33bd 3a28 08bd
000000f0: f264 4abe 8e81 3540 8d6d d93d 19da 16be
00000100: 0075 c6bc bc8e 58be 7a95 f6bc 3b6b 26be
00000110: e186 0ebf e686 6c40 7c76 3a3d ac9d 25be
00000120: 8e65 db3e 16e9 c83e 538e 8cbe a3a8 953e
00000130: d161 1fbf df05 94bf 6dd5 b9be bbe7 a53e
00000140: b26c c13e ea27 143e 3724 75be 807f 8ebe
00000150: d0b3 c0bd b81c 84bf 6e63 a0be 07a0 85be
00000160: fe21 d13e 1090 9bbc 2eae e8bc 40ae 8c3d
00000170: 169c 293e de8d 81bf 4c65 70bd 7f69 c43d
00000180: 7318 cabe 8a28 c93f 4475 ad3d 1deb b93e
00000190: 6c3d 2fbf ea6f 86bf 23cd 983d 4cbd cd3e
000001a0: a8e9 7bbe c8fd db3f 55cf a6bd 83b9 2f3e
000001b0: 8937 00be ada1 b2bf aa43 91bd 909d 1a3e
000001c0: c2cc 54be f9c1 f43f 082a 343d c0cd 8ebd
000001d0: d7ae 573e a3ef 11c0 a125 b43c f185 07be
000001e0: 1f71 debe 1ae0 8f3f 676d 423b 348b 2f3f
000001f0: 8a38 2e3e a4b0 0c3f 2182 80bd 046b 2c3f
00000200: 6541 96be 75db ad3f 39c0 08bf cfa1 e73c
00000210: acad 0c3f 12fc 5ebe caee 04bf 8c36 3dbd
00000220: be7e 38be 271f bb3f c8cd 71be 8d68 e63a
00000230: c8f5 563f bf3d 88bf 77e7 12be 1475 13bd
00000240: 11b5 f43e a308 553f efd2 adbc ef00 993f
00000250: b9ea 863e b6cd 85bf 032b 8bbc 3a36 933f
00000260: f823 2d3e 1917 373f 283d 36bd 9ad7 b93e
00000270: 6199 ef3d de1d 13be 28b1 f7bd c888 723e
00000280: a378 6dbd 616b cc3e a6cd e23e 75cb e6be
00000290: a248 9abc 6f49 b63f 320d 9a3e 5164 e8be
000002a0: 1b15 e63d 5349 31be fc95 05be 9b3f 9c3f
000002b0: b358 f13e 77c9 e0be ad0e 5abe 3d4d 863f
000002c0: 52d1 cd3e bb2a 953c d44e c83d eb31 493f
000002d0: 39c1 833e b62e b2be e9a8 e83d 0dd1 5d3f
000002e0: 0d12 333f 5c6c 443e 4d61 94be bfcf 813e
000002f0: fa78 323e e392 19be 56fa 97be 1fce 2f3e
00000300: 793a 0fbe a17c 183f 25a3 243d bac2 593e
00000310: 8971 56be b045 d9bf 2e23 9c3d 3a83 a13e
00000320: c6f6 273e 874e 423f 4337 8abd 9d43 ee3c
00000330: 4dc2 87bc 6b9d 0ec0 7707 ed3c a3f8 2c3e
00000340: 9ce7 b03e a187 2e3f cf8e 3d3d 0c2c 0abf
00000350: 3d38 f53c 00cd 07c0 0bae 813c 0fa3 15bf
00000360: 3562 d43e 2701 dbbf ce8f cdbd 7c05 d5be
00000370: b2c1 36bd 462b 89bf db53 a5bd 349e f8be
00000380: e6f7 023f 8615 cebf 0c78 49be d7ee d5bb
00000390: 0e52 05be 415e 9ebf bfe0 60be aac6 bdbc
000003a0: f894 1d3f 4637 b3bf ef03 8c3e 6f7f 9e3e
000003b0: 1a5e 51be 9c12 aabf d8af 163e 4cc2 c73e
000003c0: 568f 9c3f 3f8e c53e 5c40 793e 958d bdbe
000003d0: acbc d03e bf36 e1be 6bae 703e 494b a7be
000003e0: 398a c53f 56d1 973e 9022 863e 35f4 8abe
000003f0: e48c 1e3d d2a3 20bf 8077 893e 4edb a4be
0.47561228 1.2538018 0.051053215 -0.013884986 -0.5475247 0.12604555 -0.057785176 0.052599434
0.40442556 1.2089188 -0.18631439 0.1953367 -0.90160495 0.826994 -0.09716476 0.2681018
0.5225934 1.2057446 0.029781869 -0.5250494 -1.2932533 1.3866273 -0.07366057 -0.4760619
1.0415641 0.07289542 -0.16714771 0.37600297 -0.55285585 -0.5827909 -0.12367726 0.37030947
0.8115347 0.18688944 0.23607749 0.57654285 0.004690304 -0.6442866 0.22902264 0.5016576
0.90328515 0.52871567 -0.23807076 0.24944343 0.14939056 -1.7708743 -0.24213912 0.27953687
-0.13690116 0.055425964 0.00044768647 0.043119945 0.01587056 1.4272208 0.013899854 0.06846395
-0.03819751 -0.14733167 -0.043795586 -0.033241488 -0.1976507 2.8360324 0.10616598 -0.14731635
-0.024225712 -0.21148199 -0.030100573 -0.16251843 -0.5567456 3.6957335 0.04552315 -0.16173428
0.42850918 0.3924033 -0.27452335 0.29230222 -0.6225863 -1.1564292 -0.36295643 0.3240336
0.3777824 0.14468351 -0.23939596 -0.2783165 -0.094092965 -1.0321264 -0.3132586 -0.26098654
0.40846246 -0.018989593 -0.028403368 0.06869173 0.16563448 -1.012142 -0.058690354 0.09590434
-0.39471778 1.5715497 0.08469632 0.3631219 -0.684531 -1.0502903 0.07461002 0.40183485
-0.24600852 1.7186823 -0.08145014 0.17160611 -0.12521185 -1.395559 -0.07092984 0.15099168
-0.20781234 1.9121696 0.043985397 -0.069728374 0.2106279 -2.2802513 0.0219906 -0.13234688
-0.4344568 1.1240265 0.002966726 0.6857178 0.17013755 0.5495703 -0.0627482 0.6735079
-0.29346767 1.3582598 -0.5341831 0.028275399 0.549525 -0.21775845 -0.51926863 -0.046194598
-0.18017098 1.4618882 -0.23613656 0.0017578766 0.8396878 -1.0643843 -0.1434611 -0.036000326
0.47794393 0.83216304 -0.021218745 1.195341 0.26350954 -1.0453403 -0.016988283 1.1500924
0.16908252 0.7151962 -0.044491917 0.36297303 0.116991766 -0.14366862 -0.12094337 0.2368499
-0.057976376 0.39925674 0.44297522 -0.450771 -0.018833462 1.424116 0.30088192 -0.45389035
0.11234494 -0.17313127 -0.13045496 1.2206911 0.47137985 -0.43903705 -0.21294661 1.0492321
0.4019876 0.018208852 0.0978066 0.78591794 0.25733355 -0.34801263 0.11360342 0.8664711
0.6994942 0.19181961 -0.28980485 0.2535381 0.17428961 -0.14997439 -0.2968318 0.17168473
-0.1398715 0.5956517 0.04019465 0.21265689 -0.20941748 -1.6974392 0.076238975 0.3154543
0.1640273 0.75901073 -0.067488216 0.029084975 -0.016572142 -2.228358 0.028934224 0.16891722
0.34551704 0.68175703 0.04627877 -0.5397346 0.029934043 -2.1218872 0.01583006 -0.5845193
0.41481176 -1.7109727 -0.10037194 -0.41605747 -0.044618316 -1.0716331 -0.08072635 -0.485582
0.51159513 -1.6100318 -0.196747 -0.006528716 -0.13019583 -1.2372514 -0.21960734 -0.02316602
0.61555433 -1.4001243 0.2734675 0.309566 -0.20446053 -1.3286929 0.14715517 0.39015424
1.2231243 0.38585088 0.24340957 -0.3702208 0.40768945 -0.4398708 0.23504035 -0.32674626
1.5432807 0.29651898 0.26198244 -0.2713944 0.038708583 -0.6274997 0.26848984 -0.32198566

model.0.bias f4 [128]
00000000: 7818 91bf 49c0 b8be a5b0 2fbf edbf 23bf
00000010: cbb4 e2be dd2c 8fbf cce2 d2be 92dd 2bbf
00000020: 4fea 52bf 4827 80be 3ee6 febe c8e9 a5be
00000030: 422e 20bf 6a78 64bf 6030 083f ca12 f8bd
00000040: cc4e 30bf f105 febd 2e58 00bf c613 69bd
00000050: 7fb8 00bd d74e 3bbf 7f62 87be 764b a63c
00000060: 0472 54bf 48b0 99bf ae9e 8ebd f27b dcbe
00000070: cb08 b8bf 96b3 61bf 4583 13bf b1f2 fcbe
00000080: 1032 aabf 3b9e 86bf 9ecc 23bf e73e bdbf
00000090: 80ba 993e 0c92 c0bf cf29 5ebe 5621 e6bc
000000a0: 6011 89bf c7b2 86bf f367 00c0 6bda 5dbf
000000b0: 2dcf a3bc c272 8dbf 9479 1dbf cab3 30bf
000000c0: 4bc0 fdbd e797 48bf 6637 20bc 444c 3ebf
000000d0: 8f1a e8be a015 3ebf 251f 4bbf a48d 37bf
000000e0: 8467 c4bf 774a d5be 76a3 fcbe 2fe6 6dbf
000000f0: dca3 0cbe e70e 9ebf 11d9 adbf 2940 aabe
00000100: 9ff7 febc 9a8d 9cbf adee 5ebf 5e13 75bf
00000110: daf6 97be 3d63 c13d 7309 f4be 25a4 11bf
00000120: b564 54bf da03 9cbf 883a ee3d c50b c1be
00000130: 32e3 63be efa1 3ebf 5a61 a4bc 46e4 64bf
00000140: c256 92bf a171 b3bf 1c7e b2bf 8f8e a5bd
00000150: e88c 01bf fa29 9ebe ae80 93bf fa3f 2cbf
00000160: 6f83 1dbf 2a77 2abf e332 0a3e 50b5 eebe
00000170: 39f5 7dbf 0112 82bf f853 cbbe 24d6 263f
00000180: 70d5 32bf ceb1 afbf f5dd c5be 008e 02bf
00000190: 91f7 d8be bfaf 79be a429 b5bf 5ec9 91bf
000001a0: 98ef 6dbe 0653 5e3f 97c3 0dbf 75e6 15be
000001b0: a34e 98bf 84af 61be 7873 55bf 33cc 3f3e
000001c0: 16bb 20bf 7ad8 2abf 8adf d9be a4d6 53bf
000001d0: ede2 2fbf f768 e5be 8925 18bf b773 86bf
000001e0: 93c3 973e f736 8dbf 84fb 2cbf 3ddb 22be
000001f0: 66b0 42be f238 0dbf 8ada 873e e226 3cbf
-1.1335592 -0.36084202 -0.68628913 -0.6396473 -0.4427856 -1.1185566 -0.41188657 -0.67134964
-0.82388777 -0.2502997 -0.49785036 -0.32404923 -0.62570584 -0.8924624 0.53198814 -0.12112959
-0.68870234 -0.12403477 -0.5013455 -0.056903623 -0.03142595 -0.73167175 -0.26442334 0.020299654
-0.82986474 -1.2006922 -0.069638595 -0.43063313 -1.4377683 -0.8816465 -0.57622176 -0.4940391
-1.3296528 -1.0517038 -0.63984096 -1.4784821 0.300251 -1.504457 -0.21695636 -0.028092068
-1.0708427 -1.0523309 -2.0063446 -0.86661404 -0.01999625 -1.1050646 -0.6151364 -0.69024336
-0.123901926 -0.78356785 -0.009778833 -0.7433512 -0.45332763 -0.7425175 -0.793444 -0.717005
-1.534409 -0.41658375 -0.4934346 -0.9292936 -0.13734382 -1.2348298 -1.3581868 -0.33252075
-0.031123934 -1.2230713 -0.8708294 -0.95732677 -0.2968052 0.09442756 -0.4766346 -0.5689109
-0.82966167 -1.2188675 0.11632258 -0.37704292 -0.22254637 -0.7446584 -0.020065952 -0.8941082
-1.1432726 -1.4019052 -1.3944736 -0.080838315 -0.5060563 -0.308914 -1.1523645 -0.6728512
-0.61528677 -0.6658808 0.13495974 -0.46622705 -0.99202305 -1.0161744 -0.397125 0.651705
-0.6985693 -1.3726137 -0.38645902 -0.50997925 -0.42376378 -0.24383448 -1.4153333 -1.1389577
-0.23235929 0.86845434 -0.5537657 -0.14638694 -1.1898998 -0.2203961 -0.83379316 0.1873024
-0.6278547 -0.6673657 -0.4255336 -0.8274939 -0.68705636 -0.44806644 -0.59432274 -1.0504063
0.296414 -1.1032399 -0.6757128 -0.15903945 -0.19012603 -0.55165017 0.2653392 -0.7349683

model.2.weight f4 [128]
00000000: c0d3 893f ccb8 563f 5ce7 b43f 05bb d1be
00000010: a531 733f 136f 6f3e 37ae df3e 785b c23e
00000020: 3b57 9d3e e697 9c3f eff0 133f 98bc 9a3e
00000030: 2f77 513f 9e8c 213f 872d 0e3f 2e84 ca3f
00000040: a567 dc3e fa03 f1bd deba 2e3f 622e 803f
00000050: 00b8 a03f 84b8 883f 0f7e 933f c857 853f
00000060: 02ff 853f 5492 14bf a623 ad3f 8b94 1d3f
00000070: 78be 9e3f 3172 193f bc16 5b3f 0f4a ca3e
00000080: adb7 f53d a150 25bf bced 503f 48b0 d5be
00000090: 3585 973e d829 1e3f ad95 3c3f b20e ec3d
000000a0: 3fa0 8a3f 0389 f73f 3877 f93e d080 6d3f
000000b0: 3f22 923f eeb5 e73f a86c 263f f589 993c
000000c0: 09e1 0c3f d05c 433f 389a c73e 89dd 3c3f
000000d0: 03f9 f83e f184 2e3f 31bd a43f 7302 693f
000000e0: 06e6 a03f 7332 cc3e c47a 2e3f ef57 0040
000000f0: e053 f03e 86bc e4be 8eec 253d d491 a5bd
00000100: 5704 5b3f 5328 1f3f 3c68 303f 1264 b33f
00000110: b3d2 363f b4e0 533f 6b7c 883e cd17 a03d
00000120: 4ab7 163f 84f9 303f 349b 793f c436 503f
00000130: 373e a43e 766a e03e 305e b63e a2ec 733f
00000140: b8f7 8b3f 8dd6 9a3e 90e4 0b3f 9e19 703f
00000150: 8176 753e 00b7 b13e 1c95 153f 70e8 813f
00000160: acce 373f 64a5 3e3f 2bd0 d93d 2ba9 1f3f
00000170: 1bfe 433f a546 473f 559a 123f 46c6 963f
00000180: 21ef 083f 488c 9d3f f1fc cd3e 41eb 883e
00000190: 3171 7a3f af66 173f 1f6c 8d3e b034 2a3f
000001a0: ccd1 a13f 79d0 c63d 7759 053f 9382 a03f
000001b0: 6ec8 3c3f ceef 963f 042b 2f3f ed0c 013f
000001c0: ad03 af3f 4f3a e73e 0fd4 4f3f 1002 9a3f
000001d0: d3df 7d3e c81f b93f 1784 a73e cd7a 833f
000001e0: b76a a63f 031e c23f 960b ab3f 5bca 1940
000001f0: b6ee 183f be52 373f e808 703f c4fe 8b3e
1.0767746 0.8387573 1.4133105 -0.40962997 0.94997627 0.23382215 0.43687603 0.3796041
0.30730614 1.2233856 0.5778951 0.3022201 0.81822485 0.6310519 0.5553822 1.5821588
0.43047825 -0.117683366 0.68253887 1.0014155 1.2556152 1.068131 1.1522845 1.0417414
1.0468447 -0.5803578 1.3526504 0.61554784 1.2401876 0.5993987 0.85581565 0.39509627
0.11997924 -0.64576155 0.81612754 -0.41736054 0.29593816 0.617826 0.7366589 0.115262404
1.0830153 1.9338688 0.4872377 0.9277468 1.1416701 1.8102396 0.65009546 0.01874254
0.55030876 0.76313496 0.38984847 0.73775536 0.4862748 0.681716 1.2870237 0.9101936
1.2570198 0.3988224 0.68156075 2.005367 0.46938992 -0.44675082 0.0405088 -0.08084455
0.855535 0.62170905 0.6890905 1.4014914 0.7141525 0.82764745 0.26657423 0.0781704
0.58873427 0.6913073 0.97502446 0.81333566 0.32078716 0.43831223 0.35618734 0.9528295
1.0934973 0.30241814 0.54645634 0.9378909 0.23970987 0.3470993 0.5843065 1.0149059
0.7179973 0.74471116 0.10635408 0.62367505 0.7655961 0.7784217 0.5726674 1.1779258
0.5348988 1.2308435 0.4023204 0.26741984 0.97828966 0.5914106 0.27621552 0.66486645
1.264215 0.09707732 0.5208964 1.2539848 0.7374333 1.1791933 0.6842501 0.5041035
1.3672997 0.45161673 0.8118295 1.203188 0.24792413 1.4462824 0.32717964 1.0271851
1.3001317 1.5165409 1.3362911 2.4029758 0.59739244 0.7161063 0.9376359 0.27342808

model.2.bias f4 [128]
00000000: 0811 bebd 3efb 033e 617c af3d 7583 aebd
00000010: 506f 9cbe 1c09 713e 7e4c 373d 6e1b 2f3e
00000020: 2a56 3fbe 88d5 8dbc ee52 c0bc 76d5 4e3d
00000030: ee3c a33d f79a 27bc b4c4 bb3e 9678 013f
00000040: 0081 353e dce5 303e dde3 d4bd 4c52 89be
00000050: 87b0 943c 9a33 d63e c6eb 553d 86cf a63e
00000060: b7df 80bd a6e6 cbbd 099e bb3d 6703 8d3d
00000070: 317e 4d3e 33c1 b5bd 5ead 883d 8f78 fd3e
00000080: 86de fe3c c1ae 94be 6fbd 943e 95b3 2fbe
00000090: 354b e1bd 7d6f 263e 679a b03d 4dd5 723e
000000a0: 65eb 183e 7353 ab3e 3533 0a3e 64cf 333c
000000b0: 2c06 d5be 60ae c73d 1665 9e3d e827 e73d
000000c0: b02f a43e f093 3dbe 9c14 0fbd 7926 913e
000000d0: 36df 05be 004e 87be 77d9 223e 210b 9d3b
000000e0: 8333 57be 008e 813e 859a a73e 1484 01be
000000f0: de5f f73d 1826 4e3d d44e a8bb 3425 2d3c
00000100: efa3 7a3e d98a 1b3e c659 a63e 965f 3ebe
00000110: ef15 e8be b1b1 c1be c7f0 803d b164 ab3b
00000120: b796 56be 3c60 de3e 0e79 053e 2746 973e
00000130: e194 01b9 6c9e 863e bf75 f63e 70d3 b9be
00000140: 68d6 85be f3c6 173e a39a 6bbe 4076 be3e
00000150: f626 dd3c af70 1d3e 363e 33be d7e4 953e
00000160: 2a1e 093e 373b 45bd 9821 abba 7a4c 293e
00000170: 2da1 d8bd 4902 d23d 9aa4 563e d6c6 f6bd
00000180: a06c 69be 9bda adbd 7e76 903d cb58 e43b
00000190: b2c5 9b3e dac4 9f3e 25ee d13b 4a15 a53e
000001a0: fbfe 973d 920b 673d a2e4 dd3e 69c6 15be
000001b0: f820 583e f43b 9fbe a86d dbbd 9d15 373d
000001c0: 58e4 f3bd fe1f 8bbd bf1d 9d3e a19a 1b3e
000001d0: 8ac8 96bc aca5 8b3e 9695 2c3d e863 4f3e
000001e0: c05e bd3e e133 533d 4282 ac3c cae8 893e
000001f0: 8499 7d3e e71b ce3e f266 b03d 7a3a f73d
-0.09280592 0.1288881 0.08568645 -0.08521167 -0.30553675 0.23538631 0.044750683 0.17100307
-0.18685213 -0.017313734 -0.023477044 0.05049654 0.07970606 -0.010229818 0.3667351 0.50574625
0.17724991 0.17275184 -0.10395024 -0.268206 0.018150581 0.41836244 0.052226804 0.32580203
-0.0629267 -0.09956102 0.09161002 0.068854146 0.2006767 -0.088747405 0.06673692 0.4950604
0.031111967 -0.29039577 0.29050776 -0.17158349 -0.11000673 0.16253467 0.086232 0.2371418
0.14933546 0.33462104 0.13496096 0.010974739 -0.4160627 0.09750056 0.07734124 0.112869084
0.32067633 -0.18513465 -0.034931764 0.28349665 -0.1307343 -0.26426697 0.15903269 0.0047925864
-0.21015744 0.2530365 0.32735077 -0.1264804 0.12078832 0.050329298 -0.00513635 0.010567952
0.24476598 0.15189685 0.32490367 -0.1859115 -0.45329234 -0.3783088 0.06295925 0.005230509
-0.2095593 0.43432796 0.1303446 0.2954571 -0.0001235786 0.2629274 0.48136708 -0.36294127
-0.2614014 0.14821987 -0.23008208 0.37199593 0.026996117 0.15375017 -0.175042 0.29276153
0.13390413 -0.048152175 -0.0013056276 0.1653308 -0.10577617 0.10254342 0.20961228 -0.12049644
-0.22795343 -0.08488961 0.070538506 0.0069685928 0.30424267 0.31204873 0.006406563 0.32242805
0.074216805 0.05640752 0.43338495 -0.14626469 0.21106327 -0.31100428 -0.10714275 0.044698346
-0.119087875 -0.067932114 0.30686757 0.15195705 -0.018406171 0.27274835 0.042134844 0.20252955
0.3698635 0.051563147 0.021058206 0.26935416 0.24765593 0.40255663 0.08613385 0.120717004

model.2.running_mean f4 [128]
00000000: d5b4 3540 4c3c d53e f4ae fa41 7488 06be
00000010: 3500 443e 9106 0341 923c a940 3431 5440
00000020: 1282 61bf 313c 3fbf 390f 3240 d9b1 e13f
00000030: 549b a63f a444 533f 692e 9241 a351 8c3e
00000040: 4522 8640 e1a7 9341 e18d ebbd e507 1740
00000050: 6722 033f af23 8c40 b158 1041 03af 8141
00000060: 5794 bf40 7379 3940 1c91 d640 fe96 1cbe
00000070: 2f0a 963f d5c7 3d41 b8e7 0cbf 74ff 9941
00000080: 5118 fd3f 4754 2141 fe87 f340 d108 7240
00000090: a677 9d40 110e 4f3f c9ef 5e3e 32d9 0342
000000a0: 47b2 5f3f 6399 1a40 6eb2 b43f 9f0e cabc
000000b0: 0276 4f40 6698 0b41 2aa9 2441 3e84 1c42
000000c0: aee9 7e41 6d65 01bf 1d69 2f41 ce3b 53be
000000d0: 1122 993f 14d0 8f40 eaed 7141 ae4c 81bc
000000e0: a102 a140 b5b9 b140 44b4 6a41 6848 c140
000000f0: a186 773f 464d 05bd c5f9 b040 2c2a 2741
00000100: e007 bc40 4fb0 10bf 07ca 4741 2927 0abf
00000110: 3a51 0f41 f2d4 29bf 6f11 6c3f ce35 8841
00000120: 71ef 3040 db50 31be 9f14 b740 a49d 1d41
00000130: 1f51 5641 83a6 82be a3ec bc41 f400 63bf
00000140: 03a1 d940 12de f93e 3457 c83e 12ae f240
00000150: 4d02 e940 cad3 0441 3832 8740 9d24 a140
00000160: a034 cf3e 74b0 c5bc 70f9 fb40 69cf fb40
00000170: 86d5 75bf 2d34 21bf 8533 ea40 983b 0c41
00000180: d0ee 75bf d605 d43f 9d9c 5740 c526 3240
00000190: caa3 a83f 77aa 2741 754a 8741 c21a 4940
000001a0: 675d 3440 4d83 1042 7603 5440 5132 4240
000001b0: 4bdc 033f f171 393f 9e43 213f 2b4b bf40
000001c0: 1eba 33bf 1767 8540 7669 2541 ee24 56bf
000001d0: 5773 b241 ed5c 5f40 a19f 0e41 bfad 4abe
000001e0: 0539 1042 5be9 c040 2797 ce40 d4e5 4b41
000001f0: ddc7 b640 8927 3a40 8ac3 e83e 321d 9940
2.839162 0.41647565 31.335426 -0.1313799 0.19140704 8.189103 5.288644 3.3155031
-0.88089097 -0.7470122 2.782179 1.76324 1.3016152 0.8252661 18.272661 0.27406034
4.1916833 18.456972 -0.11501671 2.3598568 0.5122437 4.379356 9.021653 16.210455
5.986858 2.8980377 6.7052135 -0.15291974 1.1721858 11.861287 -0.55041075 19.249733
1.9773046 10.083076 7.6103506 3.781788 4.9208555 0.8088084 0.21771158 32.962105
0.87381405 2.415612 1.4116952 -0.024665175 3.2415776 8.724707 10.2913 39.129143
15.932051 -0.5054539 10.963162 -0.20628282 1.1963521 4.49415 15.1205845 -0.015783634
5.031571 5.5539193 14.66901 6.0400887 0.966898 -0.032544397 5.5304894 10.447796
5.8759613 -0.56519026 12.486823 -0.53966004 8.957331 -0.66340554 0.922141 17.026272
2.7646143 -0.17316 5.721267 9.8509865 13.394805 -0.25517663 23.615545 -0.8867333
6.8009048 0.4880224 0.3912903 7.583749 7.281531 8.301706 4.22488 5.0357194
0.40469837 -0.024131991 7.874199 7.8690686 -0.96028936 -0.6297024 7.318789 8.764549
-0.96067524 1.6564281 3.368934 2.7836163 1.3174984 10.479117 16.911356 3.1422582
2.8182008 36.128223 3.3127112 3.034321 0.51508015 0.72439486 0.629938 5.977926
-0.7020587 4.168834 10.338247 -0.836501 22.306318 3.4900467 8.913972 -0.19792841
36.055683 6.028486 6.455951 12.74361 5.7118974 2.908663 0.45461684 4.784814

model.2.running_var f4 [128]
00000000: 70eb 1542 28a5 d641 5df5 1643 946d 4a41
00000010: dbfd 4441 6b2a 8343 029a cd42 0a02 f042
00000020: 0cd0 383f 5906 1e40 7379 5242 cd62 0142
00000030: 82ca ff41 35de 1642 db15 9b42 c2f9 2d41
00000040: 67c0 7d42 a38c a843 24da 0f41 cc2d 2442
00000050: 3b51 5741 97cb f942 037e 8142 e25d 1b43
00000060: 500d e242 191d dc42 2165 0d42 9cf4 3141
00000070: d81d 0942 c0ea 3c43 3a96 7740 e390 0e43
00000080: 1669 9342 3d29 4b43 c97c 2643 f08e fa42
00000090: 3c00 5d43 bdb1 ea41 15e0 8641 b43a 7e43
000000a0: 34d2 2242 2835 fe41 d745 2d42 388f 3541
000000b0: ecbf 8142 ee5d 4343 cff2 4843 bcab b543
000000c0: 657b ce43 6633 ac40 a2d4 7843 72cc 0f41
000000d0: a15a 5242 a25a ad42 d0e6 d043 cfff 5841
000000e0: cf1f 5c42 f9cf 3743 b39e 3c43 83e1 e042
000000f0: 19ac ac41 1e63 2841 cceb 0343 1fcf 5843
00000100: 4ffd f242 d59d 9140 8aaa 9743 c796 9f40
00000110: 0dd2 1e43 934a 3440 e4c3 3542 f278 2444
00000120: 9c67 4e42 eb44 3a41 15d0 fb42 17de fd42
00000130: 9a4c 1343 f868 2541 af55 0a43 952b 143f
00000140: c428 dc42 0d2c cb41 8b10 cf41 a293 2843
00000150: f5db 0a43 796f 6043 1d81 5942 c458 d842
00000160: 3e3c 8f41 2746 6f41 92c6 3643 864a 2443
00000170: ee60 c33e 4d98 8040 b458 5843 5bea 4842
00000180: 9c7d b03e 12b5 9b41 bca6 6d42 aaa7 cd42
00000190: f7bc 2c42 9626 6643 317b 7a43 4bd8 6542
000001a0: d566 6b42 1075 a243 a211 e142 d4f9 2b42
000001b0: 0214 ed41 93a7 7541 1cd4 a141 0ad7 5243
000001c0: cb42 1c40 4510 bd42 4c71 1f43 51ba db3f
000001d0: 9c87 8e43 02d4 3242 e363 0243 4b48 d140
000001e0: e5c8 1b43 87f0 e042 674b 2643 c771 2f42
000001f0: d67b 2343 cc5f 9542 5fdc 2941 708b 3e43
37.47992 26.830643 150.95845 12.651752 12.311976 262.3314 102.8008 120.00398
0.72192454 2.4691374 52.618603 32.346485 31.97388 37.717 77.54269 10.873476
63.437893 337.09872 8.990757 41.044724 13.457332 124.89764 64.74612 155.36673
113.026 110.05683 35.34876 11.122219 34.279144 188.91699 3.868544 142.56596
73.705246 203.16109 166.48744 125.279175 221.00092 29.336786 16.859415 254.22931
40.705276 31.775955 43.318203 11.3474655 64.87485 195.36691 200.94847 363.34167
412.96402 5.381274 248.8306 8.987413 52.588505 86.67702 417.80322 13.562453
55.031063 183.8124 188.61992 112.44045 21.584032 10.524199 131.92108 216.80907
121.49474 4.5505166 303.33234 4.9871554 158.82051 2.8170516 45.4413 657.8898
51.60118 11.641826 125.90641 126.93377 147.29922 10.338127 138.3347 0.57879
110.07962 25.39651 25.883078 168.57669 138.8592 224.43544 54.376087 108.17337
17.904415 14.954627 182.77567 164.2911 0.3815989 4.0185914 216.3465 50.228863
0.34470832 19.463413 59.412827 102.82747 43.184536 230.15073 250.48122 57.461224
58.85042 324.91455 112.53444 42.993973 29.63477 15.353412 20.228569 210.84
2.4415767 94.53178 159.44257 1.7166234 285.05945 44.70704 130.39018 6.540075
155.78474 112.46978 166.29454 43.86111 163.48373 74.6871 10.616302 190.54468

model.3.weight f4 [64, 128]
00000000: d548 a73e eb92 1e3d d07a 933f d791 b8be
00000010: 09a1 d03e 99a5 28be b08e 343f 39e3 473f
00000020: c3d4 e93d 0bbf eb3e 4956 18be df82 943e
00000030: 714e f9bd 21bc 2e3e 2f78 723c ca56 1bbf
00000040: 361a 01be 79db 17bd cccc 92bd e431 15be
00000050: ea7e 62be 08bd 03bf 8244 6a3c 037e cdbd
00000060: e85f 573f 5271 8cbe ad3b 803e dc55 c4be
00000070: 363f 3f3c a1a3 33bd f2d6 1bbf d966 d43e
00000080: 54ea d8bd 7aa5 debd dc00 5d3f 28e6 663e
00000090: 4816 b0bd 2ccf 8cbf eb54 65bf 8c02 9d3e
000000a0: 29c3 06bf 64a4 3bbf 3b4e 923e 0f6c f03d
000000b0: 6946 183f 373e f4be b108 6b3e fd32 aa3e
000000c0: d834 2c3c c157 793e e5d3 e0be 4778 ebbd
000000d0: 9e8b 3abf 8710 31be af0b 08bf e741 723f
000000e0: 95de df3e 0b78 91bd 15aa 0d3d 5ac2 bebe
000000f0: 6f67 ffbe 120c 22bd c9e2 f73d 772a fe3d
00000100: 087c 68be 5838 f6bd 3dc4 7f3e 6253 4e3e
00000110: 9d9c 693e 5d99 0e3f 98e6 7ebf c440 183e
00000120: 031f 103f 74f6 02be 45cc 3f3f c4b6 eb3d
00000130: 7287 cb3b a9fa ab3e 58d5 d33d 41a2 64be
00000140: 0858 9f3e 33cc 0a3f 33e2 20be 36b2 e1be
00000150: a86d b73d dec4 7bbe f2df 773d 3e69 5e3e
00000160: 6caf 43be a378 51be 79e1 8dbd 1ca2 973d
00000170: cc73 15bf dbf2 9e3e a3f0 b13e 571e 113f
00000180: c57a 8c3e cb8f 90be 6981 643a 3320 e33e
00000190: 2366 273f a6d9 97bf 0af6 713d 6961 b4be
000001a0: 77fd 863e 3bde 963d ceb1 5b3e eb83 473b
000001b0: 14c8 84be 5c5f 5e3e dc74 8a3e 0535 b83e
000001c0: 2fe2 083f 59ae dbbd f898 90bf f9c2 853d
000001d0: cd0d 8b3e e417 0abf cc0b 8bbe 2ec0 2ebf
000001e0: 4143 1bbe 414f 913e 3ec7 a6be 7161 843f
000001f0: d6ad ae3d e5d1 843d df2e 8abe edea b9be
00000200: c70f 26be 1422 ffbd d80a 09bf 7587 a33d
00000210: 205d a3be fe85 f1be 23d1 cfbe 8c29 4fbe
00000220: 00b3 523e 2733 503d ec18 7abe a942 1cbf
00000230: 9f07 8f3e f2da c93e 006e 12bf 83fe 0dbf
00000240: 94a7 0d3f 38f4 b6be 90f5 a63e ba56 563e
00000250: 2d2c a63e d231 9ebd 355f b73d 65ac 0ebf
00000260: 53c2 793d 3a39 8fbe 498c 7e3e 833e bfbd
00000270: 2cb4 113f 8faa 4f3e fbda 0e3f 0adc 44bf
00000280: 09e7 6dbe db76 4f3f 092e 66bf 6123 da3d
00000290: 6427 22bd ff59 253e 6daa 1b3f a9ed 57bf
000002a0: 22e1 9fbe c890 b73e 3462 c1bd 888d 243f
000002b0: 2852 94be eda6 f53e 7e9f 5d3f a0b5 c7be
000002c0: 64b9 90bf b591 463e f0b6 663e 0c26 1dbd
000002d0: 5cc1 613e b1b4 663e d436 9a3e 6981 57bd
000002e0: b520 2b3f 6515 8a3d 8b3d 10bd 144f 0e3e
000002f0: 1352 633d cbf5 55be 95cf 69be 045a e5bd
00000300: 324a d83d 523f d33e 4276 67be 2941 533f
00000310: 02bb b63e c495 ba3d f3fc eeba 9333 73be
00000320: 7c16 61be 15a3 95be 8455 20bf b719 f8be
00000330: 34ed 1c3d 835d a3bd 2e72 94bf 4a3a be3e
00000340: 5aff 033f 409c 22bf 2b4e 2e3f 787d 7fbe
00000350: 241e d83e dcc5 a8be bfa8 9dbe 79e6 e4be
00000360: 86eb 313e cde2 32bf 22e2 01bf ebca 93be
00000370: 2f03 023f a061 d2bd badc 60bd b6e2 e93e
00000380: 3980 f3bd 31c4 153f aec8 30be bc06 0c3b
00000390: bf48 813d 81e0 713d f853 80be 1ed7 35bf
000003a0: b8cb 9dbe 0678 bcbe 2f9a 623e b970 b4bc
000003b0: 9fd1 253f fb54 f5be b006 8cbe 7ba8 ab3d
000003c0: 2d25 093f 32c8 b33e cab7 cbbe d617 3ebf
000003d0: 28cc abbe c1c3 8d3e 0935 7dbe 5ead 3a3e
000003e0: 5de8 d2be 5f7c 623e c579 613e 7a93 51be
000003f0: 9b41 bcbe 94db 25bd ea72 fd3d 781c 643e
0.32672754 0.03871433 1.1521854 -0.36048767 0.4074786 -0.1646942 0.70530224 0.7808109
0.11417534 0.46044192 -0.14876665 0.29006097 -0.12173165 0.17063953 0.014799162 -0.60679305
-0.12607655 -0.03707454 -0.07167968 -0.14569813 -0.22118726 -0.51460314 0.01429856 -0.100338005
0.84130716 -0.27430207 0.2504553 -0.38346756 0.0116727855 -0.04385722 -0.60874856 0.41484717
-0.105915695 -0.10871406 0.86329436 0.22548735 -0.08598 -1.1000724 -0.895827 0.30666006
-0.5264154 -0.73297715 0.2857531 0.117393605 0.5948244 -0.47703716 0.22952534 0.33242026
0.010510646 0.24349882 -0.43911663 -0.114975505 -0.7286929 -0.17291461 -0.5314283 0.9463181
0.43724504 -0.071029745 0.03458603 -0.37257653 -0.498836 -0.039562292 0.12103803 0.12410443
-0.22703564 -0.120224655 0.24977203 0.20148996 0.2281365 0.55702764 -0.9957061 0.14868456
0.5629732 -0.12789327 0.74921066 0.11509469 0.0062112147 0.33589676 0.103434265 -0.2232752
0.3112185 0.54217833 -0.15711288 -0.44081277 0.08956462 -0.24586818 0.060516305 0.21719834
-0.19109887 -0.20456176 -0.06927771 0.07403967 -0.58379817 0.3104466 0.34753904 0.5668692
0.27437416 -0.28234705 0.00087167934 0.44360504 0.65390223 -1.1863296 0.05907253 -0.35230568
0.26365253 0.07366606 0.21454546 0.003044362 -0.25933897 0.21716064 0.27042282 0.3597795
0.5347013 -0.107266136 -1.1296682 0.06531329 0.27158967 -0.53942704 -0.27157438 -0.6826199
-0.15162374 0.28380778 -0.32573885 1.0342237 0.0852925 0.06485347 -0.26988885 -0.36312047
-0.16216956 -0.12457672 -0.5353217 0.07984821 -0.31906986 -0.4717254 -0.40589246 -0.20230693
0.20576096 0.050830033 -0.2442357 -0.61039215 0.27935502 0.39424855 -0.57199097 -0.5546648
0.5533383 -0.357332 0.32609224 0.20931521 0.32455578 -0.07724346 0.08953706 -0.55731803
0.060976338 -0.27973348 0.24858202 -0.09338095 0.56915545 0.20279907 0.5580289 -0.7689825
-0.23232664 0.81040734 -0.89913994 0.10651279 -0.039588347 0.16147612 0.60806924 -0.84347016
-0.3122645 0.35852647 -0.09442559 0.6427846 -0.2896893 0.47978917 0.8657149 -0.39005756
-1.1306577 0.1939152 0.22530723 -0.038366362 0.22046417 0.22529866 0.30119956 -0.05261365
0.6684678 0.06742362 -0.035214942 0.13897353 0.055498194 -0.20894544 -0.22833093 -0.1119881
0.10561027 0.41259247 -0.22603706 0.825213 0.3568955 0.09110597 -0.0018233344 -0.23750143
-0.21981233 -0.29225984 -0.62630486 -0.4845712 0.038312152 -0.0797682 -1.1597345 0.37153846
0.5156151 -0.6351967 0.68088025 -0.24950206 0.42210495 -0.32963455 -0.30792806 -0.44707087
0.17375001 -0.6987732 -0.50735676 -0.28865752 0.5078611 -0.10272527 -0.054898 0.4568078
-0.11889691 0.5850249 -0.17264053 0.0021366319 0.06312703 0.059051994 -0.25064063 -0.7103137
-0.30819488 -0.3681032 0.22129129 -0.022026407 0.6477298 -0.47916397 -0.27348852 0.083817445
0.5357235 0.35113674 -0.39788657 -0.7425512 -0.33554196 0.2768841 -0.24727263 0.18230197
-0.41192904 0.22117756 0.22019108 -0.20466414 -0.36768803 -0.04049261 0.12375434 0.22276485

model.3.bias f4 [64]
00000000: 6caa 3ebe da18 08bf 6732 02bf 1f77 e0be
00000010: c342 b8bd 4d29 82be 2479 a1be 41a1 4bbf
00000020: f8fd c1bd 9af3 4fbe 2340 c1be 5d78 5bbf
00000030: bfbc 13bf ea0c c2be 5910 febd 2069 f3be
00000040: 7e78 273e 87e4 d2bd aa23 abbe 8781 84be
00000050: ff8c babe 0414 3cbe 8c03 0ebf ecbb a3be
00000060: 5769 0ebf 3f83 d1be bfe2 6d3d be17 4b3c
00000070: 90d2 bcbe af30 2dbe 61fa b4be 8618 9cbc
00000080: 6326 55bf 39b1 ffbd aaa5 5abe 45fd 08bf
00000090: 4b5f cbbe 068e 1fbe 6fc7 28bf 5537 d0be
000000a0: 2a47 b0be 8571 5d3c 3914 45bf 6cf9 d3be
000000b0: fbba e0be 2067 843d 0eeb 85bf cb15 f73d
000000c0: fab4 dfbc 7613 3dbf 3deb 823e e88b 0a3e
000000d0: ed2f ae3d c95e 4ebf cea7 e2be 8f9d 14bf
000000e0: 5dd6 8b3d 5c68 b0bd cec7 4dbe be30 bebd
000000f0: 8284 15bb be14 fd3d 0db0 10bf 66a6 76be
-0.18619698 -0.5316292 -0.5085816 -0.43840882 -0.08997109 -0.25422135 -0.31537735 -0.7954293
-0.09472269 -0.2030777 -0.37744245 -0.85730535 -0.5770988 -0.37900478 -0.12405462 -0.47541142
0.16354558 -0.102974944 -0.33425647 -0.25880072 -0.36435696 -0.1836701 -0.5547416 -0.3197931
-0.55629486 -0.40920445 0.05807757 0.012395797 -0.36879396 -0.16913103 -0.35347274 -0.019054662
-0.832617 -0.124849744 -0.21352258 -0.5351146 -0.3972114 -0.15581521 -0.6592931 -0.40667215
-0.34429294 0.013515835 -0.7698398 -0.4140123 -0.43892655 0.06464982 -1.0462358 0.120647036
-0.027307976 -0.7385782 0.25570098 0.13529932 0.08505235 -0.8061338 -0.4426865 -0.58052915
0.06827996 -0.08613655 -0.2009575 -0.092866406 -0.0022814577 0.12357472 -0.5651863 -0.24086913

model.5.weight f4 [32, 64]
00000000: 7e33 173f 65ff 9bbe fa74 b9be 9f47 5dbf
00000010: e4fe 51bf 6746 e8bd 9a5b 063c 1428 873e
00000020: 2cde 95bd efe0 82be b892 3e3e 514a 8abe
00000030: a62f 393d 97cf 833e d99c 49be db3a efbd
00000040: ccfd 123d 0a00 fe3d e15f 223e 0a94 21be
00000050: 33d2 a5bf 5beb 33be 300c 15bd 6ddf 1cbf
00000060: 5afc 9fbe 16aa 83b9 1e71 05bd 4922 50bf
00000070: 1774 3e3e 710f d73d 453e cfbe 1a2d 293e
00000080: b590 553d d581 5abf 6a47 37bf ffd4 14bf
00000090: 168b 113e 58aa d93d 7463 2f3f db37 f63e
000000a0: 206d 373e b115 6cbe f7a2 91be 0c80 b63e
000000b0: 88a7 ac3e 660c 9fbf 8069 e53e ba43 27bf
000000c0: be8d 953e a7a6 84be c194 e7be fa76 013c
000000d0: f957 70be e948 88bf 82d3 08be 94a2 eb3d
000000e0: 0765 6cbe 8f33 12bf efbc 14bf 649c c9be
000000f0: b79c abbf 4882 0cbf 44d0 17bf ce02 2f3f
00000100: 42e4 23bd 6568 cdbd 358e 883d db73 acbe
00000110: dea4 e3bd a71a a43e 7dbc 973e 712a 58bf
00000120: 3e36 dfbe 2c14 243e 1967 8a3e 1dd2 013f
00000130: 966a 1c3e c07a 91be 47d2 e73c e793 3a3f
00000140: 355e 393d 6077 8d3d 44e2 fb3e 207f f83e
00000150: 37c3 7cbe d398 29bd 34f3 67be 3eeb 03be
00000160: 41d2 42bd fa36 e5be cefd 143e a62c 72bf
00000170: 8a17 b9be bae7 1d3d c151 053f 8d78 223f
00000180: b7f8 363f 013a eabe 871d 48bf e354 e23e
00000190: 1822 0d3f 07a7 9bbc d772 47be 539c 82bf
000001a0: 9a7f 82be c1ae 5b3f 76bf 16be 5f1b 663d
000001b0: 4b67 10bc e86b aeb9 3881 f2be 9d41 003f
000001c0: 873f d2be 0416 72be 3c33 043f 8850 2dbf
000001d0: fa2e 8f3e e29c 72be a3c7 873e 89a3 50bf
000001e0: 7f02 82bd e784 56be 52e8 ac3e 94c5 40bd
000001f0: 9b21 d13e 2bb1 ddbe c6be f9bd a7e3 07bf
00000200: b302 0abf 6770 d7bd 0483 febe 5cbd 9ebe
00000210: 1172 48bf 4075 d9be 2d06 c2be 45be c9be
00000220: 0372 d93e a352 e1be 1037 bebe 79e2 a6be
00000230: 3619 65be 5713 40bf d20f 603e 8719 86bf
00000240: 0807 243d 7dbf 123f 63d8 afbe cafb 5b3e
00000250: 8caa 123d ab18 afbf 328d debe b50b c3bd
00000260: e6f0 a53e 7d9e 85be 4775 643e 7a8d 423e
00000270: a831 0fbf 1876 17bd 0edb 80bf 54be 96be
00000280: 5505 29bf 1a13 543f 2051 9bbd d093 a1bd
00000290: 65a1 a63c 1906 aabf 651b 1ebf 9b4b f5bd
000002a0: 7a3e cbbd 4e73 a5bf db59 a73e 6848 bc3e
000002b0: bb8f 0dbf a099 7c3e 94bb efbe f1f0 a23e
000002c0: 36f9 85bf bd86 e7be b589 ebbc bb5a 8ebe
000002d0: a726 36bf 4c58 b9bd a5e3 08be 373c bcbe
000002e0: 76b7 573f d131 c13e 3ba8 22bf e37a 0dbe
000002f0: 91b8 4c3e 7f10 4a3f 3751 593e e5b8 aabc
00000300: 6bcc 323f 3500 96bd 9d9e 893e 2533 e9be
00000310: 0200 b73e 2cd5 103e d9d4 b13e 1289 8cbe
00000320: 9992 4abe f91f d9bd d635 08bf 7e96 16bf
00000330: 569f 063c 8aa2 5abe 2a3b 36bf 63e3 3abf
00000340: 6b0f cc3e b646 b2be f840 ff3e 6389 2fbf
00000350: 1e8e 4b3e db4c 6cbf 1d56 46bf dcd2 a5bf
00000360: 2a31 9a3c 7110 58bf fecd 563e 6ef7 713d
00000370: 1fa0 5a3e 0d3d 74be c28a 0ebf 7aaa adbe
00000380: 3a8b 0ebe a1fb fbbd 4ee8 993d 33e3 56be
00000390: ddfd e03e 41d0 283f 9a02 c53e d395 be3d
000003a0: a028 183f a008 743e d975 25bf 9110 91be
000003b0: 3fe2 31bf 4613 fabd 3daa f3bc be3b dfbe
000003c0: d357 ff3e 06ee cc3e f0a6 08bf 42ba c5be
000003d0: d468 213e fca1 3d3d 292c 9ebe e929 6cbe
000003e0: eb3d e73d 63a2 1abf ee0b 91bf 2505 b4bc
000003f0: ea84 c73e d606 18bf 2b2c 15bf b969 513e
0.59062946 -0.30468288 -0.3622206 -0.8643741 -0.8202956 -0.11341553 0.00820055 0.26397765
-0.073177665 -0.25562236 0.18610656 -0.27009824 0.045211457 0.25744316 -0.19688739 -0.11681148
0.03588657 0.12402351 0.15856887 -0.15779129 -1.2954773 -0.1757025 -0.036388576 -0.6127842
-0.31247216 -0.0002511299 -0.03257858 -0.81302315 0.18598972 0.10500992 -0.40477195 0.16521111
0.052139957 -0.8535436 -0.71593344 -0.58137506 0.14213213 0.106281936 0.6851113 0.4808949
0.17912722 -0.2305515 -0.28444645 0.35644567 0.33721566 -1.2425659 0.44807053 -0.6533772
0.29209703 -0.25908396 -0.45230678 0.007901901 -0.23471059 -1.064725 -0.13361934 0.11505619
-0.23085414 -0.5710992 -0.5810079 -0.3937713 -1.34072 -0.54886293 -0.59302163 0.68363655
-0.040012605 -0.10029677 0.06667749 -0.3368214 -0.1111543 0.32051584 0.29635993 -0.8443976
-0.4359607 0.1602332 0.27031782 0.5071123 0.15275034 -0.28413963 0.02829851 0.7288193
0.04525586 0.069075346 0.49196064 0.4853449 -0.24683844 -0.04140551 -0.22651368 -0.12882707
-0.047563795 -0.44768506 0.14549944 -0.9459938 -0.3615077 0.03855107 0.5207787 0.63465196
0.7147326 -0.45747378 -0.78170055 0.44205388 0.5513015 -0.019000543 -0.19477402 -1.0203956
-0.25487977 0.8581353 -0.14721474 0.056178447 -0.008813689 -0.00033268263 -0.4736421 0.5010012
-0.41064093 -0.23641211 0.5164068 -0.67701006 0.27965528 -0.23692659 0.26519498 -0.81499535
-0.06348132 -0.20949136 0.33770996 -0.047063425 0.4084595 -0.4329923 -0.1219459 -0.53081745
-0.5391037 -0.10519486 -0.49709332 -0.31003845 -0.7829905 -0.42472267 -0.37895337 -0.39402977
0.42469797 -0.4400836 -0.37151384 -0.3259466 -0.22372898 -0.7502951 0.21881035 -1.047654
0.040045768 0.5732344 -0.34344777 0.21482769 0.035807177 -1.3679403 -0.43467098 -0.09523717
0.32410353 -0.2609748 0.22310363 0.18999282 -0.55935144 -0.036977857 -1.006685 -0.29442084
-0.6602376 0.82841647 -0.07583833 -0.07889521 0.02034063 -1.3283111 -0.6176055 -0.11977311
-0.09924026 -1.2925813 0.32685742 0.36773992 -0.5529744 0.24667978 -0.46822798 0.3182445
-1.0466678 -0.45219985 -0.028752187 -0.27803597 -0.7115273 -0.090500444 -0.1336809 -0.3676469
0.84264314 0.3773332 -0.6353795 -0.13816409 0.19992281 0.7893142 0.21222387 -0.020840118
0.6984317 -0.07324258 0.26878825 -0.45546833 0.35742193 0.14143819 0.34732702 -0.27448326
-0.19782485 -0.106018014 -0.5320715 -0.5882338 0.0082167 -0.21351066 -0.7118403 -0.73003215
0.39855513 -0.34819573 0.49854255 -0.6856901 0.19878432 -0.9230477 -0.7747515 -1.2954974
0.018822271 -0.8440009 0.20977017 0.059073858 0.21350144 -0.23851414 -0.5568048 -0.33919126
-0.13920298 -0.12303854 0.07515012 -0.20985107 0.43943682 0.6594277 0.38478547 0.093059205
0.5943699 0.23831415 -0.64632946 -0.28332952 -0.6948585 -0.12210707 -0.029744262 -0.43600267
0.49871692 0.40025347 -0.53379726 -0.38618666 0.15762645 0.04629706 -0.30893067 -0.23062862
0.11291107 -0.6040403 -1.1331766 -0.02197511 0.38968593 -0.5938543 -0.5827052 0.20450486

model.5.bias f4 [32]
00000000: bef0 aabe e6f2 c4be e7f3 6a3e 3806 1ebe
00000010: d7d2 0cbf 8ed4 05bf 5eb2 903e 3459 0abe
00000020: bd77 643c dc9e 33be 7394 823e c517 1ebe
00000030: a188 16be 6b19 963e 332c ebbe 3912 02bf
00000040: eade 51bf 250a e3be fc85 9bbe 7cf8 a23e
00000050: b364 20bd 3e3a c4be 236d 1ebf feae 7c3d
00000060: 80fb 463e 000e 1d3e 56ec a13d 822e 4dbe
00000070: 7b34 05bf 3d4a 25bd 5fb1 833d 5a44 993d
-0.33386797 -0.38466567 0.22944604 -0.1543206 -0.55009216 -0.5227746 0.28261083 -0.13510591
0.013944563 -0.17541069 0.25503883 -0.15438755 -0.14700557 0.29316267 -0.4593216 -0.50809056
-0.81980765 -0.44343677 -0.3037566 0.31830204 -0.039158534 -0.38325685 -0.6188528 0.061690323
0.19431877 0.15337372 0.07906406 -0.20037273 -0.52033204 -0.040354002 0.06430315 0.0748374

model.7.weight f4 [16, 32]
00000000: 02f8 1c3f 135b ebbe aead b13e e10d dfbc
00000010: 5fb3 4ebf f33c 47bf 995b b13d 1f99 0e3f
00000020: ef42 323e f289 2e3e 3b39 1dbe 31fc 093f
00000030: 896e 2d3f d677 f33d 9a39 ccbe aee9 083f
00000040: 0fe7 ab3e daf8 07bf c097 693f b1fa 553e
00000050: 91d1 0cbf d2e9 83be eec0 41bf b126 ff3e
00000060: 4343 823e ab42 a23e 3165 18bd 9d8f dbbe
00000070: db2c c4be 0de7 1c3e 0360 733d 0a99 4cbf
00000080: 1a46 a4be 65dc e13e ba90 d0be 14f2 2fbf
00000090: 31a7 ebbe 9e07 873e 41a9 afbf c1f4 893d
000000a0: 303d 8cbe ce01 25be 48db 413d 3fcf 073f
000000b0: 1880 98be e161 093f 66b9 a4be 8dea e3bd
000000c0: 20f2 1b3e a38d 63bf 96cd 4cbf 0c93 e6bd
000000d0: 4fce 9ebf 1c98 fd3d b666 c0be 31ee 653e
000000e0: 8d0e fabd 6c18 213e d208 7dbf f34f 673e
000000f0: 79c5 bd3e 5daf 28bf 5803 7abe 9a0f 933e
00000100: a87e b63e 9ec7 7a3e f2d3 093f a083 003e
00000110: 4128 9cbf 5983 813e 6707 8cbe 835b 2b3f
00000120: 9a4b 883e 3dbe 003e ce1b dfbe 56b1 113f
00000130: 49f5 a9be 8380 2e3f 368b 8dbf e825 ad3e
00000140: 41da 103d ba21 18bf 059e ad3e b216 e7be
00000150: b690 33bd 9e1b a73e cf78 51bf db40 a33d
00000160: 19de 16bc 122f b4be 749c 77be 8e58 213e
00000170: 8dce c0be ba86 35bf f421 babe 620b ab3d
00000180: 2470 d63e 7ca0 123e af81 8abf 21c3 ea3e
00000190: 35c9 293f 735a 6fbf d210 76bf 4dd3 c13e
000001a0: 7bb2 883e d479 4cbf f959 b6bd 15a1 093e
000001b0: 70d7 e0bc a643 9bbf 4ad3 0bbf 888d ab3e
000001c0: 86f8 5ebf 9d5b cd3e ce23 29be dad5 72bf
000001d0: 08dd 9b3e 610a fb3e 2764 723e 6d7b f03c
000001e0: c673 ab3d 9dcb b63e 31d0 a4bf c625 743e
000001f0: 6574 a1bf d3a0 bbbd ecfe 713e fbaf edbe
00000200: dab0 813f 03b1 ae3d 6b17 893e d8a5 443e
00000210: aac3 08bf 8e5b 8bbe 4d1c 07bf 0fbe 013e
00000220: 5ee4 b73e 9f60 c03e 93ee 91bf a815 a23e
00000230: 4ccb da3e 41d4 7d3e 8fe8 45bf f7f9 c73e
00000240: 4757 bcbd badd 27bf 6fa1 123f fd45 033d
00000250: e511 34be 74b1 94bf 899b 3bbf f071 82be
00000260: 08bc 25bf 09e0 3bbf dd4f e2be ec14 253e
00000270: e5d0 d73d 684a 943d 969a 3c3e 454e 20bf
00000280: e1b1 a43c bbb0 4fbe 7a56 56be c922 ad3e
00000290: cb15 163f 899e df3e 675f fb3d 0f4b 31be
000002a0: 900c 11be 01b0 70be 40d8 913e 0abd 85bf
000002b0: b186 08be 4c6c d0bf 9045 a53e 67c8 6ebf
000002c0: ec1b dabe 4a1a e13e 6ae6 fbbe 8d56 a33e
000002d0: f151 c3bc b97a 91be 2cfb 253e 30ab 87be
000002e0: 7d94 cdbe ea50 63bf 06b8 9c3d b3ca 51bf
000002f0: 3435 953e 59d3 79bd 2240 a53d 52ce 083e
00000300: b427 38bf f878 813e e44d 06be 792c 3abf
00000310: 0832 103e 0573 583a 9e08 54bf bd3b babe
00000320: 0cad 86bf b412 143e cfe5 1f3e 05e1 8fbd
00000330: 7b19 3e3e 1f4a 8d3e 7b56 a43e b128 243f
00000340: 1d6c a9bc dbdb 24bf a877 ee3c ca28 6ebf
00000350: 87c6 f1bf 14ac dc3d 9e9e 03bf 7eef 893f
00000360: ffe0 363e c4c1 003f 0167 35bf 5a30 9d3d
00000370: 97d4 a1bb aa46 c4be 9a20 17bf 1e60 8c3e
00000380: 2492 10be b15d 203f 7c0f a1bf f055 343f
00000390: 93c9 da3e 1055 2cbe dd56 33bd 290e 94bf
000003a0: 2eeb fa3e a7c1 b13e 916b f8bd 4900 7e3e
000003b0: a102 5e3f 7014 31be 0f8e 3a3e 9eee cc3e
000003c0: 4058 263f 0d40 483f 8d4f 31bd c694 21bf
000003d0: 1dbc 01be 2601 c2be 0ebb b43e 7f4b 95be
000003e0: d45c 413f 4097 33be ac4b 903e 34e8 103e
000003f0: 01e8 663f e6a2 40bf ee4b b53e 198f 9f3e
0.6131593 -0.45967922 0.3470282 -0.027228298 -0.8074245 -0.77827376 0.08660049 0.55702394
0.17408346 0.1704481 -0.15353863 0.5390044 0.6774679 0.11888091 -0.39887697 0.53481567
0.3357472 -0.5311409 0.9124718 0.20896412 -0.5500727 -0.25764328 -0.7568501 0.49834207
0.25441942 0.3169149 -0.03720588 -0.42883006 -0.38315472 0.15322514 0.059417736 -0.7992102
-0.32084733 0.4411346 -0.40735418 -0.68728757 -0.46025994 0.26373 -1.3723527 0.06736136
-0.27390432 -0.1611397 0.047328264 0.5305061 -0.29785228 0.53664976 -0.32172698 -0.111287214
0.15229082 -0.88887995 -0.800012 -0.11258516 -1.240671 0.12382528 -0.37578362 0.22454144
-0.122098066 0.15731972 -0.98841584 0.22589092 0.37064722 -0.65892583 -0.24415338 0.2872284
0.35643506 0.2449021 0.5383903 0.12550211 -1.2199785 0.25295523 -0.27349398 0.6693651
0.2662018 0.1257257 -0.435759 0.5691122 -0.3319495 0.68164843 -1.1058109 0.33817983
0.035364393 -0.5942646 0.33909622 -0.45134503 -0.04383918 0.32638258 -0.81824964 0.079713546
-0.009208226 -0.35192162 -0.24180776 0.15756437 -0.37657586 -0.709087 -0.3635403 0.083517805
0.41882432 0.14319032 -1.0820826 0.45851997 0.6632264 -0.9349739 -0.96119416 0.37856522
0.2669867 -0.79873395 -0.0890388 0.13440354 -0.027446479 -1.213002 -0.54619277 0.33506417
-0.87097967 0.40108958 -0.16517565 -0.9485756 0.3044207 0.49031356 0.23671018 0.029355729
0.083716914 0.3570222 -1.2876035 0.23842534 -1.2613646 -0.09161534 0.23632401 -0.46423325
1.0132096 0.08529856 0.2677568 0.1920389 -0.5342356 -0.27218288 -0.5277756 0.12670158
0.35916418 0.37573716 -1.1400932 0.31657147 0.42733228 0.24788 -0.7730798 0.39057896
-0.09196334 -0.655727 0.5727758 0.032049168 -0.17584951 -1.1616654 -0.732842 -0.25477552
-0.6474004 -0.73388726 -0.44201556 0.16121262 0.1053789 0.07240754 0.18418345 -0.6261943
0.02010435 -0.20282261 -0.20931426 0.338156 0.58627003 0.4367564 0.12274056 -0.17313789
-0.14164948 -0.2350464 0.28485298 -1.0448315 -0.1333263 -1.628305 0.32279634 -0.9327454
-0.42599428 0.4396537 -0.4919923 0.3190197 -0.023842784 -0.28413942 0.16209096 -0.26497793
-0.4015235 -0.8879534 0.07652287 -0.8194992 0.29142153 -0.060992572 0.08068873 0.13359955
-0.7193558 0.25287604 -0.1311565 -0.7272411 0.14081585 0.00082568853 -0.8282565 -0.36373702
-1.052156 0.1446026 0.15615009 -0.07025341 0.18564408 0.27595612 0.3209723 0.6412459
-0.020681435 -0.6439797 0.02910979 -0.9303099 -1.8888711 0.10775009 -0.51413906 1.0776212
0.17859267 0.5029566 -0.70860296 0.07675238 -0.0049386728 -0.38335162 -0.5903412 0.27417082
-0.14118248 0.6264296 -1.258285 0.7044363 0.42731914 -0.16829324 -0.04378401 -1.1566821
0.49007553 0.34718058 -0.12129892 0.24804796 0.8672276 -0.17292953 0.18218254 0.400258
0.6497841 0.78222734 -0.043288756 -0.63117635 -0.12669416 -0.378915 0.3529896 -0.2915916
0.7553227 -0.17538166 0.28182733 0.14151078 0.9019776 -0.75248563 0.35409492 0.31163862

model.7.bias f4 [16]
00000000: 6d92 91be d469 0abc 0520 4b3e d9fc c6be
00000010: 2c35 7c3c 1a72 9fbe 842e 92be 70cd b2bd
00000020: 758d 1abf 37bb cebe 1498 ebbd b8d8 233e
00000030: 8285 bb3d 7c5a a1bd a20f 123d b333 7fbf
-0.28432027 -0.008448083 0.19836433 -0.38864782 0.015393537 -0.3114174 -0.28551114 -0.0873059
-0.60372096 -0.4037721 -0.11503616 0.1600064 0.09156324 -0.07878587 0.03565944 -0.9968826

model.9.weight f4 [2, 16]
00000000: fbb0 1d3f 6bbb 243f 2bd8 fd3d 29e9 70bf
00000010: b29d 363f 335c 3bbf 57b9 723f bcac 6fbd
00000020: de6d 6f3f d91a 0e3f 832b 38bf 9901 f7be
00000030: 9be1 6ebf 61e4 98bc 11c8 3bbe a2cb 1bbf
00000040: ed88 c83e 1f14 c83e c890 173f 8d3a e23e
00000050: 750e 10bf d2f6 153d f2b6 193e f818 cabf
00000060: d51e 95bf 185d 4ebf 4cc3 773f 5ebb 98bf
00000070: 00cd 373f 1327 d0bf 8542 563f 4bf3 873f
0.61598176 0.6434848 0.123947464 -0.94105774 0.71334374 -0.7318756 0.94814056 -0.05851434
0.9352702 0.55509716 -0.71941394 -0.48243406 -0.93312997 -0.018663587 -0.18338038 -0.60857594
0.39166966 0.3907785 0.59205294 0.44185296 -0.5627206 0.03661234 0.15011194 -1.578887
-1.1650034 -0.806108 0.96782374 -1.193218 0.7179718 -1.6261925 0.8369525 1.0621122

model.9.bias f4 [2]
00000000: d0d4 023e 1fe5 fd3e
0.12776494 0.49588868
