Deep Reinforcement Learning Nanodegree/collaboration-competition/actor_agent_1.pth (torch_old, 60694 bytes, 14 tensors)

model.0.weight f4 [128, 24]
0	0xbe5c97e0	-0.2154231
1	0x3f044274	0.516639
2	0xbc5e401c	-0.01356509
3	0xbe5f28cb	-0.21792905
4	0xbf033ab8	-0.5126147
5	0xbf3402bd	-0.7031668
6	0xbdfaae68	-0.122402966
7	0xbe1b1329	-0.15144028
8	0x3e373ea2	0.17894986
9	0x3ef3de22	0.4763041
10	0x3e376ba4	0.17912155
11	0xbfa464fc	-1.2843318
12	0xbf3084e9	-0.68952805
13	0xbf39dc1d	-0.7260149
14	0x3e895ab8	0.26827025
15	0xbf9b14ad	-1.2115685
16	0x3e78da93	0.2430213
17	0x3e260787	0.16213809
18	0x3ce8e23c	0.02842819
19	0xbf4e61d9	-0.80618054
20	0xbf598eff	-0.8498382
21	0xbdf0102f	-0.11721837
22	0xbd99a0f0	-0.075013995
23	0xbf41d75e	-0.7571925
24	0x3e684fa1	0.22686626
25	0x3e2c5749	0.16830172
26	0xbe27dcda	-0.16392842
27	0xbf3dfc19	-0.74212795
28	0x3f1cadaa	0.6120249
29	0xbf61c98e	-0.88198173
30	0xbdf6b2aa	-0.12045796
31	0xbf3f7137	-0.7478213
32	0x3f0d559c	0.55208755
33	0xbc6bcf57	-0.014392695
34	0x3e50cb7a	0.2039012
35	0x3e9acc6a	0.3023408
36	0x3f2ce651	0.67538935
37	0xbf899805	-1.0749518
38	0x3e49921b	0.19684641
39	0x3e68e95e	0.22745273
40	0x3f46db80	0.7767868
41	0x3e986df7	0.29771397
42	0x3d67b884	0.056572452
43	0xbe584934	-0.21121675
44	0x3f49b91a	0.7879807
45	0xbfb982d0	-1.4493046
46	0x3d570e6a	0.05250398
47	0xbe397895	-0.18112405
48	0x3f45861f	0.7715778
49	0x3f3f088f	0.74622434
50	0x3dbdc540	0.09266138
51	0xbf31a1af	-0.69387335
52	0xbe901eb9	-0.2814844
53	0xbf3ca8c5	-0.7369502
54	0x3dd95283	0.10611441
55	0xbf2b24c9	-0.66853005
56	0x3f214cf5	0.6300805
57	0x3eb8cd40	0.36094093
58	0xbeacd057	-0.337527
59	0xbed96b58	-0.4246471
60	0xbea36df9	-0.3191984
61	0xbd141e01	-0.036161426
62	0xbe401256	-0.18756995
63	0xbf09e951	-0.5387164
64	0x3f14725c	0.57987
65	0xbde6962b	-0.11259111
66	0xbe85360b	-0.26017794
67	0xbfb53a3a	-1.4158394
68	0xbf1d2373	-0.61382216
69	0x3f59dd7e	0.85103595
70	0xbe3cfc23	-0.18455558
71	0xbfb52084	-1.4150548
72	0xbd60dcbc	-0.05489801
73	0xbe4069e2	-0.18790391
74	0xbe0db099	-0.13836898
75	0xbedd8ae6	-0.43270034
76	0x3d0eaecf	0.03483468
77	0x3e0da410	0.13832116
78	0xbe6840cc	-0.22680968
79	0xbecd4bc6	-0.40096873
80	0xbe6626fe	-0.22475812
81	0xbe55a5e8	-0.2086407
82	0xbeda6a56	-0.42659253
83	0x3edd28f5	0.4319531
84	0xbd54d939	-0.051964972
85	0xbefb3da2	-0.4907046
86	0xbf001e2c	-0.5004604
87	0x3ee6084d	0.44928208
88	0xbed2b72d	-0.41155377
89	0x3ec27a70	0.37984037
90	0xbe97c7c9	-0.2964461
91	0x3f5b6fe0	0.8571758
92	0xbe2c0251	-0.16797759
93	0xbfd73478	-1.6812887
94	0xbea7495d	-0.3267316
95	0x3f626755	0.8843892
96	0x3eb924c1	0.36160854
97	0xbf4ed686	-0.80796087
98	0x3df5eaf5	0.12007705
99	0x3d45e0ad	0.04830997
100	0x3dd9f770	0.10642898
101	0xbe6b114e	-0.2295582
102	0x3de1424d	0.10998974
103	0x3db23645	0.08701757
104	0x3f1c591a	0.6107346
105	0xbf1eaeee	-0.6198567
106	0xbdd706a1	-0.10499311
107	0x3f804414	1.0020776
108	0x3e96b86f	0.29437587
109	0xbeae33ae	-0.34023803
110	0xbdc179e5	-0.09447078
111	0x3f7b4141	0.98146445
112	0x3f3fabd1	0.74871546
113	0xbe8c2b93	-0.27376994
114	0x3ec710c5	0.38879982
115	0x3fad9715	1.3561732
116	0x3ed19574	0.40934336
117	0xbe9f85cd	-0.3115677
118	0x3ebbcda6	0.36680335
119	0x3fa5931b	1.2935518
120	0x3efc86e7	0.49321672
121	0xbf02ca5b	-0.5109002
122	0xbe165b35	-0.1468323
123	0xbe18440b	-0.14869706
124	0xbe1481a1	-0.14502575
125	0xbf973a04	-1.181458
126	0xbe59a600	-0.2125473
127	0xbe24c43a	-0.1609048
128	0x3f286d41	0.6579171
129	0xbf066703	-0.52500933
130	0x3e971e09	0.29515103
131	0x3f0ba82e	0.54553497
132	0x3dde7fe1	0.10864235
133	0xbf2824ae	-0.6568097
134	0x3e9ec0e6	0.31006545
135	0x3ef12fa7	0.47106668
136	0x3f8af291	1.0855275
137	0xbe88807b	-0.26660523
138	0x3e65fdbd	0.22460075
139	0x3ef76742	0.48320967
140	0x3e8de320	0.27712345
141	0xbebbb64e	-0.36662525
142	0x3ea271d8	0.3172748
143	0x3ee41249	0.445452
144	0xbd2d181c	-0.04225932
145	0x3e9b239c	0.30300605
146	0xbe23344e	-0.15937921
147	0x3ee48306	0.44631213
148	0xbea92943	-0.33039293
149	0xbfe609a0	-1.7971687
150	0xbe1edf60	-0.15514898
151	0x3ecd584d	0.4010643
152	0x3e51bc11	0.20481898
153	0x3eedd1c2	0.46449095
154	0x3d642ea9	0.05570856
155	0xbe0aae4a	-0.13543049
156	0xbe4e681e	-0.20156905
157	0xbfded639	-1.7409126
158	0xbca9e939	-0.020741092
159	0xbe85eaa9	-0.26155594
160	0x3ed0cb9d	0.40780345
161	0x3e84c0a0	0.2592821
162	0x3dcc2d75	0.09969608
163	0xbf867b85	-1.0506445
164	0xbe073cc4	-0.13206774
165	0xbf74b65e	-0.9559077
166	0xbd2da325	-0.042391915
167	0xbf86e1be	-1.0537641
168	0x3ecfc391	0.40578893
169	0x3d1ff779	0.039054368
170	0x3e759604	0.23983008
171	0x3f6ac99d	0.9171389
172	0x3ed8ea2f	0.42366168
173	0xbf200b33	-0.6251709
174	0x3e211d39	0.15733804
175	0x3f3ee437	0.7456698
176	0x3e1548d2	0.1457856
177	0x3e12db19	0.14341392
178	0xbf2e38ce	-0.6805543
179	0x3e0021ba	0.12512866
180	0x3e2b4682	0.16726115
181	0xbf321c54	-0.69574475
182	0xbf2a2d99	-0.66475827
183	0x3e529c8f	0.20567535
184	0x3ecad3b1	0.39614633
185	0x3eac302d	0.33630505
186	0x3de64f75	0.11245624
187	0x3d2d6a26	0.04233756
188	0x3d1dc11e	0.03851425
189	0xbf45af53	-0.7722065
190	0x3dd7eb9d	0.105429865
191	0xbd21d89a	-0.039513208
192	0x3f88727c	1.0659938
193	0xbe5562ec	-0.20838517
194	0x3eb05b80	0.3444481
195	0xbed1a685	-0.40947357
196	0x3ee08afa	0.4385603
197	0xbf8bb78f	-1.0915393
198	0x3ec2cffc	0.38049304
199	0xbe9d0459	-0.3066738
200	0x3f444326	0.7666496
201	0xbebeb3e2	-0.37246615
202	0x3e05e89d	0.13077016
203	0xbe3269ac	-0.17423123
204	0x3ee8c050	0.45459223
205	0xbf1315b6	-0.57455003
206	0x3e68a4e7	0.22719155
207	0xbd0ce3ec	-0.03439705
208	0x3f618bd6	0.88104
209	0xbe54a81b	-0.20767252
210	0x3e8341a2	0.2563601
211	0xbdb4ea41	-0.08833743
212	0x3edf19d7	0.43574402
213	0xbebe366a	-0.3715089
214	0x3e67557d	0.22591205
215	0xbe0850ae	-0.13312027
216	0x3f834237	1.0254582
217	0x3d6f9178	0.05848834
218	0xbe1145e2	-0.14186814
219	0x3e955e7e	0.29173654
220	0x3e21ff44	0.15820032
221	0xbfa47a3e	-1.2849805
222	0xbdfa5060	-0.122223616
223	0x3e638bb1	0.22221257
224	0x3f7d49ac	0.9894054
225	0x3e348bc3	0.1763144
226	0xbe1b33fb	-0.15156548
227	0x3ec038e4	0.37543404
228	0x3dd533c7	0.10410266
229	0xbfac0495	-1.3438898
230	0xbe329d06	-0.17442712
231	0x3eb7b43d	0.35879698
232	0x3f36d318	0.71415854
233	0x3de6ef85	0.112761535
234	0xbdcfe4ce	-0.10151063
235	0xbd9e0c08	-0.077171385
236	0xbda37706	-0.07981686
237	0xbfc2b6f0	-1.5212078
238	0xbe69496c	-0.22781914
239	0x3b601f27	0.0034198256
240	0xbeda634a	-0.42653877
241	0x3fd86dc5	1.6908499
242	0xbc089fd6	-0.008338889
243	0x3f573b01	0.8407441
244	0xbef17be7	-0.47164842
245	0xbf4bb892	-0.79578507
246	0xbc88df8d	-0.01670816
247	0x3f625c11	0.8842173
248	0xbebb636c	-0.3659929
249	0x400a5fe5	2.162103
250	0xbca941d4	-0.020661272
251	0x3d91836c	0.07105145
252	0xbcabf9df	-0.020993171
253	0xbf8a0093	-1.0781425
254	0xbc67e646	-0.014154023
255	0x3ca797a6	0.020458054

model.0.bias f4 [128]
0	0xbf2cbe2b	-0.67477673
1	0xbf88e4f7	-1.0694875
2	0xbf195381	-0.5989304
3	0xbe824fb7	-0.25451443
4	0xbf608ed6	-0.8771795
5	0xbf2126e1	-0.6294995
6	0xbf92ac91	-1.1458913
7	0xbf158393	-0.5840389
8	0xbe24532e	-0.16047356
9	0xbf568138	-0.8379092
10	0xbdac68a1	-0.08418394
11	0xbfa09f92	-1.2548697
12	0xbe1da3d3	-0.15394525
13	0xbf9b7827	-1.2146043
14	0xbfc70bcb	-1.5550474
15	0x3e3403f9	0.1757964
16	0xbd6a25f8	-0.057165116
17	0xbef83a6e	-0.48482078
18	0xbed8dd16	-0.42356175
19	0xbf693267	-0.9109253
20	0xbf48ed77	-0.7848734
21	0xbf2c5b10	-0.6732645
22	0xbede5f4f	-0.4343209
23	0xbec975c6	-0.39347667
24	0xbeb3c9e9	-0.35114983
25	0xbfafde32	-1.3739684
26	0x3f160aa5	0.5860999
27	0xbf6b8901	-0.92005926
28	0xbf444cdf	-0.76679796
29	0xbed99cab	-0.4250234
30	0xbef0c51b	-0.4702538
31	0xbf44e63b	-0.76913804
32	0xbf45cd3e	-0.772663
33	0xbf16394a	-0.58681166
34	0x3e812624	0.2522441
35	0xbfe319ab	-1.7742208
36	0xbe8ba3ac	-0.2727331
37	0xbf54359c	-0.828943
38	0xbe92e825	-0.28692737
39	0xbf86ea8b	-1.0540327
40	0xbf560b04	-0.8361056
41	0x3d9e375b	0.07725402
42	0xbf8c340a	-1.0953381
43	0xbedc97a8	-0.43084455
44	0xbee0b471	-0.43887666
45	0xbef6860b	-0.48149142
46	0xbf4337e3	-0.7625715
47	0xbf9832d2	-1.1890509
48	0xbe87e15a	-0.26539117
49	0xbd19921d	-0.03749286
50	0xbe5fd3a2	-0.21858075
51	0xbefa0b12	-0.4883657
52	0xbfc09b14	-1.5047326
53	0xbf01a99e	-0.5064944
54	0xbf176fbf	-0.59154886
55	0xbf59180d	-0.84802324
56	0xbf8ea148	-1.1142969
57	0xbf5b790d	-0.85731584
58	0xbf6a570b	-0.9153907
59	0xbe96cc60	-0.294528
60	0xbe421c58	-0.18956125
61	0xbf6d9797	-0.9280943
62	0xbf2c78c5	-0.6737178
63	0xbe16ef9d	-0.14739843
64	0xbf25c22f	-0.64749426
65	0xbf06f998	-0.527246
66	0xbf71a2b0	-0.94388866
67	0xbe13f93a	-0.14450541
68	0xbf2709df	-0.6524944
69	0xbf2e7e6f	-0.6816167
70	0xbef075f4	-0.4696499
71	0x3eb716ba	0.35759526
72	0xbf6b2ec9	-0.91868263
73	0xbd706fb6	-0.058700286
74	0xbe810cba	-0.25205022
75	0xbdc30f3d	-0.09524391
76	0x3e75148c	0.2393362
77	0xbe9ec724	-0.31011307
78	0xbf4b0002	-0.79296887
79	0xbf61fbc1	-0.8827477
80	0xbe439cd6	-0.19102797
81	0x3e566695	0.2093757
82	0xbf7f6a44	-0.99771523
83	0xbfdc1a9d	-1.7195622
84	0xbfd0a228	-1.6299486
85	0xbfa6311a	-1.2983735
86	0xbf7cfa72	-0.9881965
87	0xbf3401eb	-0.70315427
88	0xbfaa2242	-1.3291705
89	0xbebaf317	-0.36513588
90	0xbf84f36e	-1.0386789
91	0xbe1d7470	-0.15376449
92	0xbee91917	-0.45526955
93	0xbe2d0c40	-0.16899204
94	0xbeb741f1	-0.35792497
95	0xbf6bf9fe	-0.9217833
96	0xbf0aa4bf	-0.5415763
97	0xbe97c3e5	-0.29641643
98	0xbfd2519b	-1.6431154
99	0xbea103b3	-0.31448135
100	0xbf2eb4d3	-0.68244666
101	0xbea1bf0d	-0.31591073
102	0xbfa19920	-1.2624855
103	0x3c0795e3	0.008275482
104	0xbf219670	-0.63120174
105	0xbf6b88c6	-0.92005575
106	0xbfc02cff	-1.5013732
107	0xbf3cf7cf	-0.73815626
108	0xbf866d16	-1.050204
109	0xbedb5e26	-0.42845267
110	0xbf7f3384	-0.9968798
111	0x3e522eaa	0.20525613
112	0xbf28fae3	-0.6600782
113	0xbfb805ce	-1.4376771
114	0xbe876afd	-0.26448813
115	0xbf7c228d	-0.9849022
116	0xbfb684c3	-1.4259266
117	0xbf86c14c	-1.052774
118	0xbf911b71	-1.13365
119	0xbfd0c6ae	-1.6310632
120	0xbfaa36e7	-1.3298005
121	0xbf6d8299	-0.927774
122	0xbf807090	-1.0034351
123	0xbf1c1c26	-0.6098045
124	0xbf4692e2	-0.77567875
125	0xbf4f3c0c	-0.80951
126	0xbf5e80ff	-0.8691558
127	0xbf3e26c6	-0.74277914

model.2.weight f4 [128]
0	0x3f0603f6	0.52349794
1	0x3ed2e173	0.4118763
2	0x3f348a08	0.7052312
3	0x3f308744	0.689564
4	0x3f4f32ae	0.80936706
5	0x3e7aab41	0.2447939
6	0x3f6654c9	0.8997312
7	0xbe88b669	-0.26701668
8	0x3da5e3d9	0.08100099
9	0x3efbfdf6	0.49217194
10	0x3eff3a92	0.49849373
11	0x3f304aa2	0.6886388
12	0x3f9bb082	1.2163241
13	0xbee431c6	-0.44569224
14	0x3f9c48b4	1.2209687
15	0x402a8e79	2.6649458
16	0x3f83d479	1.0299217
17	0x3e46273e	0.19350907
18	0x3efaa674	0.4895512
19	0x3f08e465	0.534735
20	0x3f65de01	0.89791876
21	0x3ec79aef	0.38985392
22	0x3f89ef2f	1.0776118
23	0x3f5eecb7	0.8707995
24	0x3f284e58	0.65744543
25	0x3efcfde4	0.49412453
26	0x3fabe2f7	1.3428639
27	0xbeeb6927	-0.45978662
28	0x3f57e107	0.8432774
29	0x3f74c139	0.95607334
30	0x3f9bd22d	1.2173516
31	0x3f0e78ac	0.5565288
32	0x3ddd24c6	0.107980296
33	0xbd3c45f7	-0.04596516
34	0x3eedc7a0	0.46441364
35	0x3f9e7a08	1.2380991
36	0x3f23665b	0.6382806
37	0x3f432fb1	0.76244646
38	0x3f9609fe	1.1721799
39	0x3f9f6750	1.2453403
40	0x3fcde2b9	1.6084815
41	0x3f4a4616	0.7901319
42	0x3e6b4d88	0.22978795
43	0x3f51c7b4	0.8194535
44	0xbeda2913	-0.42609462
45	0x3f67ab1a	0.90495455
46	0x3f80e87e	1.0070951
47	0x3f9f6184	1.2451634
48	0x3f632da0	0.88741493
49	0x3f918645	1.1369101
50	0x3fb60c5c	1.4222522
51	0x3fe1e045	1.7646567
52	0x3f582b31	0.84440905
53	0x3f51cefb	0.8195645
54	0x3eb18b61	0.3467665
55	0xbf284dfb	-0.6574399
56	0x3ec44c3b	0.3833941
57	0x3f2412ca	0.6409117
58	0x3f3bdb7e	0.73381793
59	0x3f68bfbd	0.9091757
60	0x3f0148fb	0.50501984
61	0x3f56dfd1	0.83935267
62	0x3f3a253e	0.7271308
63	0x3f0dd291	0.55399424
64	0x3f51a199	0.81887203
65	0x3f564d72	0.8371192
66	0x3fa3c353	1.2793983
67	0x3f930653	1.1486305
68	0x3f67d1cf	0.9055452
69	0x3f2a35aa	0.66488135
70	0x3f11155d	0.5667322
71	0x3ef09daa	0.46995288
72	0x3f52a60d	0.82284623
73	0x3f8ad06a	1.0844853
74	0x3f6e182f	0.9300565
75	0x3f2751c2	0.6535913
76	0x3e49cf4d	0.19707985
77	0x3e31af5f	0.17352055
78	0x3f4ff4af	0.8123273
79	0x3f172b25	0.5905021
80	0x3f35b2de	0.70976055
81	0x3f4e4deb	0.80587643
82	0x3f383f6f	0.7197179
83	0x3f2c6c19	0.67352444
84	0x3fc8ae1c	1.5678134
85	0x3f1900cf	0.5976686
86	0x3fbda13b	1.4814829
87	0x3f74834d	0.9551285
88	0x3f2d5df0	0.6772146
89	0x3f20af1e	0.6276721
90	0x3f0744c0	0.5283928
91	0x3eb70e69	0.35753182
92	0xbe8a2729	-0.26983002
93	0x3fd634d5	1.6734873
94	0x3edc75a5	0.43058506
95	0x3f64f692	0.89438736
96	0x3f2f3c8d	0.6845177
97	0x3ec8ebcc	0.392424
98	0x3fd389c4	1.6526418
99	0xbf1e3a7b	-0.61807984
100	0x3f1be189	0.60891014
101	0x3f4142b5	0.7549241
102	0x3f0060eb	0.50147885
103	0x3fb6b9c6	1.4275444
104	0x3fb2f30d	1.3980423
105	0x3f68d5cb	0.9095122
106	0x3f33ed23	0.70283717
107	0x3ee74fa9	0.45177963
108	0x3eeaf2c4	0.4588834
109	0x3f1b466b	0.60654324
110	0x3e451430	0.19245982
111	0x3df5ebe5	0.12007884
112	0x3effb5ff	0.4994354
113	0x3f8b44cf	1.0880374
114	0x3ed2e429	0.41189697
115	0x3ea61ab3	0.32442245
116	0x3f252df2	0.6452323
117	0x3f35aeda	0.7096993
118	0x3f6a17ec	0.9144275
119	0x3fdcc033	1.7246155
120	0x3f9e2843	1.2356037
121	0x3f9adb7c	1.2098231
122	0x3f50c68b	0.8155295
123	0x3f89f925	1.0779158
124	0x3fa58279	1.2930442
125	0x3f84f9d6	1.0388744
126	0x3f81de4d	1.0145966
127	0x3ec88bf6	0.39169282

model.2.bias f4 [128]
0	0x3eea2767	0.45733187
1	0xbea62ca5	-0.32455936
2	0x3e712c1e	0.23551986
3	0x3e73a5b4	0.2379368
4	0x3f244b76	0.64177644
5	0xbf207792	-0.6268245
6	0x3e0f2ef9	0.13982762
7	0x3d326dd7	0.043561783
8	0x3d1982ad	0.037478138
9	0x3c06398e	0.008192433
10	0x3ce7b095	0.028282443
11	0x3e82daff	0.25557706
12	0xbe033e36	-0.128167
13	0xbdc4651e	-0.09589599
14	0x3e1e2003	0.15441899
15	0x3eedf37a	0.4647482
16	0xbe5615a6	-0.20906696
17	0x3ed93e90	0.42430544
18	0xbc2aebb1	-0.01043217
19	0x3d5f122d	0.054460693
20	0xbda58748	-0.080824435
21	0xbe6aa1fa	-0.22913352
22	0x3ea238ad	0.31683865
23	0x3e606dd0	0.2191689
24	0x3e42187b	0.18954651
25	0x3d270092	0.04077203
26	0xbc9b54ba	-0.0189613
27	0x3d882465	0.06647567
28	0xbdd98845	-0.106216945
29	0x3d837a59	0.0641982
30	0x3d58321f	0.052782174
31	0xbf03b851	-0.5145312
32	0x3d39ace4	0.045330897
33	0x3e8bf9eb	0.2733911
34	0x3e8f1072	0.27942234
35	0x3ee82d72	0.45347172
36	0x3ef003b7	0.46877834
37	0x3ead8f13	0.3389822
38	0x3e65165e	0.22371814
39	0xbe3dcc49	-0.1853496
40	0x3f0e8a28	0.5567956
41	0xbe450f2e	-0.19244072
42	0x3dc2311f	0.09482025
43	0xbec44f4f	-0.38341758
44	0xbe2ab9b5	-0.16672404
45	0x3be8a11c	0.007099284
46	0x3dc04899	0.09388847
47	0x3db4aea5	0.08822373
48	0x3d440f5e	0.047866218
49	0x3eeaa8eb	0.45832
50	0xbefa3dff	-0.48875424
51	0x3eb4692a	0.35236484
52	0xbcfbaa47	-0.030720843
53	0x3b96ed8b	0.004605954
54	0xbe5a1882	-0.21298411
55	0xbec61253	-0.38685855
56	0xbdfd0d82	-0.12356092
57	0x3d06e6c6	0.032934926
58	0x3ed3c941	0.41364482
59	0xbdcc0ccb	-0.099633776
60	0xbd48144b	-0.048847478
61	0xbdc8bfac	-0.098021835
62	0x3ed1f700	0.4100876
63	0xbe02104b	-0.12701528
64	0x3cf91c00	0.03040886
65	0x3edb5df0	0.42845106
66	0x3e44a1ab	0.19202296
67	0x3e48d7d0	0.19613576
68	0x3ea55b3d	0.32296172
69	0x3d1bc236	0.03802701
70	0x3eb54ba3	0.3540927
71	0xbdeab163	-0.11459615
72	0x3f0a63d8	0.540586
73	0x3e97544d	0.29556504
74	0x3eacef17	0.3377616
75	0x3e9030f6	0.28162354
76	0x3d930201	0.071781166
77	0x3f0e42ba	0.55570567
78	0xbd279d25	-0.04092135
79	0x3d27f5e9	0.041006003
80	0x3f656089	0.89600426
81	0xbe037645	-0.12838085
82	0xbd5d2b7c	-0.053996548
83	0x3e23b6a2	0.15987638
84	0xbead59d6	-0.33857602
85	0x3d2a67d6	0.041602932
86	0xbcc7975f	-0.024364172
87	0xbf3a5c6a	-0.7279726
88	0x3dce88fd	0.10084722
89	0xbd3a0210	-0.045412123
90	0x3d0cc5d5	0.034368355
91	0x3e93527b	0.28773865
92	0x3d99fd58	0.075190246
93	0x3e34b9a5	0.17648943
94	0xbe088269	-0.13330998
95	0x3e45aee6	0.19305
96	0x3e66b7f2	0.22531107
97	0x3e231ea2	0.15929654
98	0xbef4282e	-0.47686905
99	0xbe76e7ff	-0.24111937
100	0x3dec837f	0.115485184
101	0xbe7c61f5	-0.24646743
102	0xbc676a65	-0.0141244875
103	0x3e177ce6	0.14793739
104	0x3e48f5c4	0.19625002
105	0x3f0cbefb	0.54978913
106	0x3c3917d5	0.011297186
107	0xbda0ebbf	-0.07857465
108	0x3ea88eee	0.32921547
109	0xbe396db5	-0.18108256
110	0x3ca9df70	0.020736426
111	0xbaf2b412	-0.00185168
112	0x3e4cb708	0.19991696
113	0x3e465604	0.1936875
114	0xbd079329	-0.033099327
115	0xbe07ef9a	-0.13274994
116	0x3e701de6	0.23448905
117	0x3f278000	0.6542969
118	0x3e34b269	0.17646183
119	0x3f0224ea	0.50837576
120	0x3cecb710	0.028895885
121	0x3e825a07	0.2545931
122	0x3eb4354c	0.35196912
123	0x3e28090b	0.164097
124	0x3dc9b355	0.09848658
125	0x3f3d25a4	0.7388556
126	0x3f63c662	0.88974583
127	0xbec8a78f	-0.39190337

model.2.running_mean f4 [128]
0	0x40d069b6	6.512904
1	0x3f3c74b7	0.7361559
2	0x404dcf75	3.2157872
3	0x410e97f5	8.912099
4	0x411748ca	9.455271
5	0x40c1f4bb	6.0611243
6	0xbe95799f	-0.29194352
7	0x40a1a922	5.051896
8	0x41739904	15.224857
9	0xbf6692ea	-0.90067923
10	0x40170c90	2.3601418
11	0x3fdfbebb	1.7480081
12	0x4090c589	4.524113
13	0x414ad820	12.677765
14	0x3f832677	1.0246114
15	0x408f25c7	4.4733615
16	0xbf0e0576	-0.5547708
17	0x4194d45f	18.603697
18	0x416a6479	14.649529
19	0x3fc69885	1.5515295
20	0x40804e3c	4.00955
21	0x40ab948e	5.361884
22	0x409d7cb3	4.921472
23	0x40c65255	6.1975503
24	0x3eeaa04f	0.4582543
25	0x4043cddf	3.0594404
26	0x415b483a	13.705133
27	0x41121889	9.13099
28	0xbe2c9089	-0.16852011
29	0x3f628683	0.884865
30	0x41c3f30c	24.493675
31	0x4168f673	14.560168
32	0x4130812d	11.031537
33	0x41162e85	9.386357
34	0x41c26b18	24.302292
35	0x3f824808	1.0178232
36	0x41098a9d	8.596341
37	0x4091308d	4.5371766
38	0x40e5630a	7.1683397
39	0x413a4bab	11.643474
40	0x40858207	4.1721225
41	0xbf07fca5	-0.5311988
42	0x4045f190	3.0928688
43	0xbf3fdd08	-0.7494664
44	0x412b5db6	10.710379
45	0x41094235	8.578664
46	0x3f481497	0.7815642
47	0xbe9208dd	-0.28522387
48	0x3eb3d7fb	0.35125718
49	0x417ce20b	15.805186
50	0xbe63f1c2	-0.22260192
51	0x414e57c4	12.896427
52	0xbdf36a59	-0.118855186
53	0x3e4ae8c4	0.19815356
54	0x40c76d53	6.2320952
55	0x4011deed	2.2792313
56	0x409193bf	4.5492854
57	0x3f267be7	0.6503281
58	0x3e4a6e00	0.19768524
59	0x40d54058	6.6641045
60	0x4107aed1	8.48018
61	0x40cd5df1	6.4177175
62	0x40b49a16	5.6438093
63	0x4033c8cb	2.8091304
64	0x40b770a2	5.732499
65	0x409e2071	4.94146
66	0x41c38290	24.438751
67	0x40ac8e01	5.3923345
68	0x40b41127	5.627094
69	0x4062377a	3.534636
70	0x4049fc25	3.1560147
71	0x418ff3dc	17.994072
72	0x4033db80	2.8102722
73	0x4187503f	16.914183
74	0x41013607	8.07569
75	0x3daea92b	0.0852836
76	0x41d8d1e1	27.10248
77	0x41b6f965	22.871775
78	0x408e095d	4.438643
79	0x407d38c0	3.9565887
80	0x410e58b8	8.89666
81	0x3f4e36a2	0.80552113
82	0x3f79c48a	0.9756552
83	0xbf649299	-0.8928619
84	0x414773d6	12.46578
85	0x410ed86c	8.927837
86	0xbd923065	-0.07138137
87	0xbd01a4c3	-0.03165127
88	0x40106596	2.2562003
89	0x41259f4a	10.351389
90	0xbf5ff02f	-0.87475866
91	0x410a9290	8.660782
92	0x41116f05	9.089604
93	0x41de4824	27.785225
94	0x40e67fcd	7.2031007
95	0x3f413f90	0.75487614
96	0x4108b226	8.543493
97	0x41522747	13.134589
98	0x41079dba	8.476007
99	0x41872418	16.892624
100	0x4137c1a4	11.484776
101	0x3f014058	0.50488806
102	0xbf7fff73	-0.9999916
103	0x41973ec7	18.905653
104	0x403dad37	2.9636972
105	0x40a42d02	5.130494
106	0x40f2e0bb	7.589933
107	0x419e8a3d	19.8175
108	0x41347010	11.277359
109	0x41651455	14.317464
110	0x417f09de	15.939909
111	0x422ee9c4	43.728287
112	0x41574754	13.454914
113	0x411ec8a3	9.923984
114	0x3ee5cb7e	0.44881815
115	0xbedf5428	-0.43618894
116	0x3f0c557e	0.5481795
117	0x3f94f038	1.1635809
118	0xbeba5947	-0.36396238
119	0x4127ef30	10.495895
120	0x3f095530	0.5364561
121	0xbf4b2e5d	-0.7936762
122	0x4127cf29	10.488076
123	0x40e6e30f	7.215217
124	0x4066b602	3.6048589
125	0x418e4d77	17.787825
126	0x414698a9	12.412271
127	0x412db53a	10.856745

model.2.running_var f4 [128]
0	0x43214936	161.28598
1	0x4198201a	19.015675
2	0x42c17ac4	96.73978
3	0x43ac1772	344.18317
4	0x4364d238	228.82117
5	0x42c26a69	97.20783
6	0x412dacbf	10.854674
7	0x431f4638	159.27429
8	0x43a8e0c2	337.75592
9	0x3f04c63f	0.51865
10	0x4235b0a4	45.4225
11	0x4261eec6	56.483177
12	0x42b90c98	92.5246
13	0x43177a1b	151.47697
14	0x41f3a357	30.454756
15	0x41623fcd	14.140576
16	0x409b0ac9	4.8450665
17	0x431e35ef	158.21068
18	0x43865d07	268.72678
19	0x42200e02	40.01368
20	0x4286bace	67.36485
21	0x42e1f183	112.9717
22	0x429714c9	75.540596
23	0x43271970	167.09937
24	0x41b25004	22.28907
25	0x42afdadf	87.92748
26	0x421ab85b	38.680035
27	0x43b5e9f4	363.82776
28	0x411b9b31	9.725389
29	0x421148c3	36.321056
30	0x4307848e	135.51779
31	0x438d09e3	282.07724
32	0x43c43058	392.3777
33	0x43d3000c	422.00037
34	0x42c464e4	98.19705
35	0x417c6516	15.774679
36	0x433b61c7	187.38194
37	0x42f4dfb1	122.4369
38	0x4313f5f1	147.96071
39	0x433b59a9	187.35023
40	0x42c336ab	97.60677
41	0x406819fb	3.6265857
42	0x425ffe40	55.99829
43	0x40461ece	3.0956302
44	0x4342a154	194.63019
45	0x431819a6	152.10019
46	0x41e80836	29.00401
47	0x40a9fea4	5.312334
48	0x417b6fc0	15.714783
49	0x43c9b786	403.43378
50	0x41093902	8.576418
51	0x43b63547	364.41623
52	0x40b9f614	5.811289
53	0x415e35bc	13.888119
54	0x4335c636	181.77426
55	0x41fee8bb	31.863638
56	0x430a3b88	138.23254
57	0x41f5cc5e	30.724789
58	0x41856eee	16.679165
59	0x435fc459	223.76698
60	0x433e8fca	190.56168
61	0x43098b80	137.54492
62	0x42f04b85	120.1475
63	0x42af3ceb	87.61898
64	0x42acc365	86.38163
65	0x42cbe193	101.940575
66	0x42bb4827	93.64092
67	0x42fe19ca	127.05037
68	0x42df9fac	111.81186
69	0x426855f4	58.08394
70	0x427f19ad	63.775074
71	0x43a955be	338.66986
72	0x42d7957a	107.79195
73	0x42ee1ac9	119.052315
74	0x42ea9be2	117.30446
75	0x414bb179	12.730828
76	0x44038e01	526.2188
77	0x440dd23b	567.28485
78	0x42955831	74.67225
79	0x427778a4	61.867813
80	0x42eea0da	119.31416
81	0x41e38742	28.441044
82	0x4200ca03	32.197277
83	0x3f7ce73f	0.98790354
84	0x43ae8a41	349.0801
85	0x431bd08c	155.81464
86	0x41157f1d	9.3435335
87	0x41433536	12.200491
88	0x42a9bf9a	84.87422
89	0x42f4d0c1	122.40772
90	0x3f83ba0b	1.0291151
91	0x43205711	160.3401
92	0x4337b707	183.71495
93	0x42c53e93	98.622215
94	0x435f97d9	223.59315
95	0x417b33f8	15.700188
96	0x4340d927	192.84825
97	0x438503ea	266.03058
98	0x43126414	146.39093
99	0x43ce30cb	412.3812
100	0x43e52062	458.253
101	0x41b64c6f	22.787321
102	0x3482eb97	2.43858e-07
103	0x425231a5	52.54848
104	0x426e8ab9	59.63547
105	0x42b8ab51	92.3346
106	0x42eac2ef	117.38073
107	0x4402085d	520.1307
108	0x4357a03b	215.6259
109	0x438734ef	270.41354
110	0x43be70a3	380.87997
111	0x44bb5d15	1498.9088
112	0x4379e3a6	249.88925
113	0x434134c7	193.20616
114	0x41d8d786	27.105236
115	0x40ad9fe0	5.425766
116	0x41a3ab9b	20.458792
117	0x422d79b5	43.368855
118	0x40951006	4.658206
119	0x4345987b	197.59563
120	0x41dff05c	27.992363
121	0x40014cbd	2.0203087
122	0x437bf17f	251.94334
123	0x4290e431	72.44569
124	0x42a007d0	80.01526
125	0x43d54a07	426.57834
126	0x439063a0	288.77832
127	0x43e81ccd	464.225

model.3.weight f4 [64, 128]
0	0xbf399539	-0.7249332
1	0xbda8545f	-0.082192175
2	0x3e5a8e34	0.21343309
3	0xbe8b5a95	-0.27217546
4	0xbeca9298	-0.39564967
5	0x3f13d9db	0.57754296
6	0xbf59d8ee	-0.85096633
7	0xbea9bf8b	-0.33153948
8	0x3da5fb71	0.08104599
9	0x3e90a2f2	0.28249317
10	0x3d14d6ce	0.036337666
11	0xbe8e2998	-0.2776611
12	0x3ee6edeb	0.45103392
13	0xbe98d52b	-0.29850134
14	0xbdd0f3ce	-0.10202752
15	0x3f40542e	0.7512845
16	0x3f90d885	1.1316077
17	0xbf2191b0	-0.63112926
18	0x3ec4e4f3	0.38455924
19	0x3ea104ae	0.31448883
20	0xbe1f903e	-0.15582368
21	0x3e33281b	0.17495768
22	0x3f102cbf	0.5631828
23	0xbd7351ab	-0.059404057
24	0x3efa4244	0.48878682
25	0x3ef6afaf	0.4818091
26	0x3ed6b529	0.4193509
27	0x3e96d381	0.2945824
28	0x3ca61189	0.020272033
29	0xbefa5673	-0.4889408
30	0x3ed61afa	0.41817456
31	0x3ede1592	0.43375832
32	0x3e94a20d	0.29029885
33	0xbd40bf2e	-0.047057323
34	0x3f180201	0.5937806
35	0x3f7f2952	0.99672425
36	0xbec12281	-0.37721637
37	0x3dc841ff	0.09778213
38	0x3f2390e1	0.6389294
39	0x3e87bddf	0.26512048
40	0x3e3c3f3d	0.18383498
41	0x3e050b74	0.1299265
42	0x3f024471	0.50885683
43	0x3f24629d	0.6421297
44	0x3e644281	0.22290994
45	0x3f18a041	0.5961953
46	0x3da2fda8	0.07958537
47	0x3efa1948	0.48847413
48	0x3d7d894e	0.061898522
49	0xbda764fc	-0.08173558
50	0x3d2f19f5	0.042749364
51	0x3f5d1841	0.86365134
52	0x3ebd4877	0.3696935
53	0x3efcba7a	0.4936102
54	0x3dcb47ad	0.099257804
55	0x3d87d05d	0.06631539
56	0x3e5319ba	0.20615283
57	0x3f19e816	0.6011976
58	0xbf6b272d	-0.9185665
59	0x3e73906f	0.23785566
60	0xbe8a584f	-0.270205
61	0xbd9aad40	-0.07552576
62	0xbefa2266	-0.4885437
63	0xbd45ce03	-0.04829217
64	0xbea2fdf9	-0.3183439
65	0xbf27c1cb	-0.6553008
66	0x3e43fb8a	0.19138923
67	0xbe886cd5	-0.26645532
68	0x3eb56110	0.35425615
69	0x3d6b11a4	0.05738987
70	0xbee0bd97	-0.43894646
71	0x3f8e9e8c	1.1142135
72	0x3dc27467	0.09494858
73	0x3ec1b785	0.37835327
74	0x3e9cafcf	0.3060288
75	0x3e679813	0.22616605
76	0xbd7f5192	-0.06233365
77	0xbd7ca942	-0.061684854
78	0xbe599fb0	-0.21252322
79	0xbb76a53d	-0.003763511
80	0xbe88ecf7	-0.2674329
81	0x3f55078a	0.8321463
82	0x3f1117da	0.5667702
83	0xbe6c61ff	-0.23084258
84	0x3f4f0f80	0.80883026
85	0x3dbfc5aa	0.09363873
86	0x3f32df8e	0.6987237
87	0x3e1cdfc8	0.15319741
88	0xbe98842a	-0.29788333
89	0x3e12b3c7	0.14326392
90	0x3e17c67b	0.14821808
91	0xbcbabe4e	-0.022795822
92	0xbe7db825	-0.24777277
93	0x3eed3408	0.4632876
94	0x3f22ffbc	0.6367147
95	0x3d9a0cd3	0.07521977
96	0xbe92677e	-0.28594583
97	0xbf894daa	-1.0726826
98	0x3e7b31b8	0.24530685
99	0x3e46210e	0.19348547
100	0x3f1e941e	0.6194476
101	0x3e6f009b	0.23340075
102	0x3f563ee5	0.8368972
103	0x3db3d82f	0.08781468
104	0x3f263eb9	0.6493946
105	0xbf52c4ed	-0.82331735
106	0x3e943e69	0.28953865
107	0x3eb907be	0.3613872
108	0xbf129f52	-0.57274354
109	0x3e5030bb	0.20331089
110	0x3f10ad5a	0.56514513
111	0x3e82a8d5	0.25519434
112	0x3d889034	0.066681296
113	0xbcedcdd4	-0.02902881
114	0xbed9c37b	-0.42531952
115	0x3f0aee76	0.5427011
116	0xbf61dacb	-0.88224477
117	0xbfa84dce	-1.3148744
118	0x3d3e51d6	0.046464764
119	0x3f218c9c	0.6310518
120	0x3cfd9f70	0.030959815
121	0x3f001c37	0.5004305
122	0x3f32af58	0.69798803
123	0x3e95ce76	0.2925908
124	0x3eaa577f	0.3326988
125	0x3ea8412c	0.32862222
126	0xbe65f30a	-0.22455993
127	0x3f33349e	0.7000216
128	0xbe9f3b43	-0.310999
129	0xbd898deb	-0.06716522
130	0x3e2a0831	0.16604687
131	0x3d96988b	0.07353314
132	0xbef7010d	-0.4824299
133	0x3e8ada27	0.27119562
134	0x3cf47ba1	0.029844107
135	0xbe933c6b	-0.28757033
136	0xbdca4919	-0.098772235
137	0xbdb5c5fc	-0.08875653
138	0x3f47db67	0.78069156
139	0x3dc8564a	0.09782083
140	0xbf06f159	-0.5271202
141	0x3dad46bd	0.08460758
142	0xbf225e35	-0.63425
143	0xbfd5a2b4	-1.6690278
144	0x3f5de2d0	0.86674213
145	0xbec8dda2	-0.39231592
146	0xbe3c231e	-0.18372771
147	0xbeed44fb	-0.4634169
148	0x3ce0f636	0.027461153
149	0x3e00cde2	0.12578538
150	0xbe15f40a	-0.14643875
151	0xbec17a8b	-0.37788805
152	0x3d3272b9	0.04356644
153	0xbf2c29b0	-0.6725111
154	0xbed93ac0	-0.42427635
155	0xbf33004e	-0.6992234
156	0x3ef365af	0.47538516
157	0x3f4bc767	0.7960114
158	0xbe758465	-0.23976286
159	0x3e561e8b	0.20910089
160	0xbe21de97	-0.15807568
161	0xbdd5ce66	-0.10439758
162	0xbe73adea	-0.23796812
163	0xbeaeee7a	-0.34166318
164	0xbde0c989	-0.1097594
165	0x3e6e8e78	0.23296535
166	0x3d5a5a07	0.053308513
167	0xbf1abb65	-0.6044219
168	0xbf31c88f	-0.69446653
169	0x3ef04d6c	0.46934068
170	0x3f3d6d09	0.739945
171	0x3f722e66	0.9460205
172	0xbe7ed857	-0.24887215
173	0xbdcaef66	-0.09908943
174	0xbf247268	-0.6423707
175	0xbe5ca7b2	-0.21548346
176	0xbee561eb	-0.44801268
177	0xbe7556a9	-0.2395884
178	0x3cd22127	0.025650574
179	0x3ea259d4	0.31709158
180	0xbe81ae4c	-0.2532829
181	0xbe35d211	-0.17755915
182	0xbec522eb	-0.38503203
183	0x3e091d77	0.13390146
184	0xbe241810	-0.16024804
185	0xbe2dfb83	-0.16990475
186	0xbf3ff1e6	-0.7497848
187	0x3d0c699a	0.034280397
188	0x3c8d3880	0.017238855
189	0x3e4f20c7	0.20227347
190	0xbe5aa434	-0.21351701
191	0x3eb4baf9	0.352989
192	0x3e316355	0.17323048
193	0xbc68f8b3	-0.014219451
194	0x3d10e4aa	0.03537432
195	0x3eb3ae14	0.3509375
196	0xbe92b8f6	-0.2865674
197	0x3f4a8695	0.79111606
198	0x3f1a168a	0.6019064
199	0xbf094e50	-0.5363512
200	0x3ccb3f5b	0.024810484
201	0x3e5aaf57	0.2135595
202	0xbcb84113	-0.022491967
203	0x3e11b29d	0.14228292
204	0xbe30d1cd	-0.17267533
205	0xbf0b18bc	-0.54334617
206	0x3da0e040	0.07855272
207	0x3e3dd486	0.18538103
208	0xbe997c24	-0.29977524
209	0x3edd6249	0.43239048
210	0x3e49ee4d	0.19719811
211	0xbc1c4196	-0.009537121
212	0xbeecec9a	-0.46274263
213	0x3eb59a98	0.35469508
214	0x3eea0a65	0.45711055
215	0x3ceca5bd	0.028887624
216	0xbf7e63fd	-0.9937132
217	0xbf30fe0c	-0.69137645
218	0xb9603b02	-0.00021384287
219	0xbd79f1aa	-0.061021484
220	0xbf290cb6	-0.6603502
221	0xbe6db33b	-0.23212902
222	0xbe80c932	-0.251535
223	0xbe4d837b	-0.20069687
224	0xbeacaeb4	-0.33727038
225	0xbe9b6180	-0.30347824
226	0xbf3f46c4	-0.74717355
227	0x3f0f38ce	0.5594605
228	0xbd1bd8b5	-0.038048465
229	0xbdeda429	-0.11603577
230	0x3e096801	0.1341858
231	0xbeb2b5c5	-0.34904304
232	0x3e6be104	0.23035055
233	0xbf60f907	-0.87879986
234	0xbea789c2	-0.32722288
235	0x3f4797a8	0.77965784
236	0xbee62ed3	-0.449576
237	0x3dbbdf06	0.09173398
238	0xbec2ad9a	-0.38023072
239	0xbe81ec2c	-0.25375497
240	0xbed2e885	-0.41193023
241	0xbe36fc30	-0.1786964
242	0xbda93855	-0.082626976
243	0x3f7884ad	0.9707745
244	0xbe567a58	-0.20945108
245	0xbeff4e29	-0.4986432
246	0x3ee72a84	0.45149624
247	0xbf630137	-0.8867373
248	0x3f092e06	0.5358585
249	0x3e40cf7f	0.18829153
250	0xbdc392aa	-0.09549458
251	0x3f057fe0	0.52148247
252	0xbd77d59c	-0.06050645
253	0xbf5a4780	-0.8526535
254	0xbe4198a2	-0.18905881
255	0xbd6c86cd	-0.057745744

model.3.bias f4 [64]
0	0xbf499466	-0.78742063
1	0xbf1459f8	-0.5794978
2	0xbea3dc53	-0.32004032
3	0xbe0a7867	-0.13522492
4	0xbe485b78	-0.19566143
5	0xbe7ea936	-0.24869236
6	0xbd695724	-0.05696787
7	0x3d49c6d2	0.049261875
8	0xbf168a55	-0.5880483
9	0xbe9a0c3f	-0.30087468
10	0xbf2a9478	-0.66632795
11	0xbdca187d	-0.09867952
12	0xbe955cce	-0.29172367
13	0xbe2d3e92	-0.169184
14	0xbd1e4dc9	-0.0386484
15	0xbe404b2f	-0.1877868
16	0xbeeff514	-0.46866667
17	0xbdd76a62	-0.10518338
18	0xbeb559b7	-0.3542001
19	0xbe64165e	-0.22274157
20	0xbf0f6498	-0.5601287
21	0xbf1844b1	-0.59479815
22	0xbdb3f381	-0.08786679
23	0xbf395125	-0.7238944
24	0xbe1cc2f2	-0.1530874
25	0xbf8f2dbf	-1.1185836
26	0xbd6ba570	-0.05753082
27	0xbf18d5c5	-0.59701186
28	0xbdf652cf	-0.12027513
29	0xbdccd60f	-0.10001766
30	0x3e85bef8	0.2612226
31	0xbebfcd2c	-0.3746122
32	0xbeae9a54	-0.34102118
33	0xbe4d637f	-0.20057486
34	0xbef038fb	-0.46918473
35	0xbf113fcf	-0.5673799
36	0xbeb973d3	-0.3622118
37	0xbf96182a	-1.1726124
38	0xbe48690c	-0.19571322
39	0xbf38020c	-0.71878123
40	0xbcf4454c	-0.0298182
41	0xbf026378	-0.5093303
42	0xbf130124	-0.57423615
43	0xbdc9482d	-0.098282196
44	0xbe706f50	-0.23479962
45	0xbf058926	-0.52162397
46	0xbf2fc1c6	-0.6865505
47	0xbe9bc58a	-0.30424148
48	0xbec2154e	-0.3790688
49	0xbf6bc426	-0.92096174
50	0xbdb4dfc6	-0.08831744
51	0xbf00c230	-0.50296307
52	0xbef88635	-0.48539892
53	0xbf32ab8f	-0.6979303
54	0xbd8ec0a1	-0.06970335
55	0xbf1752c8	-0.5911069
56	0x3d1b4985	0.03791191
57	0xbe9240af	-0.28564975
58	0xbe01339e	-0.12617347
59	0xbf2a6029	-0.6655298
60	0xbf7dcd64	-0.99141526
61	0xbed596e4	-0.41716683
62	0xbf0c1c10	-0.5473032
63	0xbdaca156	-0.0842921

model.5.weight f4 [32, 64]
0	0xbf33e31d	-0.7026842
1	0xbf4101ee	-0.7539357
2	0xbcd8200d	-0.02638247
3	0xbf11277d	-0.5670088
4	0xbeee3827	-0.46527216
5	0xbf7e5a38	-0.9935641
6	0x3ec2f0f9	0.38074473
7	0x3ed65edc	0.41869247
8	0xbf278439	-0.6543613
9	0x3bf4a014	0.007465372
10	0x3d8c984b	0.06864985
11	0xbf6fcb91	-0.9366999
12	0x3bfe7843	0.007765801
13	0xbdeae978	-0.11470312
14	0xbc8559d3	-0.016278183
15	0xbf48951d	-0.7835253
16	0xbee77d9e	-0.45213026
17	0xbbf8265b	-0.0075729317
18	0xbe2f8480	-0.17140388
19	0xbf373689	-0.7156759
20	0xbdd6a157	-0.10479992
21	0xbec178e7	-0.37787554
22	0xbfb3efb7	-1.405753
23	0xbed19957	-0.40937302
24	0xbe2361b9	-0.15955247
25	0x3ee288e1	0.44245055
26	0xbf1bef7a	-0.6091229
27	0x3d1e8d77	0.03870913
28	0xbf04048a	-0.51569426
29	0xbd5fcb75	-0.05463739
30	0xbf4081b1	-0.75197893
31	0xbe6b59e0	-0.22983503
32	0x3e8b9db4	0.27268755
33	0xbf5b8d88	-0.85762835
34	0xbf30e2ee	-0.6909627
35	0x3e8c9676	0.27458543
36	0x3e1c97ce	0.15292284
37	0x3c4e57e6	0.012594199
38	0x3d5b90d9	0.053604934
39	0x3e0705a6	0.13185748
40	0x3e8b6da7	0.27232096
41	0xbf6b7245	-0.91971236
42	0x3e70f705	0.2353173
43	0xbee9e9e2	-0.4568625
44	0x3e321f64	0.17394787
45	0xbeb23f85	-0.34814087
46	0x3ea14116	0.3149497
47	0x3ee83d8a	0.4535945
48	0xbc1104bb	-0.0088512255
49	0xbe289677	-0.16463648
50	0xbf865924	-1.0495954
51	0x3ed81222	0.42201334
52	0xbe9e49d6	-0.30915707
53	0xbf5be0cc	-0.8588989
54	0x3f52e170	0.8237524
55	0xbf5501ca	-0.83205855
56	0xbcbd82bd	-0.02313363
57	0x3e0becbd	0.13664527
58	0xbe8f2f32	-0.27965695
59	0x3e84bc85	0.2592508
60	0x3eb58a22	0.3545695
61	0xbe823b17	-0.25435707
62	0x3e6b7759	0.22994746
63	0x3e46afa2	0.19402936
64	0xbed09430	-0.40738058
65	0xbdc55602	-0.09635545
66	0x3e8f3884	0.27972806
67	0xbfd52cba	-1.6654274
68	0xbe879bb2	-0.26485974
69	0x3d51740d	0.051136065
70	0xbf3fccc2	-0.7492181
71	0xbf18f39d	-0.59746724
72	0xbe925a6d	-0.28584614
73	0x3f139822	0.5765401
74	0x3ed9876a	0.42486125
75	0xbecbd2a0	-0.39809132
76	0xbd088257	-0.033327427
77	0xbec5f586	-0.38663882
78	0xbea3479a	-0.31890565
79	0x3e3baa7d	0.18326755
80	0xbf767d16	-0.96284616
81	0x392a8fb7	0.00016266001
82	0x3e143eec	0.14477128
83	0xbf45a23f	-0.7720069
84	0xbf1915a7	-0.59798664
85	0x3f7d14d6	0.9885992
86	0x3ed0d169	0.40784767
87	0x3cdcb03e	0.026939508
88	0x3f5ef2e5	0.8708938
89	0xbd6b29ae	-0.057412796
90	0x3da9973e	0.082808
91	0x3d8cdb97	0.06877821
92	0xbe925fcb	-0.2858871
93	0xbf26140f	-0.64874357
94	0xbe53f1e5	-0.20697744
95	0xbf03bc43	-0.5145914
96	0xbd234b88	-0.039866954
97	0xbe54b63f	-0.20772646
98	0xbf38f83c	-0.72253776
99	0x3f6fec4a	0.93719923
100	0x3b77ab07	0.003779115
101	0x3e813ddd	0.2524251
102	0xbe60ce2b	-0.21953647
103	0xbe83251b	-0.25614247
104	0xbf94c8e4	-1.1623807
105	0x3e84c19c	0.25928962
106	0x3d2e5f26	0.04257121
107	0x3f32c6e9	0.6983476
108	0xbfacf7c3	-1.3513111
109	0x3facef0a	1.3510449
110	0xbe8adaa9	-0.2711995
111	0x3ce7ac11	0.02828029
112	0xbe549cd1	-0.20762946
113	0x3df8b8ba	0.12144609
114	0x3e334bc1	0.17509367
115	0xbec6c602	-0.38822943
116	0xbee51035	-0.44738927
117	0xbf109208	-0.56472826
118	0xbe4db5c2	-0.20088866
119	0xbe23dbe5	-0.16001852
120	0xbe3585b2	-0.17726782
121	0x3e8213dd	0.2540578
122	0x3e328369	0.17432941
123	0xbf0630e4	-0.5241835
124	0x3ed6b953	0.41938266
125	0xbf35dfc8	-0.7104459
126	0xbda7a22e	-0.0818523
127	0x3d9bef8a	0.07614048
128	0x3e532ef0	0.20623374
129	0xbf8c9a4d	-1.0984589
130	0x3d6d2b8d	0.05790286
131	0x3e0cc479	0.13746823
132	0xbe7bda64	-0.24595028
133	0xbd26421f	-0.0405904
134	0xbe12612b	-0.14294879
135	0xbfcc9022	-1.5981486
136	0x3e585c35	0.21128924
137	0x3e0af825	0.13571222
138	0x3ebd8c71	0.3702121
139	0xbdfff511	-0.124979146
140	0xbe8c7acf	-0.27437446
141	0xbf94afd5	-1.161616
142	0xbe878ef8	-0.26476264
143	0xbeb6952c	-0.35660684
144	0x3d90aa8e	0.07063781
145	0x3f34c50b	0.70613164
146	0xbd61f6a3	-0.05516685
147	0xbea72cb5	-0.32651296
148	0x3e77eca8	0.24211371
149	0xbe6a2c2d	-0.22868414
150	0x3e820b55	0.2539927
151	0x3e311bd2	0.17295769
152	0xbd87a0fd	-0.06622503
153	0xbe72def1	-0.23717858
154	0x3f6ae6e0	0.9175854
155	0x3ea5ab99	0.3235748
156	0x3e6e5a9b	0.2327675
157	0x3f230634	0.6368134
158	0xbe8304f0	-0.25589705
159	0x3f98e1f3	1.1943954
160	0xbe808ad7	-0.25105926
161	0xbe16adad	-0.1471469
162	0xbe47ba9c	-0.1950478
163	0xbf82a462	-1.0206416
164	0x3e9d13ed	0.30679265
165	0x3e19e9ac	0.15030545
166	0x3e6c4071	0.23071457
167	0xbdf20e53	-0.118191384
168	0x3f01f69a	0.5076691
169	0x3e8c3ebc	0.27391613
170	0x3d74d1c8	0.059770375
171	0x3e4773c7	0.1947776
172	0x3ec90b5f	0.39266488
173	0xbdfa77b7	-0.12229865
174	0x3f8325db	1.0245928
175	0x3f81c641	1.0138627
176	0xbfb1036f	-1.3829173
177	0xbd1837f6	-0.037162744
178	0xbf51c2db	-0.8193795
179	0xbe7c3e50	-0.24633145
180	0x3e08cc92	0.13359287
181	0x3eb5fc11	0.35543874
182	0xbe90e80f	-0.28302047
183	0x3e413b65	0.18870313
184	0xbe68c293	-0.22730474
185	0xbe2b8c9f	-0.16752861
186	0x3e2df42f	0.1698768
187	0xbe8935d1	-0.2679887
188	0x3f2a04dd	0.6641367
189	0x3eeb852e	0.46000046
190	0xbdfd37e1	-0.12364174
191	0xbef5b590	-0.47990084
192	0x3ea1416c	0.31495225
193	0x3ee51809	0.447449
194	0x3b753194	0.0037413584
195	0xbdbd6d7b	-0.09249397
196	0x3db38be8	0.087669194
197	0x3e0a3e34	0.13500291
198	0x3f0a3812	0.53991807
199	0xbf37a0ec	-0.7172992
200	0x3edd3c6b	0.43210158
201	0xbf39723f	-0.7243995
202	0xbe384fed	-0.1799924
203	0x3ea4e068	0.32202458
204	0xbe8f9ebc	-0.28050792
205	0xbdfdb725	-0.12388448
206	0xbeaa89ee	-0.33308357
207	0xbe8ae3fa	-0.27127057
208	0xbeb2ec14	-0.34945738
209	0xbeb315ba	-0.34977514
210	0x3f5e14a7	0.8675026
211	0x3e6aa423	0.22914176
212	0xbefe09b2	-0.49616772
213	0xbe5a2a8a	-0.2130529
214	0x3e3f78b3	0.18698387
215	0xbd2e3582	-0.042531498
216	0x3d3c596b	0.045983713
217	0xbf502737	-0.8130984
218	0xbfb62afb	-1.4231867
219	0x3f03aefc	0.5143888
220	0xbf5a64ef	-0.8531026
221	0xbe653436	-0.22383198
222	0xbe37ff4f	-0.17968486
223	0xbf645262	-0.89188206
224	0x3d24b797	0.040214147
225	0xbd111c6a	-0.03542749
226	0xbf3ea2fb	-0.7446744
227	0xbf12b9d9	-0.5731483
228	0xbe339b06	-0.17539605
229	0xbd64b7f9	-0.055839512
230	0xbf80fdaa	-1.0077412
231	0x3e6e0eda	0.23247853
232	0xbed49ada	-0.41524392
233	0xbef4f312	-0.47841698
234	0xbf5d5c80	-0.8646927
235	0xbec71e73	-0.38890418
236	0xbe5d881a	-0.2163395
237	0x3f12947d	0.57257825
238	0xbe637529	-0.22212662
239	0xbec53407	-0.38516256
240	0x3e8cc4e4	0.27493966
241	0x3d8124a3	0.06305816
242	0x3ddc7b6d	0.10765729
243	0x3dfc685c	0.123245925
244	0x3d2124a3	0.03934158
245	0xbe54e3aa	-0.20789972
246	0x3e378a75	0.17923911
247	0x3ee356cf	0.44402167
248	0xc015fe6a	-2.3436532
249	0x3f022245	0.5083354
250	0xbd4ff84f	-0.050773915
251	0x3d9a5251	0.07535232
252	0xbe48dcc0	-0.1961546
253	0xbd421ada	-0.04738889
254	0x3e058d4e	0.13042185
255	0xbe915997	-0.28388664

model.5.bias f4 [32]
0	0xbee5cd87	-0.44883367
1	0xbeb11476	-0.34585923
2	0xbd6f81a8	-0.05847326
3	0x3e501caa	0.20323434
4	0x3d0d770c	0.03453736
5	0x3dbcfe27	0.09228163
6	0xbead565a	-0.33854944
7	0x3e488f1a	0.19585839
8	0x3df34b2f	0.118795745
9	0xbe26f5fc	-0.16304773
10	0x3d1a66da	0.037695743
11	0xbd85b14f	-0.065279596
12	0xbeeee4c6	-0.46658915
13	0xbeaad832	-0.3336807
14	0x3d576301	0.05258465
15	0xbe0ee822	-0.13955739
16	0xbe8185d6	-0.2529742
17	0xbd60baaf	-0.054865535
18	0xbeae8793	-0.3408781
19	0xbeb580a9	-0.35449722
20	0x3f04f3b5	0.5193437
21	0xbd866ddf	-0.06563925
22	0xbf27e421	-0.6558247
23	0xbe16261b	-0.14662974
24	0xbebd197d	-0.3693351
25	0xbdd15afa	-0.102224305
26	0xbc1d4e4f	-0.00960119
27	0x3bc89598	0.0061213486
28	0xbf981691	-1.1881887
29	0xbeb0653b	-0.34452233
30	0xbf1b76ca	-0.6072813
31	0xbea0e663	-0.3142577

model.7.weight f4 [16, 32]
0	0xbdcd8724	-0.10035542
1	0xbfa21499	-1.2662536
2	0xbed54c7f	-0.41659924
3	0xbf26a1a0	-0.6509037
4	0xbf32175f	-0.6956691
5	0xbea90d4f	-0.33017966
6	0xbe55e4b9	-0.20888032
7	0x3e80d959	0.25165823
8	0x3d3d5273	0.046221208
9	0xbe4b1d89	-0.19835486
10	0xbea45e9b	-0.32103428
11	0x3e0304ba	0.12794772
12	0x3f869b3c	1.0516124
13	0x3e00f2fd	0.12592693
14	0xbd8b0212	-0.06787504
15	0xbe98b3fc	-0.29824817
16	0xbd91e241	-0.07123233
17	0xbe2a76e1	-0.16646911
18	0x3e86dd11	0.26340535
19	0xbefc1425	-0.4923412
20	0x3ab579b8	0.0013845479
21	0xbf4b39cc	-0.79385066
22	0x3ec1df96	0.37865895
23	0xbf061912	-0.52382004
24	0x3e473fbf	0.19457911
25	0x3e878a5b	0.26472744
26	0xbf32ba69	-0.6981569
27	0xbf18925a	-0.59598315
28	0x3e9966db	0.29961285
29	0xbd6912c4	-0.056902662
30	0xbdfd334f	-0.12363302
31	0xbf1cddad	-0.6127575
32	0x3f34e4cd	0.7066162
33	0xbddd9d8b	-0.108210646
34	0x3f47d4b9	0.78058964
35	0xbe80279b	-0.25030217
36	0xbf0274ff	-0.5095977
37	0xbe3d79a7	-0.18503438
38	0xbf301fb3	-0.6879837
39	0xbc2c6a0b	-0.0105233295
40	0xbf411f07	-0.7543797
41	0xbf15ce09	-0.5851751
42	0xbda50cb9	-0.08059067
43	0x3ea9f8ab	0.3319753
44	0x3e8f1df2	0.27952534
45	0x3ecca696	0.39970845
46	0xbf0fc407	-0.5615849
47	0x3ecf6003	0.4050294
48	0xbf8b9cfa	-1.090728
49	0x3f1e27b3	0.61779326
50	0xbf036ea3	-0.51340693
51	0xbf14500a	-0.5793463
52	0xbe6541e0	-0.2238841
53	0xbe06a414	-0.13148528
54	0xbf12ffe3	-0.574217
55	0x3e4b5742	0.19857505
56	0xbeb8c088	-0.3608439
57	0xbf14295c	-0.5787561
58	0xbf696c23	-0.9118063
59	0x3edcba53	0.43110904
60	0xbf540369	-0.82817703
61	0xbe097d47	-0.13426696
62	0x3e6a8952	0.22903946
63	0x3e163cbf	0.1467161
64	0x3e04fe22	0.12987569
65	0xbe8857d6	-0.26629514
66	0xbec0f639	-0.37687853
67	0x3efcbe8a	0.4936412
68	0xbf2abd8f	-0.66695493
69	0xbea90226	-0.33009452
70	0xbeb3589c	-0.3502854
71	0xbf3195a3	-0.6936895
72	0x3eb7eb77	0.35921833
73	0x3ebf5b38	0.37374282
74	0xbf36e251	-0.7143908
75	0x3ee63d1e	0.44968504
76	0x3f50547b	0.81378907
77	0x3ed3ca0c	0.41365087
78	0xbe05364e	-0.13008997
79	0x3d26f7ce	0.04076367
80	0xbf04a159	-0.51808697
81	0x3f3d7cbf	0.7401847
82	0x3ecbe585	0.39823547
83	0xbe9cb637	-0.3060777
84	0x3dc001b2	0.09375323
85	0x3f095ba7	0.53655475
86	0xbf6dab0a	-0.9283911
87	0x3e159969	0.14609303
88	0xbfbe6aba	-1.487632
89	0x3d976988	0.07393175
90	0xbd51e06e	-0.051239423
91	0x3d84ae5e	0.064785704
92	0xbf4e98b5	-0.8070176
93	0x3ebc6b1d	0.3680047
94	0xbf1a0b9c	-0.60173965
95	0xbe702a9d	-0.23453756
96	0xbf09f981	-0.5389634
97	0x3f08501b	0.5324723
98	0x3f4c561e	0.79818904
99	0xbe832052	-0.25610596
100	0x3e4d46fb	0.20046608
101	0xbee69aad	-0.45039883
102	0x3f19d131	0.60084826
103	0x3ea7d94a	0.32782966
104	0x3f11274f	0.56700605
105	0xbf04bcc9	-0.51850563
106	0x3dcec4a9	0.10096104
107	0xbe3d8e8c	-0.18511409
108	0xbf293138	-0.66090727
109	0xbf7569dd	-0.9586466
110	0xbe9d6dd5	-0.30747858
111	0x3eb4086b	0.35162672
112	0x3f1116ae	0.5667523
113	0x3f36be77	0.71384376
114	0x3eee2694	0.46513808
115	0xbf5e6639	-0.8687473
116	0x3e3647ac	0.17800778
117	0x3eaa064f	0.33207938
118	0xbe290d10	-0.16508889
119	0xbfa2b842	-1.2712481
120	0xbd8c9b72	-0.06865586
121	0xbf2ae468	-0.6675477
122	0x3f237ee8	0.6386552
123	0x3eb795d2	0.3585649
124	0xbef02bd0	-0.46908426
125	0xbea7a129	-0.32740143
126	0xbf023612	-0.50863755
127	0xbef89665	-0.48552242
128	0x3e119be3	0.14219622
129	0x3f0de273	0.5542366
130	0xbe19abf2	-0.15006998
131	0x3e36c110	0.17847085
132	0xbe28f137	-0.16498266
133	0xbf18b89f	-0.5965671
134	0xbd25f0c6	-0.040512823
135	0xbde9e8de	-0.11421369
136	0x3debe4ec	0.11518273
137	0x3f5b7dc8	0.857388
138	0xbec99634	-0.39372408
139	0xbe23cecd	-0.15996857
140	0x3e8efd43	0.27927598
141	0xbd500a12	-0.050790854
142	0xbe054d0c	-0.13017672
143	0x3e5ebd6b	0.21751945
144	0xbf5d9416	-0.86554086
145	0xbe78b4ad	-0.24287672
146	0x3f303f37	0.6884646
147	0xbe57084f	-0.20999263
148	0xbee917af	-0.45525882
149	0xbf207da2	-0.626917
150	0x3e8b5364	0.2721206
151	0xbfb4c851	-1.4123632
152	0xbef42a34	-0.47688448
153	0xbee54b36	-0.44783944
154	0xbf078ab5	-0.52946025
155	0xbf740cb2	-0.9533187
156	0xbd9ec1d9	-0.07751817
157	0xbce9dc90	-0.028547555
158	0x3ed3629e	0.41286176
159	0x3e344316	0.17603716
160	0x3f19940d	0.5999153
161	0x3f3f3cc6	0.7470211
162	0xbec2fe97	-0.38084862
163	0xbeb55ee6	-0.35423964
164	0x3e63fd53	0.22264604
165	0xbf2ccd3b	-0.67500657
166	0x3f1fe432	0.62457573
167	0xbeb8befa	-0.36083204
168	0xbe83079d	-0.25591746
169	0x3ef1d180	0.47230148
170	0xbdf11bae	-0.117728576
171	0xbeb01dc6	-0.34397715
172	0x3e4ee168	0.20203173
173	0xbf09b9e2	-0.5379926
174	0xbf6cb536	-0.92464006
175	0x3e67c9ab	0.22635524
176	0x3eb56fea	0.35436946
177	0x3e94c425	0.29055896
178	0x3f1d4c2e	0.61444366
179	0xbe1a3fb4	-0.15063363
180	0xbdd20682	-0.102551475
181	0xbe5b6b6d	-0.21427698
182	0x3ee20849	0.44146946
183	0xbe67fa2c	-0.22654027
184	0x3ea36751	0.31914762
185	0xbd2ef7da	-0.04271684
186	0xbe93cfb2	-0.28869396
187	0xbfb52b89	-1.4153911
188	0x3f41e2ff	0.75736994
189	0x3e0252d7	0.12726913
190	0x3eb302a1	0.34962943
191	0xbeb71289	-0.3575633
192	0x3d7d48b1	0.061836902
193	0xbea031a0	-0.3128786
194	0xbe407397	-0.18794094
195	0x3ac760be	0.0015211327
196	0xbe175635	-0.14778979
197	0xbdfbabe6	-0.122886464
198	0xbdd3fbd3	-0.10350766
199	0xbdbfc268	-0.09363252
200	0xbf39ae4f	-0.725316
201	0xbdd3a413	-0.10334029
202	0x3eccdafb	0.4001082
203	0x3f2b317d	0.6687239
204	0xbe352b37	-0.17692266
205	0x3f7ff341	0.9998055
206	0x3f263bda	0.64935076
207	0x3dcc418b	0.09973439
208	0x3daef6ef	0.085431926
209	0xbe3c6b73	-0.18400364
210	0xbf4efc5b	-0.80853814
211	0x3f188e66	0.5959228
212	0xbf21bd6e	-0.6317967
213	0x3c34e136	0.011040023
214	0xbf48bd0d	-0.7841347
215	0x3f51e927	0.8199639
216	0x3c81834f	0.015809683
217	0x3e2069af	0.15665315
218	0xbe21e3c4	-0.15809542
219	0x3d84b9b8	0.064807355
220	0x3f036259	0.5132194
221	0x3f3ea6e9	0.74473435
222	0xbc078832	-0.008272218
223	0x3eab0d06	0.33408374
224	0x3e43fc71	0.19139268
225	0x3f741fe4	0.9536116
226	0xbf496b0d	-0.7867897
227	0x3c23cac5	0.0099970745
228	0xbe604cae	-0.21904251
229	0xbecaec8b	-0.39633593
230	0x3f85971a	1.0436738
231	0xbf723cec	-0.9462421
232	0x3e847681	0.2587166
233	0xbed3da61	-0.41377547
234	0x3e2186ea	0.15774122
235	0xbe5978ab	-0.21237437
236	0x3f3d0c95	0.73847324
237	0xbdef1d6c	-0.11675534
238	0x3d067f49	0.032836232
239	0x3f02073a	0.50792277
240	0x3dc2b9e1	0.0950811
241	0xbeb89872	-0.36053807
242	0xbd7edeed	-0.062224317
243	0x3f6156d4	0.88023114
244	0xbed344c3	-0.412634
245	0xbf5c96d2	-0.86167634
246	0x3ef149a6	0.47126502
247	0xbe44a98c	-0.19205302
248	0x3e99c0a4	0.30029786
249	0xbf3dc197	-0.7412352
250	0x3e99c1b3	0.30030593
251	0x3f241b1d	0.6410387
252	0x3f351818	0.7073989
253	0xbf383536	-0.71956193
254	0x3d814707	0.063123755
255	0xbf3a25f3	-0.72714156

model.7.bias f4 [16]
0	0xbf65a477	-0.8970408
1	0xbe4b924d	-0.19880028
2	0x3dd2954f	0.102823846
3	0x3e043fd2	0.1291497
4	0xbf151e43	-0.582493
5	0xbfa4077b	-1.2814783
6	0xbe8d2b9a	-0.27572328
7	0xbf371472	-0.7151557
8	0xbeafc0ba	-0.34326726
9	0xbe37e6b1	-0.17959096
10	0x3e147a5a	0.14499798
11	0xbe8e0714	-0.27739775
12	0x3e88cff4	0.26721156
13	0xbf287105	-0.65797454
14	0x3ed2f736	0.41204232
15	0xbdf2996b	-0.118456684

model.9.weight f4 [2, 16]
0	0x3f1fd104	0.6242831
1	0x3f03311e	0.5124682
2	0x3ec6cdf6	0.3882901
3	0xbd34e4ae	-0.0441634
4	0x3f6682ff	0.90043634
5	0xbf0225b4	-0.5083878
6	0x3f0cba86	0.5497211
7	0xbc28d79f	-0.010305314
8	0x3f388487	0.7207722
9	0x3efbf99c	0.49213874
10	0xbfa036d2	-1.251673
11	0xbf85530c	-1.0415969
12	0xbecfd84e	-0.40594715
13	0x3d6bc54d	0.057561208
14	0xbd957aa9	-0.07298786
15	0xbfa9e75c	-1.327373
16	0x3dafee8f	0.08590423
17	0x3ef977c5	0.4872419
18	0x3ee45a20	0.4460001
19	0xbf5d1e7e	-0.8637465
20	0xbe70929f	-0.23493432
21	0xbf641d1f	-0.89106935
22	0x3e6af1e7	0.22943841
23	0xbfccfb34	-1.6014161
24	0xbf809159	-1.0044357
25	0xbf95aa65	-1.1692625
26	0xbe51706a	-0.20453039
27	0x3e825a12	0.25459343
28	0x3f4b82b0	0.7949629
29	0xc025806c	-2.5859632
30	0x3fc29c94	1.5204034
31	0x3c033b25	0.008009707

model.9.bias f4 [2]
0	0x3ed5c44c	0.41751325
1	0x40039441	2.0559237
