Deep Reinforcement Learning Nanodegree/collaboration-competition/critic_agent_0.pth (torch_old, 233672 bytes, 13 tensors)

model.0.weight f4 [256, 52]
00000000: 599c 20bf dcee af3e ff53 563d a7e2 633f
00000010: e175 453f f04e 49bf d3bb 993d 49ba 623f
00000020: 0da4 10bf d9a5 ca3e da8b 9f3c 1fc8 003f
00000030: 897f fe3e 8a2e 63bf 2b3f f73c 7dba e73e
00000040: 9841 31bf d33a ef3e 1c38 543e b666 4b3e
00000050: 29ca 463e 858f 43bf 1c3d 043e 1116 533e
00000060: 976b 553f c12f eb3e 1e19 d33d c709 47be
00000070: 2c7f 2cbf 9ad9 38bf 1695 a23d 7fb8 12be
00000080: bca3 2b3f dd59 213f 08d7 c7bd b9ad f7ba
00000090: f13c 01bf 96de 70bf eb71 b43b 488a 423d
000000a0: 9b84 3d3f 3f67 0c3e 4582 96be b31e d3be
000000b0: 1857 9dbe 21c7 43bf 8418 6fbe 12c1 d7be
000000c0: d58a 5fbf 9c70 fc3e 6f2d ee3f 8e6d c0bf
000000d0: 66e1 88bd cd97 5d3f bbad 103c 0a16 23be
000000e0: fc1f ea3f f6e8 12bf 0709 d2bb 9f56 04be
000000f0: af71 383d 1b36 d23e 2951 1c3d d1be a53d
00000100: bea1 5540 85d8 d8be afa6 fa3b 180f ce3c
00000110: 5db3 463d 604c ad3d cd33 813d ad24 91be
00000120: b4d0 2540 b0e5 dc3e a03c f1bb 4524 c7be
00000130: 24f9 9bbd 9a2b 79bd 201c 2d3d b258 afbe
00000140: 838d efbf 4c07 28bf 7169 913c 09a5 91be
00000150: 2d22 efbd c693 d9be 2a9e 3d3b 1144 c4bd
00000160: fed3 58c0 e401 c4be cf20 233b 17ce cfbd
00000170: f5d4 31bd 3f21 19bf ab57 acbb e291 11bd
00000180: 49f1 28c0 e83d b33e c3ca 0cbd ad37 96bd
00000190: 8ef1 153f 8104 203e 3217 82bf ff65 b53f
000001a0: b858 c5bc 3248 813d 1118 98bc 126d df3d
000001b0: 6aa8 88bf 9bad 153f 4d61 e4bc ed47 98b9
000001c0: 4d6b aa3e 51e7 003f 9bb3 18bd 9636 ba3d
000001d0: 2112 d8bd 1e32 0d3f 726c 80bc c2c3 813d
000001e0: 6665 f83e a798 183f d746 3b3d fab1 5c3c
000001f0: 7649 fc3f aa78 043f 516e 8ebc 659f d5bd
00000200: 31a6 a6bd ca9a 65be c8df 21bd 6d99 3abd
00000210: 5dd7 7c3f b4ee 253f 64b1 a239 7a11 25bc
00000220: 5748 213e 26dd d53d e76f 0abc 9195 f2bd
00000230: 6a28 023e 8b1d e83e 5d74 8cbd eb84 b6bd
00000240: 5e9d 4b3f 9d06 c63e f34c 6fbd 7706 13be
00000250: ebd7 f3bf cefe f63e 4ae6 d33c 7b7f 5cbe
00000260: 210d 493f 8ea4 71bc 95ee 253f a2f0 883e
00000270: a41f 853f 0d8c eebe e446 a7bd 3205 ae3e
00000280: 678c bfbd 65af aabe fea6 0fbe 5918 cf3e
00000290: ae3f a53f 6d0e bebe 6e9f cb3e c1ab d13e
000002a0: baee 613e 0da1 03bf f439 a13e 2627 cb3e
000002b0: 845b 7f3f 3b2d d7be 3855 eabc 37fe 193d
000002c0: c44a 0c3f e5b6 12bf 784f 3cbd 8abb f83c
000002d0: 5918 d23e 83c1 24bf bc5e 843e 1e83 e0be
000002e0: a33b 3f3e c877 adbe 2c79 813e 8211 aabe
000002f0: 7e08 c63e 9dee 6dbf decc 1f3c 6c2e 8fbf
00000300: a028 8cbe e6ac d3be d806 2a3c aa3e 84bf
00000310: 4a3b df3e e310 92bf bb44 5bbe 7c79 c7be
00000320: c3b6 0cbf 2eec 1abf 19f3 63be 53ae b8be
00000330: 62d4 973f 996e 823e a520 d4bf 4070 d63e
00000340: edfa c23e 8511 cabe d831 3bbe 9ef4 0cbf
00000350: 2e94 aebe 313c 55be 9096 34be 42f3 0fbf
00000360: 2df4 ab3e bbcf 65bf b473 64bd c4c6 94bf
00000370: 3097 bbbe fffc 61be 5145 553d 2414 8ebf
00000380: 8f07 8a3d cb12 acbf 5748 59be bc2f b9bf
00000390: ed8c d9be 439d 89be a497 16be 8292 b3bf
000003a0: d40b babe eaf0 303f c86b 7d3d e901 3ebd
000003b0: bc0a 893e 72cb 66be bff5 1ebc 58d0 f9bd
000003c0: 345a 09be a46e 573e 306a d3bc 26d0 40be
000003d0: af4a e73e 0cab 7bbe 8fe0 31bd 886f 01be
000003e0: 51ce 0e3d 6f35 8d3e b3e0 c6bc 9d69 003e
000003f0: b079 d23e acec 91be 76d9 773d c329 b83c
-0.6273857 0.34361923 0.0523262 0.8901772 0.77132994 -0.78636074 0.07506528 0.885655
-0.5650032 0.39579657 0.019475866 0.5030536 0.49706677 -0.8874289 0.030181488 0.45259467
-0.69240713 0.46724567 0.20724529 0.198634 0.19413055 -0.7639087 0.12913936 0.20613886
0.83367294 0.4593487 0.10307525 -0.19437324 -0.6738155 -0.72207034 0.07938592 -0.14328192
0.67046714 0.63027745 -0.09757811 -0.0018896378 -0.50483614 -0.9408964 0.005506744 0.047495157
0.74030465 0.1371126 -0.29396263 -0.4123436 -0.3073051 -0.7647572 -0.23349196 -0.42139488
-0.87321216 0.49304664 1.8607615 -1.5033433 -0.06683616 0.86559755 0.008830483 -0.15926376
1.8291011 -0.5738672 -0.0064097675 -0.12923668 0.045030292 0.41056904 0.038163338 0.08093036
3.337997 -0.4235269 0.0076492648 0.025153682 0.048510898 0.08461833 0.06308708 -0.28348294
2.5908632 0.43143988 -0.0073619634 -0.3889486 -0.07615879 -0.060832597 0.04226315 -0.34247357
-1.8715061 -0.65636134 0.017750474 -0.28446224 -0.116764404 -0.42495555 0.0028933384 -0.09583295
-3.387939 -0.38282692 0.0024891382 -0.101467304 -0.043415982 -0.59816355 -0.0052594743 -0.035539515
-2.6397269 0.35008168 -0.034373056 -0.07334838 0.5857171 0.15626718 -1.0163329 1.4171752
-0.024090156 0.06312598 -0.018566163 0.109094754 -1.0676396 0.58468026 -0.027878428 -0.00029045288
0.3328499 0.5035296 -0.03728066 0.09092443 -0.10550333 0.551546 -0.01567671 0.06336166
0.4851486 0.5960793 0.045721855 0.013470167 1.9709918 0.5174662 -0.017386587 -0.10430793
-0.08137167 -0.22422329 -0.039520055 -0.045556474 0.9876612 0.6481736 0.00031031214 -0.0100749675
0.15750252 0.10442571 -0.008449531 -0.11844934 0.12710729 0.4533504 -0.06858132 -0.08912071
0.79537 0.3867692 -0.058422994 -0.14357935 -1.9050268 0.48241276 0.025866646 -0.21533005
0.7853566 -0.014748706 0.6481717 0.26746088 1.0400281 -0.46591225 -0.08167818 0.3398834
-0.093529515 -0.3333694 -0.14028546 0.40448263 1.2910058 -0.3712038 0.39770073 0.4095135
0.22063723 -0.5141762 0.31489527 0.39678305 0.99749017 -0.42026696 -0.028605089 0.037595954
0.54801583 -0.57310325 -0.045974225 0.030362863 0.410342 -0.64357775 0.25853527 -0.43850034
0.18675093 -0.33880448 0.2528776 -0.33216482 0.38678354 -0.9294222 0.009753434 -1.1186042
-0.27374744 -0.4134285 0.010377608 -1.0331624 0.4359992 -1.1411403 -0.21412937 -0.38959873
-0.5496637 -0.6051663 -0.22260703 -0.360705 1.1861689 0.25475004 -1.6572462 0.41882515
0.38082066 -0.3946649 -0.18280733 -0.55060756 -0.34097427 -0.20823742 -0.1763556 -0.56230557
0.3358473 -0.89770097 -0.055774406 -1.1623158 -0.36638784 -0.22069167 0.05206806 -1.1099896
0.06739723 -1.3443235 -0.21219002 -1.4467692 -0.4249033 -0.26877794 -0.14706284 -1.4029086
-0.3633715 0.69117606 0.061870366 -0.04638854 0.26766002 -0.22538546 -0.009702145 -0.121979415
-0.13413316 0.210383 -0.02580747 -0.18829402 0.45174167 -0.24576968 -0.043427046 -0.12640202
0.034864727 0.2757983 -0.024277067 0.12540288 0.41108465 -0.2850088 0.06051012 0.022480851

model.0.bias f4 [256]
00000000: 7b0c 54be f0ec 12bf d8fc f4bf 38d0 ccbe
00000010: ff14 0dbf 3587 f7bd 92a2 20bf 891f fdbe
00000020: 3df4 65bf 9fcd 0dbe a99d 1cbf 7288 90bd
00000030: 155b 60bf eb63 09bf af3f fbbe fda4 89bf
00000040: b5e2 0cbf 3252 8abf 4fa3 31bf 716e dabf
00000050: 6d7c d4bd 8e9d 7ebf 01ba 00bf 03c1 c8bd
00000060: 27dd 7abf 8757 06be bffb 20bf b8f8 10c0
00000070: 0bcb 69bf ac66 1bbf 07a7 33be 1ed0 94bf
00000080: 20ca 4fbf 3668 9dbf 5b9f 46be 3b9f 0dbf
00000090: d364 2dbf 2980 5dbf b347 92bf e2ef d8bf
000000a0: 3528 f8bf 254f 0fbe 965b 83bf 5a92 21bf
000000b0: f302 f7bf eced 4abf 7626 abbf cbeb aabf
000000c0: 51ca 8bbf ebed 24bf b166 33bf b521 3bbf
000000d0: e7da 92bf bbee b3be aa5a b1bd a099 13bf
000000e0: 357b 02bf 72a3 0cbf 6af9 14bf 19c1 3dbf
000000f0: adfd d0be 4143 5fbf c210 70bd 097a 09be
00000100: 3b06 6fbe 6484 c3be 6be2 8dbf 20bd 86bf
00000110: 1f96 8cbe 7479 2dbf d9a8 75be e3e8 c2be
00000120: 11a4 b9bf c23e 7d3e aab7 82bf c6c5 90bf
00000130: b1d3 30bf 4b1d 43be b3e6 39bf b739 33bf
00000140: 3ae6 673e cdcd 0ebf 6125 3cc0 47d0 70be
00000150: c924 34bf 7318 75bf a33f 83bf 4ab6 3abf
00000160: cd7c 5bbf 0595 74bf 2455 ebbe c659 2cbe
00000170: 586b 58bf 272e 38be 7d7b 05c0 618c 1bbe
00000180: 0f66 c9be 6681 0fbf 595f 19bf 6b3f d1bd
00000190: 956e debe 16c0 ca3d bb46 07bf e30b 1bc0
000001a0: fe29 8bbe 3740 d3be 43a0 61bf eeb1 5fbf
000001b0: bc75 b9bf 5565 3fbe 180b 53bf 75a8 06bf
000001c0: 30d1 33bf f062 54bf e919 cf3c 8647 24bf
000001d0: 913f 1fbf d99c 0bbf 8eca 6ebf af1b f7be
000001e0: 55f4 f0be 1f5c 26bf a894 adbf a580 2fbf
000001f0: 0445 15bf e743 53bf a89d 8abf 7ef2 94bf
00000200: b4dd e0be caf1 dbbf abce a7be 0d44 69bf
00000210: a120 8dbe e0e5 dbbe 0f8b ecbe 9b29 8dbf
00000220: 4cc8 30bf 0bd4 4dbf a14c 90be 32f3 73bf
00000230: 59e6 1dbe a2c8 e8bf ae19 39bf 1747 9cbe
00000240: a03d 44bf a90b ccbe c1a3 8bbf a5a6 d1be
00000250: 7bd1 d3be f846 c7bf 2964 b6be 148e 1bbf
00000260: 8df1 36bf 99ad 76bf 4a34 88bf a8e1 7ebd
00000270: 1172 3fbf 5fce e2bf c3b4 37bf 51a3 c4bb
00000280: 4e4d edbf a497 9fbf f49b d7be c316 8abe
00000290: 0b15 4cbf 850a 95bf 0320 bcbe b967 febe
000002a0: df33 7abf 015d c9bf 11aa ccbe c1cc e8bf
000002b0: e501 523e 83ae 69bf 6b82 89bf f1a9 e5bf
000002c0: d050 1dbe c9d9 9cbf d14f 98bf 97ce 483d
000002d0: 0280 15bf 7146 6bbe 4485 95bf 0f38 f7be
000002e0: 3a6b d9bf 3264 f2be 6f33 22bf efe7 74be
000002f0: e82d 12be b52d 30c0 f578 10be 9004 55be
00000300: 7eb1 89be 9de4 4ebf 3c1f 24bf c1c4 25c0
00000310: efb1 ddbe 4e50 c1be 9966 9fbf e4d0 d4be
00000320: ef65 71bf e919 e2be a325 0cbe 5310 17bf
00000330: 8995 99bf d26f 4cbf fa6d 0ebf f35a 86bf
00000340: c001 04c0 6236 26bf 9ffe e4be ea90 21bf
00000350: 8b63 303e 55d9 5bbf bd1f c2bf b8c3 febd
00000360: ec4e 96be 7fbf e1be 6e84 64bf 9f08 bbbf
00000370: 3f7f 9ebf a86d 3e3e 6081 d6be 4367 cebf
00000380: 0ae8 5bbf f427 7dbf e26b 46bf b5fe 1fbf
00000390: b571 d7bf a515 5d3e d1dc f7be e6f1 cabe
000003a0: 49e5 fabf 7fff 6abf b767 ccc0 a2f9 c9be
000003b0: cf99 3fbf 7a7f c6be 2d91 81bf e19a 94be
000003c0: 45bf 40bf 7e68 84bf a0df 5fbe e843 f2be
000003d0: 0ecb 4bbe e393 3fbf 3d33 13bd 5f02 9b3e
000003e0: 42b6 1cc0 bffb 4dbf cda5 f1be 6041 c73d
000003f0: f63c a8bf 25ff 19be d130 efbe 97d8 0fbf
-0.20707886 -0.5739279 -1.9139662 -0.40002608 -0.5511016 -0.120863356 -0.6274806 -0.49438122
-0.89825803 -0.1384797 -0.6117807 -0.07057275 -0.8763898 -0.5366809 -0.49072024 -1.0753475
-0.5503343 -1.0806334 -0.69389814 -1.7064954 -0.10375295 -0.9945916 -0.5028382 -0.09802439
-0.979937 -0.13119327 -0.62884134 -2.2651806 -0.91325444 -0.6070354 -0.17544185 -1.1626012
-0.81167793 -1.2297428 -0.19396727 -0.5532109 -0.6773197 -0.8652368 -1.1428131 -1.6948206
-1.938727 -0.13995035 -1.0262325 -0.6311394 -1.9297775 -0.7926929 -1.3371112 -1.3353208
-1.0921117 -0.64425534 -0.7007857 -0.7309831 -1.1473054 -0.35143074 -0.08659871 -0.5765629
-0.5096925 -0.549369 -0.58193076 -0.7412277 -0.4081854 -0.87211996 -0.05860973 -0.13425459
-0.2334222 -0.38186944 -1.1084722 -1.0526466 -0.27458283 -0.6776345 -0.23990192 -0.38068303
-1.4503194 0.24730971 -1.02123 -1.1310356 -0.69073015 -0.19054143 -0.72617644 -0.7000994
0.22646418 -0.5578278 -2.9397814 -0.23516952 -0.7036863 -0.9574043 -1.0253795 -0.729344
-0.85737306 -0.95539886 -0.45963395 -0.16831121 -0.84538794 -0.17986356 -2.0856621 -0.15190269
-0.39335677 -0.5605682 -0.59911114 -0.10217174 -0.43443742 0.09899919 -0.528423 -2.4226005
-0.27180475 -0.4125993 -0.88135165 -0.87380874 -1.4489055 -0.18690999 -0.824388 -0.52600795
-0.7024107 -0.82963467 0.02528091 -0.64171636 -0.6220637 -0.54536206 -0.93277824 -0.48263308
-0.4706141 -0.64984316 -1.3560991 -0.6855567 -0.58308434 -0.82525486 -1.0829363 -1.1636503
-0.43919146 -1.7183163 -0.32774863 -0.9111946 -0.27563956 -0.42948818 -0.46199843 -1.1028322
-0.6905563 -0.80401677 -0.28183463 -0.9529296 -0.15419902 -1.8186228 -0.7230481 -0.30522987
-0.7665653 -0.39852646 -1.0909349 -0.40947452 -0.41370758 -1.5568533 -0.3562329 -0.6076367
-0.7146233 -0.9635864 -1.0640957 -0.06222692 -0.74783427 -1.771923 -0.71760195 -0.006000914
-1.8539217 -1.2468152 -0.4211117 -0.2697049 -0.7971961 -1.1643835 -0.36743173 -0.4968851
-0.977354 -1.5731508 -0.399735 -1.8187486 0.20508535 -0.9128191 -1.0742925 -1.7942487
-0.15362859 -1.2253963 -1.1899358 0.049025144 -0.5839845 -0.2297609 -1.1681294 -0.48284957
-1.6985848 -0.47342068 -0.6335973 -0.239166 -0.14275324 -2.7527897 -0.14108641 -0.20802522
-0.26893228 -0.80817586 -0.6411016 -2.590134 -0.43299815 -0.3775658 -1.2453185 -0.4156562
-0.94296163 -0.44160393 -0.13686232 -0.59009284 -1.199876 -0.79858124 -0.5563656 -1.0496505
-2.0626068 -0.6492673 -0.4472551 -0.63111746 0.17225473 -0.858785 -1.5165936 -0.12439674
-0.29357088 -0.44091412 -0.8926457 -1.4612006 -1.2382582 0.18596518 -0.4189558 -1.6125263
-0.8590094 -0.9888909 -0.77508366 -0.6249803 -1.6831576 0.21590288 -0.48410657 -0.3963768
-1.9601222 -0.91796106 -6.3876605 -0.39448267 -0.7484407 -0.38769132 -1.0122429 -0.29024413
-0.75291854 -1.0344388 -0.2186265 -0.47317433 -0.19901678 -0.7483503 -0.035937537 0.30275247
-2.4486241 -0.8046226 -0.47196808 0.09729266 -1.3143604 -0.15038736 -0.4671693 -0.56189865

model.2.weight f4 [256]
00000000: fbd7 173f 2c6a d43f 86d0 af3f fdc1 b93e
00000010: 58d8 213f 4d8b fd3e bdd5 af3e 4105 953f
00000020: 985f 013f 1d01 553f dc89 e63e 7965 043f
00000030: 839b 9a3e 4520 a83e 8d9a b43f 16dd af3e
00000040: a072 623e b8ca 343f 907d 1a3f 67d3 2f3f
00000050: a17f 353f 5dde d93e 3d9f d43e 0330 043f
00000060: 9627 ba3f 5fde d13d 4db8 ae3e 7a31 773e
00000070: 1bbc 533f 7329 a43e 0db8 9b3e 56a0 ca3e
00000080: 846f ec3e b938 1a40 0d6b 843f 4c64 c53e
00000090: 2a69 933e 4980 1c3f 8369 853f 4445 8f3f
000000a0: dac0 0c3f 7da6 393f 0b5f 563f 9897 923e
000000b0: ce98 123f d8dc 8c3e d27f ea3e 2195 ad3e
000000c0: 3fa1 653f da7a fc3e a3c9 253f 91a3 9c3e
000000d0: fc09 343f 914b 5a3e 1e0b a33f cb5f 923e
000000e0: c495 0d3f d9e6 323f 0c1d ac3e a542 b83e
000000f0: e7ac 173f 9336 c63e 0b1b 393f c7fb f03e
00000100: 8bf1 643f b9a5 9e3e 7484 883f 3bc1 9d3e
00000110: d718 c93e ba57 ca3e e121 393e 891f 0c3f
00000120: f579 aa3f 6f7b 053f 21d2 353f 4db2 1c3f
00000130: 6240 083f 21fc 0c3f 1192 dd3e cae9 c83e
00000140: f28c 2d3f 331e f2be dac3 743f b18f 0d3f
00000150: 9a41 ed3e ad77 d33d 6fe6 933f d968 7c3e
00000160: 502f 193f e5f9 1b3f 085f 143f 6b6a 3e3e
00000170: 0ad3 db3e fc0c 983f 2129 713f 354e ad3e
00000180: 2ff5 8c3e 1d52 c53e f837 673f dbe0 023f
00000190: 5b46 f83e 563a bb3e 1216 0a3f 44d6 f03e
000001a0: ed8d b83e b01a a03e c2be b33e 294c 7b3e
000001b0: 39fc f33e a6a2 68ba 00d4 313e cb34 1c3f
000001c0: a15f a43e eacc 643d 0d29 333f f76d 903e
000001d0: 50a8 473f 731d 9d3e 5671 ce3f a629 553e
000001e0: 9e22 043f 96fa 923d ec50 603f e992 b43e
000001f0: 12b7 5c3e d345 cf3d a521 353f ec7a 573f
00000200: 6a0e 243f 3206 b13e 290c f13e 8e83 b23e
00000210: 272b e33e 3257 183f 01d9 b73e 2839 303f
00000220: 9b11 1e3f 21ae 003f f75b a63e 2f89 413e
00000230: 2ea8 773f 4ca9 603f d77d 553e c789 fa3e
00000240: f38b 6e3e e25c ec3e 208d 843e a6eb 133f
00000250: 36fc 053f 8634 493f 2dc3 c63d 5bd2 983e
00000260: 4afa 863e 69ce 873e a300 1a3f 98ae 2f3f
00000270: d7a4 d73e 4e80 1c3f 91f7 b83e ab9e 933e
00000280: 8134 713f 6c7c 593e 269c 053f 8903 a03e
00000290: c1ec 30bf 9d29 273e 3f51 9f3e 087e da3e
000002a0: 660e 453e d5d4 e93e 2762 283f bbb5 c23e
000002b0: 438f 063f ba58 cb3e 1b54 e33f 9c6e 623f
000002c0: a7fc 0d3e 4eb7 543f ef87 263f 049f 3c3f
000002d0: f971 263e 749d 683f ac18 fe3e 60dd a73e
000002e0: bf66 e03e 8f7d 253f 0bd1 983e ac6d 683e
000002f0: e49a cc3e 37de 2b3f 43c9 e33e d40c 613e
00000300: 9900 153f e978 493f 79db 963e aa84 163f
00000310: 3918 b53e d1b2 133f 622d 093f 9e71 143f
00000320: 0ac5 c83e c4a9 2b3e 3e64 073f e276 e23e
00000330: 19eb af3d eeb2 8c3e 639f b03e 57b7 033f
00000340: ae8e f53e 923c ae3e 00c8 3a3f db32 9a3e
00000350: 1945 833d d667 ea3e edf1 793f 8062 333f
00000360: 99a8 a63d bb8d ea3e aaea ab3e 0b7b 5d3e
00000370: 5f96 193f 30c9 cf3e c5ef 293f 5236 053f
00000380: e085 973e c918 e83e 0726 0c3f f9f4 103e
00000390: 5b76 663f e5c8 4d3f 1272 633e b7b0 6e3d
000003a0: 884b ea3e b629 163f 3ae6 c53f 52ad b33e
000003b0: 0f31 b73e a204 37be c6ca 113f ad82 993e
000003c0: 0b98 eb3e 1db0 2bbf 42ee 903e 9558 df3d
000003d0: 8c00 ba3d 3180 863e 6176 043f 7d95 223f
000003e0: f54d 333f 27e8 94be df02 5b3f 37a2 743f
000003f0: 8e34 e53e 4786 373f 0aae 6f3e f5a1 d73e
0.59313935 1.6594901 1.3735511 0.36280814 0.6322074 0.4952034 0.34342757 1.1642228
0.5053649 0.83204824 0.45027053 0.51717335 0.3019677 0.3283712 1.4109665 0.34348363
0.22114038 0.70621824 0.60347843 0.6868195 0.7089787 0.42552462 0.4152774 0.5163576
1.4543331 0.10247492 0.34124985 0.24139968 0.827089 0.32062873 0.30413857 0.39575452
0.4617883 2.409712 1.0345169 0.38553083 0.2879117 0.6113325 1.0422825 1.1193013
0.5498177 0.72519666 0.83738774 0.28631282 0.5726441 0.2751224 0.45800644 0.3390284
0.89699167 0.49312478 0.647608 0.3059354 0.70327735 0.21317889 1.2737768 0.2858871
0.5530665 0.69883496 0.3361591 0.35988346 0.59248203 0.38713512 0.7230689 0.4706709
0.89431065 0.3098581 1.0665421 0.30811486 0.39276764 0.39520055 0.1807933 0.5473562
1.3318468 0.5214147 0.71023756 0.61209565 0.5322324 0.5507222 0.43275502 0.39240867
0.6779319 -0.47288665 0.95611346 0.5529738 0.46339113 0.10325561 1.1554698 0.24649371
0.5983782 0.60928184 0.57957506 0.18595283 0.42934448 1.1878963 0.9420338 0.3384873
0.2753081 0.3853921 0.90319777 0.5112435 0.48491177 0.36567944 0.53939927 0.47038472
0.3604578 0.3127036 0.35106474 0.24540772 0.47653368 -0.0008874334 0.17366028 0.61018056
0.3210421 0.055859484 0.69984514 0.28208897 0.779912 0.3068653 1.6128337 0.20816669
0.5161532 0.07176702 0.87623477 0.35268334 0.21554211 0.1012074 0.7075446 0.8417194
0.64084494 0.3457504 0.4707959 0.34865993 0.4436886 0.5950805 0.35907748 0.68837214
0.61745614 0.502657 0.3249204 0.18899988 0.96740997 0.87758327 0.20848785 0.4893324
0.23295574 0.46164614 0.2588892 0.57781446 0.5233797 0.7859577 0.097051956 0.29847988
0.2636283 0.26524666 0.6015722 0.68625784 0.4211795 0.6113328 0.36126378 0.28831992
0.9422074 0.2123887 0.5219139 0.31252697 -0.6911126 0.16324468 0.31116673 0.4267428
0.19243774 0.4567019 0.6577477 0.38029274 0.5256235 0.3971613 1.7760042 0.88450027
0.1386591 0.830922 0.6505117 0.7368014 0.16254415 0.90865254 0.49628198 0.32786083
0.4382839 0.6464471 0.29846987 0.22698087 0.39961922 0.6713595 0.44489488 0.2197755
0.58204037 0.7870012 0.2946432 0.5879618 0.35370043 0.5769473 0.53584874 0.57985866
0.3921283 0.16763979 0.5288733 0.44231325 0.08589763 0.27480263 0.34496602 0.5145163
0.47960418 0.34030586 0.72961426 0.30116925 0.06409664 0.45782346 0.97634774 0.70072174
0.08137626 0.45811257 0.33577472 0.21628968 0.59995073 0.4058318 0.66381484 0.5203601
0.29594326 0.4533141 0.54745525 0.1415595 0.90024346 0.80384666 0.22211483 0.058273997
0.4576075 0.58657396 1.5460885 0.3509317 0.35779616 -0.17872861 0.5695003 0.2998251
0.46014437 -0.670656 0.28306776 0.109055676 0.090821356 0.26269677 0.5174313 0.6350935
0.7004083 -0.29083368 0.85551256 0.9556002 0.4476666 0.71689266 0.23406234 0.4211575

model.2.bias f4 [256]
00000000: 5c75 ecba 859b ca3e 9c02 17bf a680 3b3d
00000010: c1cc b23e 1b94 003e f4a9 ac3d 7912 8d3e
00000020: 051b aa3d 12e9 503e 05f6 003f a4c3 213e
00000030: 9d10 4b3d 66db 693e b4b5 9e3e 7a6d 693e
00000040: 232b 473e 1d5f b53e 2d19 a43e 0f98 403e
00000050: 1234 6a3e bb51 df3d 4a30 f73d ba2d e13d
00000060: 5f82 94be 0893 ed3d 5a6c 3c3e d410 e23c
00000070: 790e 7d3e c8c4 0f3e 33fb 993c cc74 473e
00000080: 43b3 243e 65b7 ed3d bf19 00be 7cc2 d33d
00000090: 3f85 043f 6f6d a83e af16 373e 2bf9 693e
000000a0: 9803 92be f88f 7b3e cba5 d13e 0fac f63c
000000b0: d78e 9c3e e7c6 b13d f5c1 b83d 320e a13e
000000c0: e3e6 fc3e eea2 bf3e 92d7 a23e 4cf1 003e
000000d0: d97f 293e badf bf3d b896 ab3e 5b07 983d
000000e0: 6bc7 e73d 552d 133e 363d 173d 7847 9f3d
000000f0: 396f 5d3e f46d d33c 756e 7f3e 7b41 be3d
00000100: 2d41 643e 7add 353e 2151 613e ce05 913d
00000110: f59c c43d 50cb ae3d 7245 533c 1f47 683e
00000120: 77be 423f 9439 323e 04be 813e 78da f13d
00000130: 663e 4e3e 1efe 4b3e e82c 923e 0c3b d53d
00000140: 0dd3 613e 6ade debd 9cda 92bc 5a0a 593e
00000150: c9ea 013e 12ba 0e3d 142d 413f 7fcc 513e
00000160: a30c 583e 4f79 493e 627c 4a3e 8ffd fc3c
00000170: b0c4 013e 12fc db3e 12a6 1dbe ca14 0d3e
00000180: 74ac 8a3d c5c1 2e3e 9d00 bf3e 9080 173e
00000190: b3ce d23e cf25 073e 0805 393e 9995 87bd
000001a0: a03e 6e3e f681 0a3e 21fd 003e 997c 263d
000001b0: bb39 a13e 6565 1d3b 1c49 a43d f2f3 7f3e
000001c0: 7bc4 7d3e 7bba a53d b92b d23e 304e 313c
000001d0: a607 583e b5e4 ce3e d6b7 0a3f 0de2 c03d
000001e0: ad6a 0a3e 575f 1f3c 15f4 103f 36b6 743e
000001f0: b578 113e 9dbe 6a3d 0680 a73e 6a82 043e
00000200: 3737 133e dec0 0a3e f661 4a3e fd42 e63d
00000210: 7cdc cd3d 20b9 663e 29ab 163e 0290 3e3e
00000220: ce08 813e 448d 563e 8494 4f3e 697d a03d
00000230: 8f66 a23e 20c8 03bc a80d a43c 8e13 ff3d
00000240: d4bb fb3c 4cdc a13e 733a 0e3e ba89 7d3e
00000250: 8234 e73c 3d46 883e 54bd c33d 2cd0 523e
00000260: 92fd e13d bf91 0c3e c607 9b3e 597e 823e
00000270: d2bf 9f3d a5ac 853e 885b 503d 05db 013e
00000280: d5d4 f4bd 9512 c5bc 9f3b 2b3e 2576 9a3d
00000290: d066 61be 065c 323d 3ac1 ce3d 138c b73d
000002a0: 1c3f 113b b83f 463e 39f4 4b3e 5b23 2c3e
000002b0: f5ee 1e3d 75e2 823b 9ae0 3a3f ebc6 6ebe
000002c0: aa6e 643c 03c8 8f3e c0a6 9b3e 9e4d 8c3e
000002d0: a650 013e 9210 1e3f 9a34 c03d 0c9d e73d
000002e0: 8c2c 423e 1b0c 5e3e 496c 5a3d d078 893d
000002f0: b88f 913d 7a7f 08be bc2b 443d 611b b03d
00000300: 3922 303e 74d8 ec3e ff3e e53d 6119 113e
00000310: ad5a 313e ad2b 2e3e c98c 8b3e ccce 733e
00000320: 00e7 ed3d e4d8 1c3d ec3d e13c 9747 0f3e
00000330: 51e3 263d 853a df3d d502 043e 55b2 223e
00000340: 26de 003e b7c3 ce3d 8b89 ca3e 65e1 363e
00000350: 8ea3 933d 6876 2d3e 0b4f 503e d7ee cf3d
00000360: c9f5 1e3f 8f7d 273e b54e f23d 8dec 773b
00000370: 4f72 fd3d 1f34 ec3d b6f5 8a3e 246b 903e
00000380: 0ec2 f0bd c6e4 a43d ebbf 9c3e f932 08bb
00000390: e8bc 9b3e 3aca f13e 2bdb e5be 9227 e83c
000003a0: c0fe 0b3e 42a9 f93e a413 893e 33cd 013f
000003b0: 99ff 053f a31b cd3d 7acd e73e c238 bb3d
000003c0: fc25 293e 7c50 8fbe 49c1 223e ce24 e93d
000003d0: 2283 753d 1376 f73d eb94 353e c172 073d
000003e0: a07b ffbd 9459 c1bb b9d1 7a3e 1ab4 8a3e
000003f0: ea43 783c 0738 a73e 919a b43d 3de0 273e
-0.0018040347 0.39571777 -0.58988357 0.045776986 0.3492184 0.12556498 0.084308535 0.27553156
0.08305935 0.2040141 0.50375396 0.15797287 0.04957639 0.228376 0.30998003 0.22795668
0.19450049 0.35424128 0.32050458 0.18808006 0.22871426 0.10904261 0.12069757 0.1099505
-0.29005715 0.116003096 0.18400708 0.027595915 0.24712552 0.1403991 0.018796539 0.19478148
0.16084008 0.11607245 -0.12509821 0.10339829 0.5176582 0.3289599 0.17879747 0.22848956
-0.28518367 0.24566638 0.40946802 0.03011134 0.30577728 0.08680516 0.09021369 0.31456143
0.49394903 0.37428993 0.31805092 0.12592047 0.16552676 0.09368844 0.33513427 0.07423278
0.11317333 0.14372762 0.03692361 0.077773035 0.2162446 0.025809266 0.2494448 0.09289833
0.22290488 0.17760268 0.22003604 0.07081185 0.0960025 0.085348725 0.012894975 0.2268338
0.76071876 0.17404777 0.25340283 0.11809248 0.2014099 0.19921157 0.28549886 0.10411653
0.22053166 -0.10882266 -0.017926507 0.21195355 0.1268722 0.03484542 0.7545941 0.20488165
0.2109857 0.19675182 0.19774011 0.030882625 0.12672687 0.42965752 -0.15395382 0.13777462
0.06771174 0.17066105 0.37305155 0.14795136 0.41173324 0.13198017 0.18068326 -0.0662033
0.23266077 0.13526139 0.12596561 0.04064617 0.31489357 0.0024016735 0.08021757 0.24995402
0.24781983 0.08092209 0.41048983 0.010821864 0.21096668 0.40408865 0.5418676 0.09418116
0.13517256 0.009727321 0.5662244 0.23897633 0.14206202 0.05731069 0.32714862 0.12940374
0.14376532 0.13550135 0.19763932 0.11243246 0.1005182 0.22531557 0.1471373 0.18609622
0.2520203 0.20952326 0.20271498 0.0783642 0.3171887 -0.008043319 0.020026043 0.12454902
0.030729212 0.31613386 0.13889484 0.2475957 0.02822328 0.26616088 0.09557596 0.20587224
0.11034693 0.13727473 0.30279368 0.2548702 0.07800259 0.2610828 0.05086854 0.12681206
-0.11954657 -0.024056712 0.16721962 0.075420655 -0.22011876 0.04354479 0.10095449 0.08962264
0.002216286 0.19360244 0.19917382 0.16810362 0.038802106 0.003994281 0.72998965 -0.23318069
0.0139424 0.28082284 0.30400658 0.27402967 0.12628421 0.61744034 0.09385033 0.11309251
0.18962306 0.21684305 0.053325925 0.06712496 0.0710749 -0.13329878 0.04789327 0.08598972
0.17200555 0.4625889 0.11193656 0.14169838 0.17319746 0.17008848 0.27255848 0.23809355
0.116163254 0.03829278 0.027495347 0.13992153 0.04074413 0.108998336 0.12891705 0.15888341
0.12584743 0.100959234 0.39558062 0.17859419 0.0720893 0.169397 0.20342652 0.10152977
0.6209379 0.1635649 0.118314184 0.0037830204 0.12375318 0.11533379 0.27140588 0.28206742
-0.11755763 0.080514476 0.30615172 -0.0020782335 0.30417562 0.472246 -0.44893774 0.028339181
0.13671398 0.48761946 0.26772797 0.50703734 0.52343136 0.10015037 0.45273954 0.09141685
0.16518396 -0.27991092 0.15894045 0.11383973 0.05993951 0.12083068 0.17732589 0.033068422
-0.124747515 -0.005900571 0.24494065 0.27090532 0.015152911 0.32659933 0.08818544 0.16394134

model.2.running_mean f4 [256]
00000000: 6d78 0440 4bef 0142 2035 6140 c1e9 e23f
00000010: 4dc5 9840 00d0 f83f d923 1fbf 2cd5 72bd
00000020: db7c 4a40 1777 e63d 7dcb b140 6257 543f
00000030: 3dca 223f a96e 493f b5fb 7b3f c8af 353f
00000040: 0346 1b41 00a7 4140 d3f4 383f a1aa 8b3c
00000050: ebe3 cd3f 748c ec3f 4f79 eebe e0ae 383f
00000060: 4b78 1141 69e9 a241 7fd3 a03f e0de 713e
00000070: 35e6 9340 380e 56bd a605 bb3f d08e 1cbf
00000080: e640 1cbf 769e 1942 cc80 803f 0c52 fcbe
00000090: 4d87 ea41 22f4 2e40 a5de 2140 4620 2f41
000000a0: 9e9c bc41 15c1 f53f 15a0 d840 acab 9e40
000000b0: 0fcf e040 c5ac 873f b66e afbe 5f70 1841
000000c0: df2d 8641 aa36 d83f 8166 0e40 bddc 4440
000000d0: aafd 5d40 ebc8 7cbf 26df 60be d13d 913f
000000e0: ca93 f03e 7a83 013f 52ab 7cbe 86e1 fd3f
000000f0: be9b ff3f 6902 e53d 438a eb3d 7a07 97bd
00000100: e659 e23f 5c17 913f 211a 5b40 1354 e53e
00000110: e3fe e7be dceb fabe a89e ff3f 8570 9440
00000120: bb6a d840 73da eebd 7413 8a40 ca7c 1840
00000130: 097f 4840 8907 0240 aa96 063f 4d8f 263f
00000140: c046 b53c 0668 46bf 2e12 f640 d0d1 fc3f
00000150: 9c03 52be 36dc 4541 da35 2b41 6660 1540
00000160: e266 593f 5c74 b43f b5af 803e e576 3841
00000170: 773c 9e40 8e16 f73e 7229 5c42 56b5 72be
00000180: 0803 69be 4026 ad40 cca5 3741 05df 1340
00000190: 2ddd ef40 1133 09be da0b 8340 f3e7 5140
000001a0: 77f6 0e3f 5148 0b40 8ebc 6440 9d20 0bbf
000001b0: a2dd 0141 5675 3941 91b6 2341 1756 ba40
000001c0: 17a5 0540 44dc 1f41 30c2 d33f 1183 a83f
000001d0: a835 89be 58cc 8a41 9a8f 7241 1211 8840
000001e0: 1917 ccbe d7e3 0841 48f7 0e41 cebb 7440
000001f0: eee6 ce40 5001 da40 9cc4 323f beea 1b40
00000200: 1536 593f e917 0041 d090 9bbe 6acf 3b3f
00000210: cde9 6740 17e3 4f3f 6ea4 5f40 bcd4 3d3f
00000220: f43b 623f 4e3a c13f 521d 0740 2998 1e40
00000230: 49d2 723f 29d1 4340 4873 cabe de78 60bf
00000240: b9a5 c6be d328 03bf 127e c040 c486 e33f
00000250: bf4f 19bf c302 3741 d227 2840 c74c 8440
00000260: f249 643f 4e72 d3be 7f6b 8d3e bcd6 ca3f
00000270: 65c8 943f d99b bc3f 5e58 e63e 0182 be3d
00000280: bc5d a441 ace6 9740 4929 bfbd ffa4 9cbe
00000290: b8c4 0c3f 719d 13bf 8217 6740 527b b93f
000002a0: a9f4 4441 8a9a f33f 6a3b 1a3f 1cb3 d140
000002b0: 58d6 0040 d117 29bf 500a 5c3f 93a9 f640
000002c0: 6084 e240 0c9e 533f fa47 b840 88ee b83f
000002d0: 96a7 d93f 993e 0741 e590 e540 80fa 7441
000002e0: 2f82 813f ef6c 873e 4d6d 053d 6fe2 7e3f
000002f0: 4daf bbbe 3d9a 743f 9a0a af3f 2c32 06bf
00000300: 385f b93f 78c8 f240 f7d2 9e40 cdca b9be
00000310: bc3a 9e40 5ac7 0f3f c5d4 be40 464b d93f
00000320: cfe9 2840 9fde 1e3f 7bcc 313f 6c7d 0140
00000330: 8782 acbe 2fb4 5540 9c1d e3be 1f6c 6e3f
00000340: e526 3040 468f f83e 36b6 d73e d3a3 b2be
00000350: fb61 4d40 6403 f73f 201d 5a3f e2e7 a4be
00000360: 0aff 1642 7899 de40 a9e1 13bf 5740 b040
00000370: 91c7 cabe 3066 823e b96e 353f 2f9c d040
00000380: a299 a440 6f52 eb40 cbc8 9940 7ab7 3c41
00000390: d495 b540 309e be40 3156 e240 2906 33bf
000003a0: d18a b4be 1fc0 3741 0898 2442 c649 d740
000003b0: 74b2 6340 02f4 443f a812 1641 e36b 0d40
000003c0: 9665 503f 1395 6940 b4d3 7540 5b42 dfbe
000003d0: 4676 c93d cf65 f2be 1611 753e 7502 bb3f
000003e0: 5191 0f41 9d97 a43f 93e8 c040 20a7 c43f
000003f0: 3f8c f43e b9a2 183f 9b9e 933f 520b 97be
2.0698502 32.483685 3.5188675 1.7727586 4.7740846 1.9438477 -0.62164074 -0.059285328
3.1638706 0.11253183 5.55609 0.82945836 0.6358984 0.7868448 0.9843095 0.70971346
9.704593 3.0258179 0.7224857 0.017049136 1.608518 1.8480363 -0.46576926 0.7214184
9.091868 20.36397 1.2564543 0.23620176 4.6218514 -0.052259654 1.4611099 -0.61155415
-0.6103653 38.404747 1.0039306 -0.49281347 29.316065 2.7336507 2.5292141 10.945379
23.576473 1.9199549 6.7695413 4.958456 7.0252757 1.05996 -0.34264153 9.527434
16.772398 1.6891682 2.2250063 3.0759728 3.4686074 -0.98744076 -0.21960124 1.134699
0.46987754 0.5059124 -0.24674729 1.9834449 1.9969404 0.111821 0.11500981 -0.07374473
1.7683685 1.1335254 3.4234698 0.44790706 -0.4531165 -0.4900807 1.9970293 4.6387353
6.7630286 -0.1166276 4.3148746 2.3826165 3.1327536 2.03171 0.52573645 0.6506241
0.022128463 -0.7750248 7.689719 1.975153 -0.2050919 12.366262 10.700647 2.3340087
0.8492261 1.409801 0.25134054 11.529027 4.944881 0.48259395 55.040474 -0.23701987
-0.22755063 5.410919 11.477978 2.310487 7.495749 -0.13398387 4.0951967 3.279782
0.55844826 2.1762888 3.5740085 -0.5434664 8.11661 11.591146 10.232072 5.823009
2.0882013 9.991276 1.6543636 1.3164998 -0.2679875 17.349777 15.160059 4.252084
-0.39861372 8.555625 8.935371 3.8239627 6.4656897 6.81266 0.6983125 2.4362025
0.8484815 8.005837 -0.3038392 0.73363364 3.623645 0.81205887 3.494411 0.7415273
0.8837273 1.5095918 2.1111646 2.478037 0.9485212 3.0596411 -0.39541078 -0.8768443
-0.3879831 -0.5123417 6.0153894 1.7775502 -0.5988731 11.438174 2.6274304 4.134372
0.8917533 -0.41298145 0.27621076 1.5846782 1.1623656 1.4735061 0.44989294 0.0930214
20.545769 4.746908 -0.093340464 -0.30594632 0.5498767 -0.5766211 3.6108098 1.4490759
12.3097315 1.9031537 0.6024691 6.553114 2.0130825 -0.66051966 0.85953236 7.7082
7.078659 0.82663035 5.758786 1.4447794 1.7004268 8.452783 7.1739373 15.311157
1.0117854 0.26450297 0.03257494 0.9956426 -0.3665718 0.9554785 1.367511 -0.52420306
1.4482183 7.5869713 4.9632525 -0.36287537 4.9446697 0.5616356 5.963473 1.6976097
2.6392705 0.6205844 0.6945264 2.0232801 -0.33693334 3.3391225 -0.44358528 0.9313373
2.752374 0.4854681 0.42131203 -0.34890613 3.2091053 1.929791 0.8520069 -0.32208163
37.74906 6.956234 -0.57766205 5.507854 -0.39605382 0.25468588 0.70872074 6.5190654
5.143754 7.3538127 4.805761 11.794794 5.6745396 5.95681 7.0730214 -0.69931275
-0.3526216 11.484405 41.148468 6.7277555 3.557767 0.76934826 9.379555 2.20971
0.8140501 3.6497238 3.8410463 -0.43605313 0.09837012 -0.473433 0.23932299 1.4610125
8.972978 1.2858769 6.0283904 1.5363503 0.4776325 0.59623295 1.1532778 -0.29500824

model.2.running_var f4 [256]
00000000: 65ab 5c42 5767 f444 ce86 0f42 4d67 a042
00000010: e461 0043 ebc3 0f42 7225 be40 8325 4041
00000020: 5298 9942 902b 8941 9a01 9f42 e4b3 0642
00000030: e263 4c42 c439 6742 c315 3242 1415 ca41
00000040: adea ad43 9dd6 7a42 e962 0942 6518 6941
00000050: 094b 8942 0a1e 1b42 2297 d640 b09f a241
00000060: 230d 1f42 0fe5 8a44 f0fc 4942 8167 ab41
00000070: 369e dd42 5998 5a41 d1ea 3e42 7712 8340
00000080: 49c7 8c40 a2b5 2f45 eee3 f741 09b1 df40
00000090: 0e12 4944 cab5 8042 c28f 1542 886e 4b43
000000a0: 90d9 5b43 f188 8242 1897 4843 4047 2d43
000000b0: 678b 3543 af86 2242 bf49 0041 5ada c742
000000c0: 52dc d842 1ec2 1a42 cdad 3d42 8311 7842
000000d0: 36ed 9c42 9965 5d3d edae 2641 aef6 4342
000000e0: 9101 0b42 15e0 0042 3a32 3b41 f22a 8f42
000000f0: 9d9e 8642 6ecd ca41 1bf6 5741 99cc 8941
00000100: 4fa3 8242 cb64 0f42 b517 9842 5174 d841
00000110: dc14 1141 fd5d d140 79a0 5242 456f e142
00000120: f289 0b43 ce13 7141 e256 1443 e445 8f42
00000130: 86cd 8e42 0670 7e42 a31f 7f41 db75 0642
00000140: b936 7341 160b 1240 f54a ad42 5388 3242
00000150: 2cb8 7041 e1b2 e843 f430 9b42 3cb0 9a42
00000160: b7dc 2a42 bd2d 2342 7324 a041 2874 0044
00000170: 1565 ef42 9113 0242 654b b043 b3cc 4141
00000180: fbb1 1e41 b4eb 6743 497f 9143 d116 c342
00000190: 7b21 5043 de41 5741 b91f e842 a60d 3a42
000001a0: c298 c141 84da 8742 a84f 7042 7988 ab40
000001b0: a04e 0243 7133 e043 96e3 8043 c3df 0e43
000001c0: 88f6 8142 9347 8b43 a9c1 fb41 5ba8 5642
000001d0: 3e82 6041 6a98 e843 0964 bc42 cee4 1f43
000001e0: 482c 2341 3d5b c343 43f1 3643 ea44 b042
000001f0: 8cf7 8943 3733 6143 4a66 0342 fd12 8442
00000200: c947 6c42 addf 6643 c523 2541 e404 0b42
00000210: f5e8 e242 29c9 3b42 fa69 0b43 ab4d 3542
00000220: 92e1 b641 9e7a 0a42 31cd 9c42 5b3d 8342
00000230: d356 3142 81aa e841 cfec 0341 c17b 913f
00000240: c6c7 3241 3011 b240 ba75 5943 8e0f 0642
00000250: 12d4 ce40 40e1 8943 65dc c642 d51a da42
00000260: a667 2b42 fecc c940 548f 6541 a6f0 6842
00000270: a167 2842 efc4 0e42 6962 a941 d020 bc41
00000280: a6b0 4344 87a2 4943 f872 6841 fd68 3741
00000290: cc32 1642 7798 d340 5add e942 8a95 0242
000002a0: 1e74 a443 c21f 2442 9805 a641 2d78 2343
000002b0: b082 3c42 e068 9140 8a82 1542 3af9 b842
000002c0: 88fb 1f43 fd78 0042 6d7c 1f43 2c30 3342
000002d0: 7646 9342 350f 7043 3b4c 1f43 f085 c843
000002e0: a133 b441 cc13 3a41 6b6a c641 e403 4442
000002f0: 0632 2041 a7dd 0042 3cd6 3f42 249a fa40
00000300: a950 8c42 01d0 3b43 3042 0a43 aa6c a740
00000310: 14f9 eb42 327d cb41 49b6 fa42 7bee 5242
00000320: 5e5e 7642 67bc 0e42 a774 8c41 c54d 8d42
00000330: 87e9 4341 0849 c542 f4c7 0b41 a500 5f42
00000340: 0e3d 7542 5097 1642 4381 7741 af75 2f41
00000350: 9340 0043 8af6 2742 3239 d641 9d89 b740
00000360: 3642 9444 ba14 3943 d3ea be40 2bf9 0643
00000370: 19d8 1d41 0a74 a241 a279 1242 8f32 4443
00000380: 6778 1a43 3156 1a43 df52 af42 433d b643
00000390: 4ea7 b442 0a9a 6442 8cc6 a743 48fc 5740
000003a0: fcdb e740 841c 0d43 2548 7043 3244 2843
000003b0: 4bcc f342 9e3e 1b42 69b1 5443 471a 7742
000003c0: 7eb7 0042 1239 e642 8771 fe42 3222 0e41
000003d0: 873c bb41 c0a1 0941 ba5e a341 023c b041
000003e0: 12e8 3b43 6afe 3242 e199 5a43 3e71 1d42
000003f0: a39b d641 23bc a041 055b c941 7877 3041
55.167377 1955.2294 35.881645 80.20176 128.38239 35.941326 5.942071 12.009158
76.7975 17.14627 79.50313 33.675674 51.09754 57.80641 44.52125 25.260292
347.8334 62.709583 34.346592 14.568456 68.64655 38.779335 6.705949 20.327972
39.76283 1111.1581 50.49701 21.425539 110.809006 13.662194 47.729313 4.096004
4.399327 2811.352 30.986294 6.9903607 804.2821 64.35506 37.39039 203.43176
219.84985 65.26746 200.59021 173.27832 181.54454 40.631527 8.018004 99.92647
108.43031 38.689568 47.419727 62.0171 78.4633 0.05405197 10.4177065 48.9909
34.75153 32.21883 11.699762 71.58388 67.30979 25.350307 13.497584 17.224901
65.31896 35.84843 76.0463 27.056795 9.067593 6.542723 52.65671 112.71732
139.53885 15.067335 148.33939 71.636505 71.40141 63.609398 15.945224 33.615093
15.20086 2.2819266 86.6464 44.63313 15.044964 465.3975 77.59561 77.34421
42.71554 40.794666 20.017797 513.81494 119.697426 32.519108 352.58902 12.112475
9.918452 231.92072 290.99442 97.54456 208.13078 13.453581 116.06196 46.51333
24.199589 67.92679 60.07779 5.3604093 130.30713 448.4019 257.778 142.87407
64.98151 278.55917 31.46956 53.66441 14.031797 465.19073 94.19538 159.89377
10.198311 390.7128 182.94243 88.1346 275.93396 225.20006 32.84989 66.03709
59.070103 230.87373 10.321233 34.754776 113.454994 46.946445 139.41397 45.325848
22.860142 34.619743 78.400764 65.619835 44.33479 29.083254 8.245315 1.1365892
11.173773 5.564598 217.45987 33.51519 6.4633875 275.75977 99.43046 109.05241
42.85122 6.3062735 14.347492 58.23501 42.1012 35.692318 21.173052 23.516022
782.76013 201.63487 14.528069 11.463132 37.549606 6.6123614 116.93233 32.646034
328.90717 41.031013 20.752731 163.46944 47.127625 4.544052 37.37748 92.48677
159.98254 32.118153 159.48604 44.797043 73.63762 240.0594 159.29778 401.0464
22.52521 11.629833 24.801962 49.0038 10.012213 32.216457 47.959213 7.831316
70.15754 187.81252 138.25854 5.2320147 117.98648 25.43613 125.356026 52.73289
61.592155 35.683987 17.55696 70.65189 12.2445135 98.64264 8.736317 55.75063
61.309624 37.647766 15.469058 10.966231 128.25224 41.99076 26.777927 5.7355485
1186.0691 185.08096 5.966165 134.97331 9.865258 20.30666 36.618782 196.1975
154.47032 154.33669 87.66186 364.4786 90.32677 57.15043 335.55115 3.374773
7.2456036 141.11139 240.28181 168.26639 121.89901 38.81115 212.69301 61.77566
32.17919 115.111465 127.22173 8.883348 23.404554 8.60199 20.421253 22.0293
187.90652 44.74845 218.60109 39.360588 26.825994 20.091864 25.169443 11.029167

model.3.weight f4 [128, 256]
00000000: b283 053f 7a0a c53f 6db9 133f fa1b b83c
00000010: 642d 5b3e 5acf 7a3e 2199 a1be 31d6 083f
00000020: d1f7 303e d83d 043d 1f2e 3cbc 490a 653f
00000030: a26f 95bd 1a59 a1be 441d ff3e 8e0f 7fbd
00000040: d3f3 803e ea27 aa3d 8caf a3be f656 093f
00000050: df9a 9fbd 693e 803e 465d d6be 04b6 b23d
00000060: 6d69 b33e f812 d53d 60d6 7bbf 97eb 623e
00000070: 146e 7dbf ef41 0fbe 7bf3 68bd 26e1 eebc
00000080: c53a e2be 430b c0bf 14a8 43bd 1882 96bd
00000090: a390 32be 023f 75bd 781d 053f 8824 0e3f
000000a0: c4a9 d03e d550 77bd 0821 963e ed89 a4bd
000000b0: 1ecf ff3c 405e 84bc b43a 05bd 0fd0 333e
000000c0: b225 33be d3cf 673e 25f3 dcbe 765a 98be
000000d0: 10fa a2be f39e 263f 060e 133f 8e29 8fbf
000000e0: 829a dd3e 18f7 1cbf 07c3 dd3d 9baa 3cbe
000000f0: a5d9 36be 6532 463d 60c2 bbbe a2dd 333e
00000100: ab82 37bf de32 ebbd 7bac cc3e 8b8c a3bd
00000110: a933 63bc 1750 c7be 3837 ab3e 9f8e cfbd
00000120: e57f 88bd 8b50 8a3e dff8 f2be 8e10 9bbe
00000130: 555d 023e f585 33bf 74f0 a1bd 24da dfbe
00000140: 95aa 033f d5cf a13e 2085 e43e 0f0e 663e
00000150: 9067 303f 1085 1a3e 1334 34be 2ba2 46bd
00000160: b9a1 8ebe a461 243d bcb7 0a3f 4974 3d3f
00000170: b175 e23e 8f51 d9be 3e86 103f dddb cabd
00000180: 8f67 3dbf 3ad7 16be 63cc 3a3e 02f9 ce3d
00000190: 2fe0 e0be 77c4 2fbf c97c debd cffb 54be
000001a0: f019 d6be 43d1 863d ac3d d03c b2a5 e3be
000001b0: 1369 873e a923 1abb 4dca 1f3d 9854 653c
000001c0: 891e 3fbe aed1 b9be ad42 02be 5c61 3bbe
000001d0: 4ded 223e 5fa9 fdbe 7437 24be b2b4 18bd
000001e0: 605f 3cbf a060 823e c499 e6bd 7081 f6be
000001f0: c7bf 8bbe 6196 6dbe 47dd 123e 0811 cbbe
00000200: d360 53bf 228f afbe edf3 46be 786c 59be
00000210: 400a 84be 27cc 1c3e 33e0 ce3e 28c3 07be
00000220: e3f8 5ebe c59b 50bf 471d 5fbe 817a 043d
00000230: edc4 1b3e dde0 9f3d 6794 503e f09a 25be
00000240: 5f70 f1bd f75b 01bd a963 6cbe 1583 60be
00000250: 0f19 853e 05f8 bc3d 9a94 603d 39b6 19be
00000260: cafc 69be 9dc3 4d3d b717 bb3d 5121 0f3e
00000270: 618f 0cbf f442 093f a7ae 9a3e 0aac ec3e
00000280: 4933 983e 65fe 863e fbca 47bf 42a7 09bd
00000290: f947 ec3d 3b52 803d c865 d5be 61cd 103d
000002a0: 2b7b bbbd c794 453e 7249 8dbf b4b5 5cbe
000002b0: 89c2 77be b1cf c83e 9ea2 913e 8997 293f
000002c0: a4f5 2f3e 154c ec3e 6180 b1be 2687 a1bd
000002d0: ffbc 0bbe 9b33 12be de93 bd3d 8fdb 5d3e
000002e0: 7830 2c3d 27c8 4d3d 8249 cebe 8702 30bf
000002f0: e77b 9bbe 8b1c 08be f830 cebe 9e4c 85bd
00000300: a70a d13e fe43 ea3d 4a8e cdbd 4544 2d3f
00000310: a398 833e 1f1f 36bf c430 91be 9f62 513d
00000320: 4a71 0a3e da13 473e 17dc 91be 7219 aebe
00000330: 458f cfbc 8a3d 06be 5310 4e3e 9c55 94be
00000340: 89c8 963d 94c2 a5be 00ff 023f 7228 6fbf
00000350: 7dcd 1d3e b6ef 3fbe d8e7 153e acc2 253e
00000360: 178c 0cbe ceb3 f4be c951 17be a0f7 8b3d
00000370: e7dd 8c3d 4632 d03d a882 d93c cabf b3bd
00000380: b4c6 43bd 7761 0bbf 5bd3 04bf 2adc f63d
00000390: 9969 433f d079 c03d 5a5a b73e 4dd0 e3be
000003a0: 28fd 143f 8ac8 1bbe 62ab cc3e 0255 0fbf
000003b0: 6a7e afbd 98da a1bd 3744 87be e623 b33d
000003c0: 1250 283d f84b 91bd f2a4 7e3e c6fe 26bf
000003d0: 4dcf 4cbe 39fc b63d a335 d0be ebf8 1ebe
000003e0: 1373 ff3d a9da a2be 6426 4d3e 449d 383f
000003f0: 2028 b13d 6a56 dabe 7129 53be 7261 fcbe
0.52154076 1.5393822 0.5770481 0.022474278 0.21404034 0.24493161 -0.3156214 0.5345183
0.17282034 0.03228554 -0.0114856055 0.8946882 -0.07296683 -0.31513292 0.49827015 -0.062270693
0.25186023 0.08308394 -0.3196987 0.53648317 -0.07793211 0.25047615 -0.41868037 0.08726123
0.3504137 0.104040086 -0.98373985 0.22160183 -0.9899609 -0.13989995 -0.056872826 -0.029160094
-0.44185463 -1.5003437 -0.047767714 -0.07349032 -0.17437987 -0.059874542 0.5199809 0.5552449
0.4075452 -0.06037982 0.29322076 -0.0803412 0.03122669 -0.016158223 -0.032526687 0.17559837
-0.17494848 0.22637872 -0.43154255 -0.29756516 -0.31831408 0.6508629 0.57443273 -1.1184556
0.43281943 -0.61314535 0.10828214 -0.18424456 -0.17856462 0.048387904 -0.36671734 0.17565015
-0.7168376 -0.114843115 0.39975342 -0.07985791 -0.013867297 -0.3892829 0.33440566 -0.10134625
-0.06665019 0.27014574 -0.474555 -0.30286068 0.12730916 -0.7012628 -0.07907191 -0.43721116
0.5143216 0.31603876 0.44632816 0.224663 0.68908024 0.15089822 -0.1759799 -0.0484945
-0.2785776 0.04013218 0.54186606 0.7400556 0.44230416 -0.42445037 0.5645484 -0.09905217
-0.7398614 -0.1473054 0.1824203 0.10106088 -0.43921039 -0.68659157 -0.10863645 -0.20799182
-0.41816664 0.06582882 0.025420032 -0.44462353 0.26447353 -0.002351979 0.03901129 0.0139972195
-0.18663992 -0.36292785 -0.12720747 -0.18298858 0.15910836 -0.49543282 -0.16036779 -0.0372817
-0.7358303 0.25464344 -0.11259797 -0.48145628 -0.27294752 -0.23201896 0.14342223 -0.3966143
-0.8256962 -0.3428889 -0.19428988 -0.21232784 -0.2578907 0.15312253 0.40405425 -0.1325804
-0.2177463 -0.81487685 -0.21788512 0.03234339 0.1521184 0.07806561 0.20369111 -0.16172385
-0.11789011 -0.031581845 -0.23084892 -0.21925004 0.2599568 0.092269935 0.054829217 -0.15010919
-0.22850338 0.05023538 0.091353826 0.13977553 -0.5490628 0.5361779 0.30211374 0.46225005
0.29726627 0.26365963 -0.780441 -0.033606775 0.11537165 0.06265684 -0.41679215 0.035352115
-0.09154352 0.19295035 -1.1038039 -0.21553689 -0.24195303 0.39220956 0.2844438 0.6624685
0.17183548 0.46151796 -0.34668258 -0.07887106 -0.13646315 -0.14277498 0.09256719 0.21665786
0.04203841 0.05023971 -0.40290457 -0.68753856 -0.30367967 -0.13292138 -0.40271735 -0.06508754
0.4082844 0.1143875 -0.10036905 0.67682296 0.2570239 -0.7114124 -0.28357518 0.051119443
0.13519779 0.19441167 -0.28488228 -0.34003788 -0.02533687 -0.13109413 0.20123415 -0.28971565
0.07362468 -0.32375014 0.5117035 -0.9342109 0.15410419 -0.18743786 0.14639223 0.16187543
-0.13725315 -0.4779343 -0.14777292 0.0683434 0.06878262 0.10165839 0.02655156 -0.08776815
-0.04779692 -0.54445595 -0.51885 0.12053712 0.76333004 0.09398234 0.3581112 -0.44494858
0.58198786 -0.15213218 0.39974505 -0.55989087 -0.085690334 -0.079030216 -0.2641923 0.087470815
0.041091986 -0.07094568 0.24867609 -0.65232503 -0.20000954 0.089348264 -0.40665922 -0.15524642
0.124731205 -0.3180745 0.20034176 0.7211497 0.08650231 -0.42644054 -0.20621277 -0.49293095

model.3.bias f4 [128]
00000000: 21e8 59be 6e04 e3be 7367 8abe b07e 67be
00000010: 569d 42bf 62fd c5be 7084 9dbd 5279 5bbe
00000020: 09fe 63be c31a 0fbe a254 20be c437 f5be
00000030: bd3e 18be a377 8dbe f3c6 3abe 34c7 a2be
00000040: d22b 5abe 3904 d7be 6c17 5bbd 8b57 8a3d
00000050: e011 0dbe a295 f0be cfa2 f83c d1b8 9ebe
00000060: e038 23be 3dcf 2e3d b986 19bf 604f 54be
00000070: bff0 efba 388f 4fbe dd7b 2bbe b616 2cbe
00000080: 4b46 98bb 7f34 b93a 7dbb aebe 10b6 ad3d
00000090: bda9 20bf 39a6 81bd df00 d7be 0d8d d7bd
000000a0: 45da d83d 5f80 6ebe d9f0 e9bd c638 e8be
000000b0: 3bf0 5cbe 0eb0 1dbf 7963 0cbe c52d 2fbe
000000c0: f78f 243e 48a6 83be 5ba9 18be 3f65 fcbe
000000d0: f1fd d8bd dc43 cbbc 333a ca3d 6ee6 bebd
000000e0: d9a9 e5be 8597 31bc c43a 023e a151 b5bd
000000f0: 8d23 bebe 848e 84be e257 16be 5d70 b9bd
00000100: 7524 22be be31 bbbe 3341 4cbe 2183 efbd
00000110: d8ba 9cbe da0d a4be 8059 f5be 97eb ba3c
00000120: 6a96 8ebe 0a06 1f3e 2c95 a7bd 60a2 e3be
00000130: bf44 bdbe d0c8 52be 840b c1be 3572 04bd
00000140: 8d14 a3be 56e0 bdbe 0f0b dabd 9464 dc3d
00000150: aeb8 fdbc 9260 0fbf b4aa 0abf c161 ef3d
00000160: 73ce 69be 25bb b43d 6d9d aa3d d747 f9be
00000170: 5809 02be 4e60 58be a13d 9ebe 48bf 05bf
00000180: 35f6 87bd 9809 c5be 90b4 16be 027b 22be
00000190: 92d7 eabc 13ee 4ebe 6409 1b3e 7950 2b3d
000001a0: 7f17 153d aac9 d8be 3e94 6abe b994 a5be
000001b0: 04bc 253e 6a1d a6be 6890 05bf ba37 01be
000001c0: 5b9f aabe bfd4 29bf 040d 2dbe f371 bdbe
000001d0: f620 2fbf fbd5 b2bd e735 ecbe 4651 d23d
000001e0: bd6c b8be 380c acbe 0b60 debd ed17 6b3d
000001f0: 502a 14bd ed1e e3be f056 99be 2ef7 52be
-0.21279956 -0.44339317 -0.2703205 -0.22606921 -0.76021326 -0.38669878 -0.07691276 -0.21432999
-0.22264875 -0.13975053 -0.15657285 -0.47894108 -0.14867683 -0.27630338 -0.18239956 -0.31792605
-0.21305779 -0.4199541 -0.053489134 0.06754979 -0.1377635 -0.4698916 0.03035107 -0.3100038
-0.15939665 0.042678107 -0.59971195 -0.20733404 -0.0018306001 -0.20269477 -0.16746469 -0.16805539
-0.0046470514 0.0014130025 -0.34127417 0.08481991 -0.62759 -0.063305326 -0.41992852 -0.1052495
0.105885066 -0.23291157 -0.11422891 -0.45355815 -0.21576016 -0.61596763 -0.13709821 -0.17107303
0.16070543 -0.257128 -0.14908354 -0.49295995 -0.105953105 -0.024812631 0.09874382 -0.09321295
-0.44856146 -0.010839348 0.1271773 -0.0885346 -0.37136498 -0.2588998 -0.14681962 -0.09054635
-0.1583422 -0.36561388 -0.19946747 -0.11694933 -0.306113 -0.32041818 -0.47919846 0.022817416
-0.27849132 0.15529647 -0.08182749 -0.4445982 -0.36966512 -0.20584416 -0.37704098 -0.03233548
-0.31851617 -0.37085217 -0.106466405 0.10761371 -0.030971851 -0.5600673 -0.5416672 0.11688567
-0.2283266 0.088247575 0.08330808 -0.48687622 -0.12698877 -0.21130487 -0.30906394 -0.52245
-0.06638757 -0.38483882 -0.14717317 -0.15867236 -0.028667245 -0.20208006 0.15140301 0.04182479
0.03639936 -0.42341357 -0.22908112 -0.3234003 0.16185004 -0.32444316 -0.5217347 -0.12618914
-0.33324704 -0.6634025 -0.16899496 -0.37001 -0.6840967 -0.0873222 -0.46134874 0.10269408
-0.3602046 -0.33603072 -0.108581625 0.057395864 -0.036173165 -0.44359532 -0.2994914 -0.20602104
