Deep Reinforcement Learning Nanodegree/collaboration-competition/critic_agent_1.pth (torch_old, 233672 bytes, 13 tensors)

model.0.weight f4 [256, 52]
-0.46983212 2.2494576 0.062941775 0.03740023 0.43941993 -0.82882327 0.085680135 0.032880455
-0.36409888 2.3927076 -0.0056909067 0.18391237 0.372496 -0.9409718 0.005015988 0.13345134
-0.26862082 2.316696 0.028663972 -0.27464506 0.3240768 -1.0838132 -0.04944049 -0.26714104
-0.16042703 -1.6055247 -0.0026782707 -0.16932428 -0.34190893 -0.76453424 -0.02636776 -0.11823244
-0.2658655 -1.3543626 -0.06637816 0.0001375622 -0.38026777 -0.99443597 0.036704764 0.049520656
0.05791361 -1.1308273 0.05561877 1.4606178 -0.43725783 -1.0846624 0.11609315 1.4515675
-0.2632719 -0.20954223 0.9215449 -0.36481324 0.00030478864 -0.11707303 -0.14500473 -1.1688968
0.098426044 -0.68553525 -0.16024534 -1.1388704 0.12615195 -0.24997167 0.2552608 -0.6354444
-0.11055017 -0.4910837 0.22474723 -0.6912256 0.037936743 -0.6345268 0.40108365 -0.73618937
-0.14107388 0.14788888 0.33063498 -0.84165245 -0.1510961 -0.2265339 0.1895253 0.13607158
-0.14084554 -0.7680313 0.16501369 0.19408159 0.14442605 -0.35450083 0.20221287 0.5562595
0.060611643 -0.4503918 0.20180854 0.5506247 0.22477964 -0.2304694 -0.057907697 1.2014565
0.092212066 0.06653355 -0.08702116 1.1636457 0.08416423 1.8997519 -0.5662401 0.87884814
-0.09855406 0.661844 0.1698461 0.15100753 0.18508527 -0.9610044 0.1605337 0.041625865
0.01800245 0.7920855 -0.0074885148 -0.27472866 0.3601212 -1.1832972 0.014115379 -0.30229223
-0.10528124 0.53765976 0.1175724 -0.123441294 0.57448715 -1.27054 0.054463923 -0.24121836
0.28565595 -1.1321375 -0.16207437 0.07104936 -0.26505286 -0.89751476 -0.12224239 0.10653545
0.39588538 -1.064632 0.43502688 0.08885172 -0.3385162 -1.281488 0.3748954 0.118182205
0.31019545 -1.1312983 0.04968366 0.25212926 -0.50852203 -1.3055896 0.13397303 0.18038005
0.44774088 0.8592392 2.9511886 -2.7779536 0.19265796 -0.120847106 -0.16046079 0.026364855
0.10785811 -0.8709192 -0.21907096 0.09096533 0.19640812 -0.429805 0.30737412 -0.092173584
0.123982996 -1.00855 0.22456828 -0.10490419 0.80951583 -0.37308317 0.23559512 -0.2170049
0.26858398 -1.0476626 0.21822599 -0.22423731 0.500781 0.18492208 -0.13739347 -0.57332516
-0.014637568 -0.8763532 -0.143051 -0.46698785 0.6388 -0.0758071 0.22500809 -0.08426586
-0.17709377 -0.9078091 0.22563228 0.0011734628 0.5880373 -0.20803165 -0.38802928 -0.2503189
-0.27023056 -1.0797266 -0.39650735 -0.22142456 -0.055089522 0.16931915 0.402836 -0.119573794
0.64625645 1.0567489 -0.11047004 0.16284253 -0.12225488 -0.215126 -0.10401952 0.15114409
0.7103602 1.4755056 -0.11480625 -0.11070012 -0.26701066 -0.6809981 -0.0069598826 -0.058377896
0.9630527 0.9350724 0.43031192 -0.78922766 -0.49736455 -1.5968012 0.4954419 -0.74536514
-0.040601455 0.25566623 0.14485441 -0.09877638 0.048943732 -0.23227277 0.073281184 -0.17436491
0.029937577 0.33354577 0.004187905 0.030279579 0.352364 -0.7060769 -0.013432381 0.09216634
0.06395161 0.06845492 -0.15480162 0.44225794 0.4835426 -1.6130339 -0.07001325 0.3393362
00000000: d68d f0be 1df7 0f40 9ee7 803d fc30 193d
00000010: a6fb e03e c32d 54bf 1179 af3d a8ad 063d
00000020: 2b6b babe 1f22 1940 c97a babb 8653 3c3e
00000030: ccb7 be3e 87e3 70bf 285d a43b 78a7 083e
00000040: ab88 89be bf44 1440 b5d0 ea3c 479e 8cbe
00000050: 65ed a53e 64ba 8abf 1c82 4abd b6c6 88be
00000060: fc46 24be d581 cdbf ed85 2fbb 5863 2dbe
00000070: b00e afbe 84b8 43bf 3301 d8bc d923 f2bd
00000080: 861f 88be c15b adbf 46f1 87bd 923e 1039
00000090: 75b2 c2be 5b93 7ebf bc57 163d 2cd6 4a3d
000000a0: d236 6d3d f3be 90bf 82d0 633d 86f5 ba3f
000000b0: 42e0 dfbe 38d6 8abf 3fc2 ed3d f7cc b93f
000000c0: 93cb 86be 3d92 56be 5eea 6b3f cdc8 babe
000000d0: 0acc 9f39 fcc3 efbd 1f7c 14be 699e 95bf
000000e0: 9893 c93d 3d7f 2fbf 5b17 24be 81c6 91bf
000000f0: fa2d 013e 93f8 7fbe 8bb1 823e 7cac 22bf
00000100: 2168 e2bd 536f fbbe 2324 663e 29f4 30bf
00000110: 8f63 1b3d 5970 22bf d65a cd3e e876 3cbf
00000120: ac75 10be 2f70 173e fd48 a93e 8976 57bf
00000130: f0b8 1abe 81f8 67be ec12 423e 5956 0b3e
00000140: d039 10be b39d 44bf 59f9 283e 53bd 463e
00000150: 6ce4 133e 2281 b5be e410 4f3e 0667 0e3f
00000160: ea43 783d c199 e6be e6a6 4e3e bef5 0c3f
00000170: a22c 663e 2c00 6cbe 9f30 6dbd 54c9 993f
00000180: aed9 bc3d be42 883d 2638 b2bd 58f2 943f
00000190: 4c5e ac3d 122b f33f 1cf5 10bf 31fc 603f
000001a0: b6d6 c9bd 9c6e 293f 23ec 2d3e b8a1 1a3e
000001b0: fe86 3d3e 6204 76bf f262 243e e27f 2a3d
000001c0: e079 933c 1ec6 4a3f 3762 f5bb 3ca9 8cbe
000001d0: ce61 b83e 4876 97bf 3144 673c 0cc6 9abe
000001e0: b19d d7bd 12a4 093f ccc9 f03d cace fcbd
000001f0: 9711 133f 0ea1 a2bf 9015 5f3d f201 77be
00000200: 7f41 923e e2e9 90bf d3f6 25be 5482 913d
00000210: 02b5 87be 87c3 65bf 385a fabd 422f da3d
00000220: 7db1 ca3e dd45 88bf d8bb de3e e4f7 b53d
00000230: ff51 adbe cc07 a4bf 4af2 bf3e 8309 f23d
00000240: f0d1 9e3e 62ce 90bf 1881 4b3d 1617 813e
00000250: 802e 02bf 8f1d a7bf 3a30 093e 8cb5 383e
00000260: 4b3e e53e 1af7 5b3f 46e0 3c40 fec9 31c0
00000270: 2148 453e b07e f7bd d54f 24be 1cfb d73c
00000280: b6e4 dc3d 90f4 5ebf 2354 60be 084c ba3d
00000290: 361f 493e 670f dcbe 2460 9d3e 81c5 bcbd
000002a0: ccea fd3d 2b18 81bf 3af5 653e 02d8 d6bd
000002b0: 6e3c 4f3f c204 bfbe d93f 713e 8836 5ebe
000002c0: d783 893e cf19 86bf a276 5f3e 779e 65be
000002d0: 2f33 003f 375c 3d3e e0b0 0cbe 70c5 12bf
000002e0: 69d2 6fbc af58 60bf f67b 12be 0819 efbe
000002f0: 6688 233f c140 9bbd 8568 663e 9493 acbd
00000300: 1258 35be 2d66 68bf 260c 673e e1ce 993a
00000310: 9d89 163f 4006 55be c6ab c6be cd29 80be
00000320: a95b 8abe 7b34 8abf 0303 cbbe 1fbd 62be
00000330: 8da5 61bd 0062 2d3e 8540 ce3e 1be3 f4bd
00000340: 1071 253f 8c43 873f 1e3e e2bd 31c0 263e
00000350: c460 fabd fd49 5cbe 3008 d5bd 84c5 1a3e
00000360: 2bda 353f 5edd bc3f 8a1f ebbd bfb6 e2bd
00000370: 9fb5 88be e455 2ebf ba0f e4bb a91d 6fbd
00000380: 9f8a 763f e860 6f3f d851 dc3e d30a 4abf
00000390: 91a6 febe fb63 ccbf 90aa fd3e 40d0 3ebf
000003a0: b64d 26bd afe6 823e b754 143e 454b cabd
000003b0: 3979 483d ead8 6dbe 7214 963d b78c 32be
000003c0: a63f f53c 83c6 aa3e b23a 893b e10c f83c
000003d0: 0e69 b43e 75c1 34bf 7d13 5cbc b5c1 bc3d
000003e0: 10f9 823d 1832 8c3d 5184 1ebe a26f e23e
000003f0: e592 f73e e577 cebf 1b63 8fbd 79bd ad3e

model.0.bias f4 [256]
-0.16154903 -0.19806315 -0.2070151 -0.40890595 -0.5414312 -0.78838617 0.15335149 -0.65042365
-0.4915502 -0.6355322 -1.2213721 -0.06839839 -0.73879653 -0.56461483 -0.41518834 -0.597833
-1.3022134 -0.5619003 -0.8009714 -1.1418138 -0.10699527 -1.1956382 -0.8308918 -1.0281646
0.3544033 -0.762196 -0.6338314 -0.98169875 -1.5690618 -0.92674273 -0.6098716 -0.68007964
-0.11827378 -0.7064433 -0.71926606 -0.62732977 -1.1664115 -0.2695215 -0.23352498 -2.6115189
-0.13986559 -0.3068009 -0.5499089 -1.0995964 -0.9676856 -0.3923464 -0.5599735 -0.66625345
-0.6873866 -0.6446622 -0.3012262 -0.5071802 -1.6261348 -0.40798694 -0.6310121 -1.1276629
-0.7053519 -0.5069488 -0.07127026 -0.83055365 -0.21918365 -0.83951175 -0.65514314 -1.0996841
-0.61058694 -0.26066667 -1.4758464 -0.9175077 0.051469766 -0.68739104 -0.56106925 -0.34994587
-1.5449035 0.46189696 -1.9214561 -1.2847831 -1.0868356 0.15468241 -0.7103752 -0.93792015
-1.2171171 -1.3469757 -0.75864244 -0.24138299 -0.18250434 -0.8546997 -1.8747817 -0.95790464
-1.4270933 -0.64058506 -0.14944553 -1.1720557 -0.46979454 -0.18901347 -1.6185677 -0.36784402
-0.79627866 -0.7704656 -1.3994149 -0.96548873 -0.4824339 -0.79745215 -0.18747592 -2.1375103
-0.7514849 -0.58166295 -1.156572 -0.6062445 -0.8536203 -0.25702226 -0.8026635 0.16555426
-0.5077618 -0.24520881 -0.68964356 -1.1033441 -0.2855948 -0.8557363 -1.7815722 -1.2785623
-0.5619622 -0.6247297 -0.6751678 -4.0721784 -0.32976457 -0.6274295 -0.67979527 -0.87647057
-0.41438758 -0.41047257 -0.20142123 -0.84067225 -0.6022097 -1.0027485 -0.9082971 -0.70774406
-0.5452835 -0.878025 -0.30981827 -1.4290874 -0.41033253 -1.2776202 -0.42445654 -0.4486703
-0.46434802 -0.41101453 -0.82134926 -0.41434598 0.1695287 -1.245737 -0.5512454 -0.43882528
-0.003992081 -1.7219256 -0.47344086 -0.07802506 -0.6575996 -1.2948923 -0.68682253 0.26305816
-0.66600245 -1.1136575 -0.2532346 -0.4114983 -0.6565251 -0.50804645 -0.76267916 -0.9985794
-0.82871187 -0.51023614 -0.12379923 -1.8048156 -1.2542785 -0.653522 0.15903695 0.0696876
-0.72315997 -0.8257807 -0.5084152 -0.23377298 -0.35052055 0.02522141 -1.2766296 -0.847364
-0.63887006 -0.12066364 -0.76797426 -0.31392172 -0.35897437 -0.45669782 0.040601008 -0.84769636
-0.7737132 -0.91230935 -0.44585896 -1.45143 -0.5651245 -0.27416307 -0.12844303 -0.9758533
-1.0322944 -0.86320925 -0.24200498 -0.568368 -0.9150074 -1.081684 -0.14265056 -0.945816
-1.4875208 -0.7548143 -1.384263 -0.14614388 -0.026480528 -0.414137 -0.48168197 -1.3365525
-0.48590532 -0.3485073 -0.40762195 -0.6160513 -0.6815814 -0.7909007 -1.9542309 -1.6917733
-1.6945595 -0.63063955 -0.45641804 -0.6048777 -0.8775964 0.25900495 -0.118140146 -0.40477365
-0.72406065 -1.4137918 -4.8377304 -0.828287 -0.6602966 -0.260367 -0.7166986 0.030301021
-0.36967286 -0.6911588 -0.26565075 -0.9028153 -0.7717313 -1.0212383 -0.4454273 0.030675726
-1.0889181 -0.30587178 -0.48082915 0.86334294 -0.9942086 -0.85934055 -0.8430568 -0.48547798
00000000: 1c6d 25be 11d1 4abe c4fb 53be 1f5c d1be
00000010: 3c9b 0abf add3 49bf 2c08 1d3e 2a82 26bf
00000020: 78ac fbbe 3db2 22bf ec55 9cbf 7514 8cbd
00000030: c521 3dbf 998a 10bf 9193 d4be 950b 19bf
00000040: eeae a6bf b3d8 0fbf 760c 4dbf f426 92bf
00000050: 5620 dbbd ac0a 99bf 53b5 54bf e69a 83bf
00000060: 5974 b53e 471f 43bf c642 22bf 9c50 7bbf
00000070: 04d7 c8bf 033f 6dbf 8c20 1cbf b319 2ebf
00000080: 8639 f2bd 78d9 34bf d221 38bf af98 20bf
00000090: f94c 95bf b9fe 89be 2c21 6fbe 2023 27c0
000000a0: ed38 0fbe 0215 9dbe d4c6 0cbf 93bf 8cbf
000000b0: 3eba 77bf a1e1 c8be 6c5a 0fbf 968f 2abf
000000c0: 91f8 2fbf 9508 25bf 523a 9abe 90d6 01bf
000000d0: 2f25 d0bf aae3 d0be 028a 21bf 4257 90bf
000000e0: f191 34bf 66c7 01bf 24f6 91bd 2a9f 54bf
000000f0: ae71 60be 3eea 56bf 76b7 27bf 73c2 8cbf
00000100: 6d4f 1cbf 1a76 85be 89e8 bcbf c9e1 6abf
00000110: f6d1 523d dcf8 2fbf 3ca2 0fbf 1b2c b3be
00000120: 66bf c5bf c27d ec3e 46f2 f5bf c673 a4bf
00000130: 6e1d 8bbf 1165 1e3e 26db 35bf 891b 70bf
00000140: 7eca 9bbf b369 acbf 6436 42bf 1a2d 77be
00000150: 6be2 3abe 99cd 5abf d9f8 efbf 3d39 75bf
00000160: feaa b6bf 62fd 23bf 4008 19be ec05 96bf
00000170: e988 f0be bf8c 41be 3a2d cfbf 0d56 bcbe
00000180: ebd8 4bbf 3c3d 45bf 0720 b3bf 452a 77bf
00000190: 9301 f7be d325 4cbf b0f9 3fbe f8cc 08c0
000001a0: 5061 40bf dde7 14bf 8d0a 94bf d732 1bbf
000001b0: dc86 5abf 6c98 83be 5b7b 4dbf 0e87 293e
000001c0: adfc 01bf 0518 7bbe 7b8c 30bf 613a 8dbf
000001d0: 7b39 92be 8911 5bbf 8f0a e4bf eea7 a3bf
000001e0: c1dc 0fbf 49ee 1fbf ccd7 2cbf 494f 82c0
000001f0: e7d6 a8be 389f 20bf 1007 2ebf 6060 60bf
00000200: 9c2a d4be 7629 d2be 5e41 4ebe 4c36 57bf
00000210: 6a2a 1abf 105a 80bf 2986 68bf b72e 35bf
00000220: b397 0bbf 3fc6 60bf 80a0 9ebe 56ec b6bf
00000230: 1b17 d2be 0f89 a3bf 5e52 d9be 1db8 e5be
00000240: 06bf edbe 7f70 d2be f243 52bf 2825 d4be
00000250: ee98 2d3e 4f74 9fbf 6b1e 0dbf b5ad e0be
00000260: 01d0 82bb 0f68 dcbf d766 f2be 9acb 9fbd
00000270: 7358 28bf 08bf a5bf 9ad3 2fbf 8faf 863e
00000280: 237f 2abf 548c 8ebf f7a7 81be e8af d2be
00000290: 0712 28bf 550f 02bf f13e 43bf e6a2 7fbf
000002a0: 7626 54bf d69e 02bf 738a fdbd 3304 e7bf
000002b0: 338c a0bf 384d 27bf 95da 223e 5fb8 8e3d
000002c0: 0321 39bf 5d66 53bf 8027 02bf 2f62 6fbe
000002d0: 6e77 b3be 219d ce3c 9968 a3bf d9ec 58bf
000002e0: fd8c 23bf 801e f7bd f699 44bf 59ba a0be
000002f0: 7dcb b7be 4cd4 e9be 3e4d 263d a102 59bf
00000300: 1112 46bf 1b8d 69bf a047 e4be 75c8 b9bf
00000310: 00ac 10bf 1a5f 8cbe 9286 03be 86d1 79bf
00000320: 3922 84bf 48fb 5cbf 27d0 77be 9180 11bf
00000330: ed3d 6abf 9f74 8abf fd12 12be ff20 72bf
00000340: 1567 bebf 833b 41bf 882f b1bf bea6 15be
00000350: b1ed d8bc c409 d4be 059f f6be 2714 abbf
00000360: 95c8 f8be 8c6f b2be d3b3 d0be 8ab5 1dbf
00000370: 1e7c 2ebf 7878 4abf 3d24 fabf 078c d8bf
00000380: 53e7 d8bf 9871 21bf a0af e9be 44d9 1abf
00000390: 28aa 60bf 4c9c 843e 76f3 f1bd 7e3e cfbe
000003a0: 0a5c 39bf 21f7 b4bf b0ce 9ac0 9e0a 54bf
000003b0: 3309 29bf d34e 85be 8f79 37bf d939 f83c
000003c0: c345 bdbe c8ef 30bf 6003 88be e71e 67bf
000003d0: 2f90 45bf f0b7 82bf 0c0f e4be a94b fb3c
000003e0: ab61 8bbf 3a9b 9cbe 3d2f f6be 0b04 5d3f
000003f0: 7484 7ebf befd 5bbf 92d2 57bf 9290 f8be

model.2.weight f4 [256]
0.34291768 0.18765299 0.49091616 0.5349304 0.6981967 0.8351606 0.6046693 0.58081913
0.3773832 0.69056 0.40523374 0.482402 0.4564265 0.4558034 0.30276752 0.45491293
0.5722646 0.72730803 0.1835519 0.5887155 0.6334181 0.26262507 0.41766518 0.51264983
1.4659594 0.38474172 0.45886886 0.34704635 0.70668256 0.6170324 1.5269837 0.5833992
0.7207318 1.3270323 0.4087278 0.6533691 0.9290727 0.43813735 0.26819688 0.27387375
0.3406328 0.554229 0.67661536 1.1824234 0.60510534 0.3311797 0.5324061 0.47390637
0.60275364 0.35153142 0.48157898 0.48536327 0.48858613 0.3740342 1.2101533 0.9961825
0.11757184 0.70300215 0.41710255 0.28296596 0.805139 0.38267305 0.20804746 0.3674985
0.47816512 0.52157116 0.84185344 0.31981194 0.6059584 0.996419 0.31184196 0.6164922
1.0754985 1.1421629 1.072422 0.7568326 0.30520403 0.6104488 0.5267646 0.7309776
0.64492977 1.0466734 0.17844303 0.42289868 0.43474826 0.57577956 0.90233517 0.4457588
0.27398026 0.5925824 0.45378748 0.24282254 0.6489493 0.46525422 1.9202534 0.7065213
0.39933652 0.41563135 0.46815294 0.4365853 0.39872143 0.44293258 1.0771126 1.2952025
0.2242991 0.5120123 0.42457557 0.36072958 0.5662286 0.23930705 0.21092223 0.49319822
0.8545027 0.5411859 1.056274 0.27171522 0.90842086 0.583587 0.94838387 0.24736609
0.47904056 -0.6879904 0.6637755 0.660193 0.23149244 0.22015972 0.35901946 0.3464235
0.7158234 0.504076 0.20046641 0.93188083 0.48690933 1.0619475 0.948752 -0.19697167
0.32702097 0.5203116 0.5321718 1.0860803 0.9869526 0.5088368 0.5117387 0.25919798
0.84401184 0.52043265 0.39144498 0.5885037 1.1403846 0.4350924 0.38408834 0.35233498
0.28658995 0.23413089 0.48054016 0.6212212 0.34983164 0.64556444 0.67622054 1.921552
0.7833699 0.4374805 1.0417583 0.57969314 0.2041 0.15226652 0.76186526 1.5638633
0.6269937 0.71724707 0.680361 0.2760445 1.3799976 0.15683943 0.71192366 0.091634005
0.621384 0.593165 0.3291842 0.41132057 0.41939205 1.3196118 1.2309532 0.50647414
0.59439147 0.7946393 0.39595798 0.48841804 0.48294917 0.32493386 0.46513453 0.55315197
0.46489877 0.6166432 0.7932372 1.0608568 0.4359421 0.296867 0.37935993 0.4011862
0.5700725 0.24957944 0.42792302 0.699865 0.5092627 0.21790951 0.5570531 0.67425466
0.6117103 0.27247256 1.1994476 1.0999285 0.3141075 0.73703784 0.48292246 1.0224488
0.22254021 0.33890906 0.5454298 0.24472411 0.5650237 0.5327702 1.5048879 0.791223
0.7179635 0.49331072 0.64559305 0.25833246 0.7273347 0.71753293 -0.66662747 0.7864504
0.54219645 0.8260887 1.0864474 0.37292385 0.36420357 0.4986575 1.1227791 0.38333493
0.6802768 0.16943617 0.16397268 0.3903255 0.35201478 0.4502032 1.0416105 0.80760556
0.9802237 0.36579692 0.6203426 0.74722165 0.79081243 0.48792163 0.7203445 0.5256445
00000000: e892 af3e 1b28 403e 5d59 fb3e 33f1 083f
00000010: 05bd 323f 16cd 553f 9bcb 1a3f 90b0 143f
00000020: 5f38 c13e 8ac8 303f cc7a cf3e 65fd f63e
00000030: bcb0 e93e 105f e93e 5804 9b3e 59ea e83e
00000040: ef7f 123f dc30 3a3f 07f5 3b3e 0fb6 163f
00000050: b027 223f cb76 863e 36d8 d53e 053d 033f
00000060: 8fa4 bb3f defc c43e dcf0 ea3e 0fb0 b13e
00000070: 26e9 343f d6f5 1d3f 3474 c33f a659 153f
00000080: e181 383f 32dc a93f c544 d13e 3343 273f
00000090: b5d7 6d3f 8a53 e03e 1a51 893e 2e39 8c3e
000000a0: 6c67 ae3e f4e1 0d3f aa36 2d3f a659 973f
000000b0: 2fe8 1a3f 6390 a93e c44b 083f dba3 f23e
000000c0: 104e 1a3f edfb b33e 8591 f63e 8981 f83e
000000d0: f627 fa3e 6981 bf3e 4ee6 9a3f d105 7f3f
000000e0: 81c9 f03d f3f7 333f 778e d53e eae0 903e
000000f0: 971d 4e3f b9ed c33e 650a 553e c328 bc3e
00000100: 0fd2 f43e b085 053f b583 573f 64be a33e
00000110: 1720 1b3f 5115 7f3f c0a9 9f3e 6fd2 1d3f
00000120: efa9 893f 6532 923f 2045 893f c8bf 413f
00000130: b443 9c3e 5f46 1c3f 0bda 063f 5921 3b3f
00000140: 1e1a 253f 65f9 853f c5b9 363e 2d86 d83e
00000150: 5397 de3e 4a66 133f 70ff 663f 7f3a e43e
00000160: 2447 8c3e 7bb3 173f d556 e83e 79a6 783e
00000170: 8b21 263f cd35 ee3e ddca f53f 94de 343f
00000180: d675 cc3e a2cd d43e beb1 ef3e 1c88 df3e
00000190: 3725 cc3e 0fc8 e23e d3de 893f 32c9 a53f
000001a0: aaae 653e 3d13 033f f861 d93e 8cb1 b83e
000001b0: 5cf4 103f e80c 753e fffb 573e 7a84 fc3e
000001c0: b0c0 5a3f 298b 0a3f fd33 873f 421e 8b3e
000001d0: 458e 683f f565 153f 49c9 723f 894d 7d3e
000001e0: ce44 f53e 2420 30bf 31ed 293f 6902 293f
000001f0: 5b0c 6d3e 8d71 613e 66d1 b73e 6c5e b13e
00000200: 3440 373f 200b 013f 1147 4d3e be8f 6e3f
00000210: 2e4c f93e e5ed 873f 69e1 723f f1b2 49be
00000220: 4b6f a73e 2433 053f 693c 083f ae04 8b3f
00000230: eda8 7c3f 2143 023f 4f01 033f 99b5 843e
00000240: 2911 583f 133b 053f 7a6b c83e 2ea8 163f
00000250: 1ff8 913f 6ec4 de3e 3aa7 c43e 4065 b43e
00000260: ebbb 923e 02c0 6f3e 5c09 f63e 5a08 1f3f
00000270: 221d b33e b643 253f ca1c 2d3f 6af5 f53f
00000280: ee8a 483f 72fd df3e 5658 853f c566 143f
00000290: 97ff 503e c1eb 1b3e 9a09 433f ac2c c83f
000002a0: a982 203f 819d 373f 232c 2e3f b455 8d3e
000002b0: c3a3 b03f 849a 203e a140 363f 9caa bb3d
000002c0: 0613 1f3f a9d9 173f d58a a83e 9c98 d23e
000002d0: 8eba d63e 0ae9 a83f e08f 9d3f 4aa8 013f
000002e0: 0a2a 183f 7b6d 4b3f 01bb ca3e ee11 fa3e
000002f0: 1d45 f73e bb5d a63e 1d26 ee3e 5e9b 0d3f
00000300: 3607 ee3e 54dc 1d3f 9811 4b3f 28ca 873f
00000310: ce33 df3e f4fe 973e 773b c23e 4768 cd3e
00000320: 45f0 113f c191 7f3e ba18 db3e 5a2a 333f
00000330: 0a5f 023f ac23 5f3e 089b 0e3f f49b 2c3f
00000340: 0c99 1c3f 8681 8b3e 8087 993f 75ca 8c3f
00000350: b3d2 a03e 83ae 3c3f 9d41 f73e 9adf 823f
00000360: 95e1 633e 7d85 ad3e 4aa1 0b3f f598 7a3e
00000370: 65a5 103f a163 083f 2ba0 c03f 978d 4a3f
00000380: 75cc 373f 3993 fc3e 9645 253f 2744 843e
00000390: 9b32 3a3f 3db0 373f 19a8 2abf d054 493f
000003a0: 63cd 0a3f 8d7a 533f b510 8b3f e0ef be3e
000003b0: e478 ba3e 0950 ff3e 3ab7 8f3f 7a44 c43e
000003c0: 9f26 2e3f ad80 2d3e 74e8 273e bed8 c73e
000003d0: 483b b43e 0981 e63e 7e53 853f 3dbf 4e3f
000003e0: f1ef 7a3f bc49 bb3e c6ce 1e3f eb49 3f3f
000003f0: af72 4a3f ddd0 f93e 7f68 383f a390 063f

model.2.bias f4 [256]
0.18850422 0.45878774 0.102629505 0.1194543 0.2902364 0.4271295 0.26838568 0.04913334
0.21192996 0.29729223 0.1557059 0.12171548 0.07687818 0.32121772 0.08329885 0.37805107
0.039146297 0.70468295 0.01786144 0.2916574 0.20497712 0.20767322 0.19578907 0.045317236
0.09212027 0.33578026 0.14655223 0.31724232 0.2800848 0.25559253 0.1781227 0.24954762
0.6564606 -0.0044204863 0.2983116 0.19968012 0.25169355 0.2147387 0.03929862 -0.051990915
-0.11181469 0.26232186 0.17711748 0.7442695 0.6871236 -0.46419507 0.28165153 0.19873051
0.28383243 0.063956186 0.23920275 0.22078657 -0.08599289 0.17760701 0.37679192 0.3340757
0.026839752 0.04988437 0.114458844 -0.10574369 0.18461774 0.15846881 0.08931294 0.29721773
0.13513322 0.090082444 0.3949051 0.187319 0.09859536 0.3335048 0.22513644 0.25452507
0.6144908 0.42848575 0.34093037 0.13562548 0.08469246 0.25131282 0.05728879 0.51174694
0.12182936 0.42329583 0.040567722 0.15561181 0.19883698 0.20231684 0.3089954 0.38733596
0.11023357 0.29864648 -0.103676945 0.031165993 0.2838489 0.31324095 -0.01381612 0.3163076
0.18847205 0.3814674 0.17645207 -0.12508507 0.1078762 0.14177871 0.4315172 -0.27297488
0.16593696 0.1234165 0.19912663 0.02765847 0.2629859 0.16566712 0.0052787894 0.26885036
0.2990973 0.117390215 0.3910597 0.1075958 0.41623232 0.35222837 0.3136401 0.066345535
0.32959616 -0.19442552 0.4234834 0.039355263 0.32071757 0.0065151686 0.22431642 0.10074218
0.31576085 0.24035169 0.17885165 0.25788411 0.046475463 0.2685381 0.24276683 0.43111175
-0.06657955 0.052136283 0.15059587 0.6187071 0.36905885 0.023766855 0.19363992 0.15755673
0.3151042 0.30921236 0.3059454 0.18636867 0.41439632 0.120925665 0.1676876 0.081198804
0.102151714 -0.15442313 -0.13614108 0.23707433 -0.0036602851 0.3009081 0.34555778 0.6307914
0.42365053 0.11850215 0.54154634 0.24919948 0.28205463 0.08207901 0.018593347 0.62963665
0.17429365 0.26830813 0.45142123 0.09519505 0.63340515 -0.012565025 0.3955017 0.10751901
0.3365728 0.2760024 0.21279612 0.41797227 0.01655261 0.27698785 0.11632254 0.29441622
0.20504119 0.34994203 0.18772334 0.2646547 0.16288488 0.13853852 0.104724504 0.32773626
0.11188326 0.307684 0.29363242 0.10276961 0.31180584 0.12039854 0.22164042 0.16627505
0.12178143 0.09737372 -0.12555394 0.5281502 0.17102684 -0.17741765 0.2446262 0.47073236
0.08676975 0.14795984 0.3193063 0.28858477 0.1717603 0.570001 0.19566078 0.040469013
0.65080184 -0.022489205 0.30284414 0.14088093 0.25064883 0.2506733 0.072822094 0.12070793
0.24969433 0.15268944 0.28336582 0.19303225 0.17104954 0.44589424 -0.43110773 0.4423566
0.1519581 0.7464116 0.1990386 0.053731754 0.44949102 0.20383781 0.35877755 0.19881183
0.05358413 0.0039246147 0.0630811 0.21762295 0.028332636 0.15145668 0.27256706 -0.006412342
0.34083447 -0.060819212 0.42741936 0.053452928 0.07003293 0.17274246 0.15253708 0.11405415
00000000: 4007 413e 3ae6 ea3e 6b2f d23d 75a4 f43d
00000010: de99 943e b8b0 da3e d969 893e 0b40 493d
00000020: 2b04 593e b036 983e 5e71 1f3e f745 f93d
00000030: 4f72 9d3d a676 a43e 9698 aa3d e98f c13e
00000040: de57 203d 1a66 343f 2852 923c 1e54 953e
00000050: 86e5 513e 4aa8 543e ee7c 483e 919e 393d
00000060: 8da9 bc3d 64eb ab3e ca11 163e 966d a23e
00000070: 4667 8f3e 06dd 823e cc65 363e 6989 7f3e
00000080: cd0d 283f bad9 90bb 4cbc 983e f278 4c3e
00000090: fadd 803e 76e4 5b3e 97f7 203d 6df4 54bd
000000a0: 1aff e4bd 0d4f 863e 495e 353e 7288 3e3f
000000b0: 55e7 2f3f faaa edbe a134 903e 0380 4b3e
000000c0: 7c52 913e 76fb 823d 91f1 743e e015 623e
000000d0: 0a1d b0bd 9dde 353e dfea c03e f80b ab3e
000000e0: 0adf db3c 8e53 4c3d 6669 ea3d 2690 d8bd
000000f0: 6f0c 3d3e a645 223e b4e9 b63d ec2c 983e
00000100: 5d60 0a3e 257d b83d 0031 ca3e 8dd0 3f3e
00000110: 5dec c93d 24c1 aa3e 2b8a 663e 1c51 823e
00000120: 454f 1d3f 7c62 db3e 6d8e ae3e 68e1 0a3e
00000130: 3e73 ad3d 13ac 803e a6a7 6a3d d901 033f
00000140: ac81 f93d 3bba d83e 572a 263d b458 1f3e
00000150: ec9b 4b3e 252c 4f3e a534 9e3e e650 c63e
00000160: 23c2 e13d 31e8 983e 9454 d4bd d34f ff3c
00000170: a554 913e 1e61 a03e 025d 62bc 12f3 a13e
00000180: d1fe 403e b24f c33e daaf 343e 4d16 00be
00000190: 32ee dc3d 702e 113e d3ef dc3e 5dc3 8bbe
000001a0: 61eb 293e cac1 fc3d dae7 4b3e 0494 e23c
000001b0: 16a6 863e a4a4 293e b2f9 ac3b c1a6 893e
000001c0: 4823 993e 486a f03d fa38 c83e 305b dc3d
000001d0: 671c d53e 4757 b43e 6f95 a03e 2be0 873d
000001e0: d4c0 a83e 7c17 47be d1d2 d83e fc32 213d
000001f0: 1835 a43e 327d d53b 34b3 653e eb51 ce3d
00000200: 68ab a13e c11e 763e e324 373e 6309 843e
00000210: 0e5d 3e3d d37d 893e de97 783e aeba dc3e
00000220: dc5a 88bd db8c 553d ce35 1a3e 9763 1e3f
00000230: 48f5 bc3e b5b2 c23c 8b49 463e 8d56 213e
00000240: 5655 a13e 1551 9e3e e0a4 9c3e 6ed7 3e3e
00000250: c12b d43e e0a7 f73d 4cb6 2b3e 8f4b a63d
00000260: eb34 d13d 1921 1ebe 9168 0bbe 9dc3 723e
00000270: 65e1 6fbb a010 9a3e f3ec b03e 8c7b 213f
00000280: b9e8 d83e 41b1 f23d c8a2 0a3f 262e 7f3e
00000290: 7769 903e 0a19 a83d 1351 983c de2f 213f
000002a0: 097a 323e af5f 893e af20 e73e 9ff5 c23d
000002b0: d726 223f 89dd 4dbc 337f ca3e ed32 dc3d
000002c0: 4553 ac3e 3050 8d3e 3ae7 593e 7600 d63e
000002d0: 5799 873c 5ad1 8d3e 833a ee3d b9bd 963e
000002e0: 51f6 513e 9a2b b33e 8c3a 403e d280 873e
000002f0: 4bcb 263e 0bdd 0d3e cd79 d63d 0ccd a73e
00000300: 0d23 e53d c288 9d3e fd56 963e e078 d23d
00000310: 04a5 9f3e 8293 f63d b5f5 623e 0244 2a3e
00000320: 8b68 f93d df6b c73d 3691 00be da34 073f
00000330: a921 2f3e f9ac 35be 4a7f 7a3e d503 f13e
00000340: 57b4 b13d c982 173e 1e7c a33e 62c1 933e
00000350: efe1 2f3e 96eb 113f 4d5b 483e d6c2 253d
00000360: f39a 263f 483b b8bc 630e 9b3e 1743 103e
00000370: 0b55 803e 4058 803e c023 953d b835 f73d
00000380: dfaf 7f3e 9f5a 1c3e 5315 913e 3faa 453e
00000390: 9c27 2f3e 404c e43e 27ba dcbe 907c e23e
000003a0: e79a 1b3e d514 3f3f c6d0 4b3e d415 5c3d
000003b0: b023 e63e dcba 503e b1b1 b73e 5495 4b3e
000003c0: 087b 5b3d 0e9a 803b aa30 813d 8dd8 5e3e
000003d0: d819 e83c 7617 1b3e e98d 8b3e a01e d2bb
000003e0: db81 ae3e 911d 79bd b6d6 da3e 75f1 5a3d
000003f0: 6d6d 8f3d 66e3 303e ae32 1c3e 3995 e93d

model.2.running_mean f4 [256]
3.9875095 15.349568 2.3094695 0.23174421 0.53258824 1.3116587 -0.5655221 0.5245054
1.2510718 -0.2202838 0.24165215 -0.5218055 5.864335 3.8019238 0.6387175 6.7537866
6.7035427 19.646248 -0.9834336 0.93306756 0.09706454 -0.86200637 1.6486548 -0.6251404
6.3116894 1.6164646 0.14038056 2.5087788 2.0488296 0.14173019 26.810276 0.68994814
10.831906 22.44784 0.9905361 -0.05851542 7.591636 4.469188 3.7504883 40.50044
58.527115 2.9258974 -0.32549077 4.863767 4.2735653 2.300126 2.363991 6.8107095
4.6210117 1.4128083 -0.35974562 2.2838135 4.0887637 13.24919 -0.07440946 5.537925
-0.9762891 -0.5149976 -0.5589149 1.4872721 -0.7248007 0.8422901 -0.30652916 -0.3392587
-0.41257244 0.47489622 4.316604 0.060111217 0.54651225 0.7289732 1.8531743 12.728489
6.725398 -0.3992256 6.783785 0.8214546 -0.015732994 7.6740074 25.20901 1.1162204
4.5303516 9.56636 8.086542 1.1279845 0.4240577 1.4939103 5.7386456 1.3127716
-0.019226795 -0.45670706 -0.087775916 -0.29867095 1.71007 4.2758994 11.254658 2.6167946
-0.03175947 -0.12608097 3.3358848 0.68957406 6.8633647 0.80650836 1.4364531 4.9490585
-0.52218753 -0.24168593 4.3618593 -0.5785579 1.2056684 0.9098126 7.6813602 8.65729
-0.0043837205 1.1668255 8.729412 3.7841792 5.819433 9.571724 21.35459 9.698156
1.2378266 2.0440023 16.915073 48.037033 -0.30441302 8.240795 0.7532046 3.3247068
0.3640875 0.5565651 9.4880495 0.28768075 -0.03980841 3.62434 0.5218193 6.679362
1.2975819 2.2636247 0.70680577 10.866931 1.3347306 2.9124134 11.085609 -0.39441398
1.30078 0.7003347 2.8901582 2.3808274 0.3251053 4.860978 -0.18061548 1.1292334
2.7357316 7.201716 4.004218 3.8237472 6.972624 6.265323 0.2013441 -0.09293601
10.693376 0.12762438 5.6630454 8.105752 -0.85826343 1.3721522 0.57089317 3.5407646
-0.21202387 -0.54819983 6.283536 48.157104 6.737222 -0.7079617 1.1066397 -0.37752053
5.2779217 2.000261 0.023864904 4.1060667 -0.4161186 -0.33215326 16.731188 8.170996
0.8964375 4.7813854 -0.56064993 1.3409145 -0.04580127 -0.45404768 -0.079940714 0.44404852
0.09031338 1.9034792 0.7180759 25.706839 7.031194 1.6724526 0.30168942 0.038629707
-0.18439089 -0.24240656 0.5023067 3.6235538 4.890127 6.8535857 3.553199 1.1541479
0.06151319 0.05527787 1.5336889 -0.6527585 -0.7121136 4.4753027 -0.28946075 8.756146
1.9644052 5.8648705 -0.12989976 -0.42235652 2.9434268 0.45123425 2.0968723 15.4135275
0.6092774 1.1551963 9.785927 13.820512 3.007246 0.3584622 1.137313 0.7794283
-0.028778352 1.5549759 48.378395 -0.5981611 3.298986 -0.26942375 0.99747795 -0.67399377
-0.2644329 4.1267986 4.016788 -0.23303893 3.0147038 0.59809023 10.489282 -0.1536577
21.435793 3.6093595 9.037322 1.0727473 1.5352937 0.12711604 3.3275242 0.66553855
00000000: 5b33 7f40 d597 7541 59ce 1340 5b4e 6d3e
00000010: b457 083f 6fe4 a73f 0ec6 10bf fc45 063f
00000020: 1f23 a03f 1492 61be a973 773e 0c95 05bf
00000030: a2a8 bb40 b852 7340 fd82 233f 051f d840
00000040: 6c83 d640 842b 9d41 4ec2 7bbf 84dd 6e3f
00000050: c6c9 c63d 73ac 5cbf 1f07 d33f 3409 20bf
00000060: 5cf9 c940 50e8 ce3f ecbf 0f3e d58f 2040
00000070: 0620 0340 b821 113e 727b d641 71a0 303f
00000080: 7d4f 2d41 2d95 b341 c693 7d3f ddad 6fbd
00000090: afee f240 9703 8f40 0008 7040 7300 2242
000000a0: c41b 6a42 e741 3b40 baa6 a6be fba3 9b40
000000b0: 0cc1 8840 4435 1340 a14b 1740 55f1 d940
000000c0: 54df 9340 e7d6 b43f 9430 b8be 002a 1240
000000d0: 27d7 8240 affc 5341 fd63 98bd ae36 b140
000000e0: 15ee 79bf e2d6 03bf 0c15 0fbf ef5e be3f
000000f0: 8a8c 39bf 53a0 573f 64f1 9cbe 51b3 adbe
00000100: b23c d3be 9925 f33e 9f21 8a40 2e37 763d
00000110: 3ae8 0b3f fd9d 3a3f d134 ed3f e4a7 4b41
00000120: 7636 d740 4c67 ccbe c414 d940 d94a 523f
00000130: 7be2 80bc 7891 f540 0dac c941 4fe0 8e3f
00000140: a4f8 9040 d00f 1941 7a62 0141 cc61 903f
00000150: 171e d93e 7438 bf3f fca2 b740 e608 a83f
00000160: 8381 9dbc 82d5 e9be dcc3 b3bd 66eb 98be
00000170: 93e3 da3f 2bd4 8840 1413 3441 9079 2740
00000180: 3816 02bd 5f1b 01be 237f 5540 ed87 303f
00000190: afa0 db40 5577 4e3f b2dd b73f b05e 9e40
000001a0: 15ae 05bf 847c 77be 5a94 8b40 5f1c 14bf
000001b0: 5853 9a3f 7be9 683f b4cd f540 4384 0a41
000001c0: 50a5 8fbb 8a5a 953f acab 0b41 fe2f 7240
000001d0: cc38 ba40 c825 1941 33d6 aa41 a62b 1b41
000001e0: 1a71 9e3f efd0 0240 1252 8741 ec25 4042
000001f0: 06dc 9bbe 4cda 0341 04d2 403f ffc7 5440
00000200: ad69 ba3e 0d7b 0e3f 0dcf 1741 e44a 933e
00000210: 250e 23bd 30f5 6740 f395 053f 55bd d540
00000220: 2a17 a63f 3adf 1040 39f1 343f f3de 2d41
00000230: 74d8 aa3f fb64 3a40 a85e 3141 a1f0 c9be
00000240: f67f a63f 2349 333f 5af8 3840 7a5f 1840
00000250: 3474 a63e 228d 9b40 44f3 38be b88a 903f
00000260: 3a16 2f40 7574 e640 8e22 8040 46b8 7440
00000270: bc1f df40 877d c840 262d 4e3e 3c55 bebd
00000280: 1118 2b41 f7af 023e ab37 b540 29b1 0141
00000290: 27b7 5bbf afa2 af3f 0e26 123f e39b 6240
000002a0: c91c 59be d356 0cbf ba12 c940 e0a0 4042
000002b0: 5397 d740 fa3c 35bf 5fa6 8d3f 5f4a c1be
000002c0: bce4 a840 4704 0040 5580 c33c e664 8340
000002d0: 7f0d d5be fe0f aabe 79d9 8541 66bc 0241
000002e0: ee7c 653f 1c01 9940 c186 0fbf 16a3 ab3f
000002f0: 1d9a 3bbd f078 e8be f5b7 a3bd 545a e33e
00000300: 39f6 b83d 35a5 f33f d2d3 373f 9ba7 cd41
00000310: 8bff e040 ed12 d63f 0977 9a3e 2f3a 1e3d
00000320: f7d0 3cbe 6d39 78be 2c97 003f 4ee8 6740
00000330: ec7b 9c40 9350 db40 9d67 6340 1ebb 933f
00000340: 41f5 7b3d 0c6b 623d eb4f c43f 2e1b 27bf
00000350: 144d 36bf ae35 8f40 3334 94be 2d19 0c41
00000360: a171 fb3f 05ad bb40 7104 05be 1d3f d8be
00000370: 1b61 3c40 2d08 e73e 2833 0640 cf9d 7641
00000380: 9bf9 1b3f 79dd 933f 2893 1c41 d120 5d41
00000390: b876 4040 5c88 b73e 7993 913f 9d88 473f
000003a0: 94c0 ebbc 7309 c73f 7a83 4142 1621 19bf
000003b0: 9622 5340 e9f1 89be b75a 7f3f db8a 2cbf
000003c0: c063 87be bc0e 8440 8789 8040 c2a1 6ebe
000003d0: e8f0 4040 711c 193f 19d4 2741 7258 1dbe
000003e0: 817c ab41 bfff 6640 df98 1041 c94f 893f
000003f0: 8184 c43f b52a 023e 28f6 5440 bc60 2a3f

model.2.running_var f4 [256]
88.24068 541.2553 58.05345 30.798866 25.121954 33.754387 3.9891512 25.783642
39.95455 15.37173 20.99916 6.644361 187.9663 180.98422 37.057823 177.12486
59.616558 114.56184 0.17927279 38.214603 18.505188 1.3383371 43.895744 7.251728
30.881935 51.900074 22.702692 125.736694 52.236004 28.064318 1451.418 36.428627
233.14003 771.8628 38.66547 16.576385 82.32732 151.44698 121.98643 420.5125
298.88983 74.97324 11.456255 112.86867 103.07438 76.034355 51.996994 154.58041
56.45893 29.611248 9.134824 53.345066 153.60199 408.08044 14.390843 152.618
0.34867254 6.6197453 6.3111625 46.127342 2.8644276 35.566635 12.433093 11.655886
9.013745 22.931847 48.61956 14.556542 27.549118 40.61931 68.0598 246.7946
246.04807 9.112676 157.84637 35.43312 15.367391 201.79254 172.45045 48.618202
101.71009 74.98475 184.36304 34.519157 21.618614 54.208332 144.30765 31.370602
18.337729 6.2035127 18.155994 12.9593725 50.74676 212.12218 242.34164 91.30942
17.423626 14.2885685 93.40248 35.878345 166.24478 39.23044 43.381836 39.84786
7.730962 15.636406 183.46146 6.502304 33.884983 60.53432 268.07526 232.12233
18.254717 41.714954 102.77666 92.77139 91.4053 147.29189 69.65349 226.92462
39.193256 61.241558 136.70229 231.8242 8.08859 352.37234 30.096565 122.689705
17.290497 23.589947 392.40854 10.658907 27.735382 63.74035 24.623158 250.29637
65.04091 54.51864 31.226942 147.75603 32.57724 47.61522 367.8072 11.931558
39.109734 34.664364 62.78221 90.129135 15.254499 119.21155 10.414095 49.49958
66.92351 184.61345 74.83348 116.24206 205.77426 152.07487 20.451017 16.334843
194.50493 21.936428 71.222984 207.12831 1.53364 59.972294 34.818817 67.90849
10.396764 5.7842903 113.373604 310.83017 152.40524 3.6988149 29.950771 14.158386
113.32238 41.796932 13.646454 75.72224 8.893213 11.529142 650.35504 211.05159
49.78568 77.887794 4.3603387 34.73729 12.628786 8.652884 17.27671 22.296566
29.744974 55.847157 41.495003 1125.2416 191.51985 69.1563 19.387833 18.542044
15.916173 13.901982 31.052872 109.57005 172.70749 215.65805 94.767204 36.9903
16.279322 31.49684 33.6759 5.1129646 4.248986 105.169495 10.529826 149.6722
77.672264 154.27 14.956788 15.392775 123.47984 20.163801 31.339907 303.02344
18.767456 40.17801 71.822105 365.46936 63.95335 11.841576 53.99561 21.449577
12.270485 33.81453 182.29855 5.9843516 104.333855 8.369571 45.321747 3.1173193
11.468292 181.80855 157.84055 16.912355 142.5612 22.933716 292.5024 8.326526
828.6888 114.336044 189.03674 32.774235 47.575676 10.94664 84.022575 40.17964
00000000: 3a7b b042 5750 0744 bc36 6842 1464 f641
00000010: c3f9 c841 7e04 0742 414e 7f40 e644 ce41
00000020: 76d1 1f42 9bf2 7541 48fe a741 9b9e d440
00000030: 5ff7 3b43 f6fb 3443 363b 1442 f71f 3143
00000040: 5b77 6e42 a91f e542 4993 373e c1db 1842
00000050: a00a 9441 a14e ab3f 3e95 2f42 280e e840
00000060: 340e f741 ad99 4f42 1d9f b541 3079 fb42
00000070: abf1 5042 b983 e041 606d b544 eab6 1142
00000080: d923 6943 38f7 4044 71a9 1a42 709c 8441
00000090: 96a7 a442 6d72 1743 0df9 f342 9a41 d243
000000a0: e671 9543 4df2 9542 d24c 3741 c2bc e142
000000b0: 1526 ce42 9711 9842 ecfc 4f42 9694 1a43
000000c0: f2d5 6142 d6e3 ec41 3d28 1241 5961 5542
000000d0: 1c9a 1943 4c0a cc43 e540 6641 359e 1843
000000e0: 3585 b23e f4d4 d340 0bf5 c940 6682 3842
000000f0: c852 3740 3c44 0e42 f3ed 4641 827e 3a41
00000100: 4d38 1041 6c74 b741 6e7a 4242 99e7 6841
00000110: 9864 dc41 2c7a 2242 9e1e 8842 6bcb 7643
00000120: 4e0c 7643 85cd 1141 acd8 1d43 84bb 0d42
00000130: d5e0 7541 e4ca 4943 5173 2c43 0a79 4242
00000140: 916b cb42 31f8 9542 f05c 3843 9e13 0a42
00000150: ecf2 ac41 55d5 5842 c24e 1043 fef6 fa41
00000160: abb3 9241 2d83 c640 7a3f 9141 9759 4f41
00000170: affc 4a42 471f 5443 7657 7243 6c9e b642
00000180: 9663 8b41 fa9d 6441 12ce ba42 6d83 0f42
00000190: aa3e 2643 f8eb 1c42 0087 2d42 3564 1f42
000001a0: 0a64 f740 b82e 7a41 2276 3743 e012 d040
000001b0: 398a 0742 2523 7242 a209 8643 511f 6843
000001c0: a909 9241 1ddc 2642 a68d cd42 f48a b942
000001d0: 83cf b642 b94a 1343 964e 8b42 b4ec 6243
000001e0: e5c5 1c42 5bf7 7442 c9b3 0843 ffd2 6743
000001f0: dd6a 0141 a92f b043 c4c5 f041 2161 f542
00000200: f052 8a41 36b8 bc41 4b34 c443 e28a 2a41
00000210: 10e2 dd41 1ef6 7e42 3afc c441 df4b 7a43
00000220: f214 8242 1613 5a42 c7d0 f941 8bc1 1343
00000230: 184f 0242 fc75 3e42 52e7 b743 a9e7 3e41
00000240: 5e70 1c42 4fa8 0a42 fc20 7b42 1e42 b442
00000250: 6e12 7441 506c ee42 22a0 2641 92ff 4542
00000260: d6d8 8542 0b9d 3843 beaa 9542 ef7b e842
00000270: 36c6 4d43 2b13 1843 af9b a341 c2ad 8241
00000280: 4381 4243 ce7d af41 2b72 8e42 d920 4f43
00000290: 514e c43f a1e3 6f42 7846 0b42 26d1 8742
000002a0: 2559 2641 e818 b940 49bf e242 436a 9b43
000002b0: be67 1843 62b9 6c40 2e9b ef41 c088 6241
000002c0: 0fa5 e242 0f30 2742 e057 5a41 c971 9742
000002d0: 9a4a 0e41 5e77 3841 b996 2244 350d 5343
000002e0: 8924 4742 8dc6 9b42 e587 8b40 fcf2 0a42
000002f0: 820f 4a41 3672 0a41 b436 8a41 5e5f b241
00000300: b5f5 ed41 7d63 5f42 e2fa 2542 bba7 8c44
00000310: 1585 3f43 0750 8a42 481a 9b41 1b56 9441
00000320: a5a8 7e41 856e 5e41 486c f841 de23 db42
00000330: 1eb5 2c43 76a8 5743 cf88 bd42 11f6 1342
00000340: 0d3c 8241 87f9 fb41 1fb4 0642 689d a340
00000350: b1f7 8740 c856 d242 2b7a 2841 15ac 1543
00000360: 3358 9b42 1f45 1a43 014f 6f41 ce48 7641
00000370: aef5 f642 774f a141 21b8 fa41 0083 9743
00000380: c023 9641 48b6 2042 eba4 8f42 14bc b643
00000390: 3bd0 7f42 1877 3d41 81fb 5742 bc98 ab41
000003a0: e853 4441 1442 0742 6e4c 3643 cf7f bf40
000003b0: efaa d042 c3e9 0541 7849 3542 2982 4740
000003c0: 207e 3741 fdce 3543 2ed7 1d43 814c 8741
000003d0: ab8f 0e43 4078 b741 4f40 9243 7339 0541
000003e0: 152c 4f44 0eac e442 6809 3d43 d118 0342
000003f0: 7e4d 3e42 7025 2f41 8f0b a842 f4b7 2042

model.3.weight f4 [128, 256]
0.2804067 0.3090301 -0.14853817 0.6179334 0.19318049 -0.043345053 -0.018528359 -0.28669402
0.24945195 0.19248882 -0.5115641 -0.7721822 0.28591102 0.19082415 -0.16489902 -0.11172924
0.0044217957 0.043789458 -0.049637258 -0.06195333 0.27901867 0.44932646 0.10126131 -0.28003398
0.17118882 -0.40473843 -0.38112873 -0.3372426 -0.054254845 -0.14237386 0.05401883 -0.25729376
-0.017729867 -0.44178978 -0.17538366 -0.056565225 0.24425021 -0.10934925 -0.065312736 -0.369179
-0.28702334 0.1918831 -0.0627193 -0.32549882 0.13995914 0.038829174 0.012119083 -0.27781647
0.26671278 0.469341 0.108066335 0.0671932 -0.20049235 -0.28942183 -0.4382399 0.1286899
-0.3120363 -0.39978936 -0.076645404 -0.4289232 0.078090206 0.06004536 -0.19130152 0.11017651
0.15746313 0.37251076 0.12974678 0.79504144 -0.72601765 -0.07556343 0.13683204 0.3568035
-0.26991343 -0.009850879 -0.48009884 -0.18867758 -0.6256783 -0.09164491 -0.10587848 0.08174326
-0.1854797 -0.32806242 -0.057308473 -0.041364953 -0.019181823 0.7283511 -0.22735715 0.35795304
0.19988436 -0.5485804 -0.08015993 -0.3926303 -0.07712369 -0.17513251 -0.6123298 0.19332513
0.0070580794 0.25535223 -0.031468898 0.1066296 -0.5139409 0.35060155 -0.00047946317 -0.56341666
-0.19129263 0.33686048 -0.29230636 0.10376374 -0.23512834 -0.12130865 -0.25131416 0.13559692
-0.05768494 -0.5698831 -0.11755375 0.104163654 0.3136482 0.5645849 -0.27645943 0.108740635
-0.059374608 0.28281963 -0.65147465 -0.37893206 0.010960664 0.2833915 -0.03647207 -0.3107016
-0.5412157 -0.1807846 -0.020913882 0.11761402 -0.35050637 -0.41776705 0.31525856 -0.058137234
-0.21123911 -0.05805967 0.26816303 -0.5344944 -0.056465194 -0.59129274 0.092999436 -0.20530176
0.5395949 -0.0819786 -0.033381037 0.22453079 0.36691806 0.231782 -0.13911831 -0.53270835
0.5001769 -0.1622526 0.29562747 0.03402527 0.18254995 -0.23558785 -0.04369125 -0.23060371
0.6398261 0.41640085 -0.7229386 0.2561882 0.4435926 0.17470376 0.17628384 -0.32544297
-0.14816888 -0.13973747 0.11613013 -0.05742444 -0.70840186 -0.08032248 -0.097812675 0.43314976
-0.17291051 -0.40501282 0.24618588 -0.19680426 0.1556535 0.11722799 -0.69605505 -0.22344255
-0.29859158 -0.009256303 -0.30356425 0.07697317 0.4033771 0.42051557 -0.2440082 0.015142282
-0.06354705 -0.17890477 -0.28489473 -0.056659274 -0.023928763 -0.425464 0.3762299 -0.20685552
0.0035723178 -0.5060756 -0.009982392 -0.121499665 0.52281266 0.008401931 0.02613345 0.12316827
-0.37242785 -0.09660775 -0.06742584 0.15373662 0.18133341 0.1289088 -0.30504832 -0.16666597
-0.05156246 0.03339981 0.36670303 0.3818707 -0.03628667 -0.15698853 -0.3460164 -0.40515375
-0.53692514 0.5121263 -0.12840557 0.650066 0.17698313 0.23079833 0.1636286 0.0064502647
0.07695303 -0.07558747 -0.41742325 -0.16616064 0.15381032 0.34197974 -0.14475146 -0.04030721
-0.2678754 -0.5453434 -0.41282073 0.20249957 -0.016758638 0.08016047 0.32126653 -0.3809966
0.06581499 0.10884401 0.6621344 -0.29000258 -0.3473697 0.3258095 -0.66203696 -0.6120454
00000000: 7891 8f3e 3139 9e3e 641a 18be e230 1e3f
00000010: 1bd1 453e 958a 31bd c9c8 97bc 8fc9 92be
00000020: 5570 7f3e ca1b 453e ddf5 02bf bcad 45bf
00000030: ee62 923e 6867 433e 4adb 28be 4dd2 e4bd
00000040: b6e4 903b 935c 333d 7050 4bbd c6c2 7dbd
00000050: 89db 8e3e 1e0e e63e 1762 cf3d 9d60 8fbe
00000060: 1f4c 2f3e e039 cfbe 4e23 c3be 10ab acbe
00000070: 543a 5ebd 74ca 11be d942 5d3d 02bc 83be
00000080: 3a3e 91bc 4532 e2be c697 33be f0b0 67bd
00000090: ba1c 7a3e 80f2 dfbd afc2 85bd 0805 bdbe
000000a0: b9f4 92be 017d 443e fa72 80bd c8a7 a6be
000000b0: 7351 0f3e 570b 1f3d 1e8f 463c f63d 8ebe
000000c0: 948e 883e 774d f03e e251 dd3d 979c 893d
000000d0: de4d 4dbe 192f 94be fb60 e0be 49c7 033e
000000e0: 39c3 9fbe 31b1 ccbe 44f8 9cbd d29b dbbe
000000f0: c2ed 9f3d 20f2 753d 8ce4 43be 39a4 e13d
00000100: 043e 213e bbb9 be3e 57dc 043e d687 4b3f
00000110: 4bdc 39bf 00c1 9abd b31d 0c3e f3ae b63e
00000120: 1832 8abe 9565 21bc 84cf f5be b234 41be
00000130: 742c 20bf 54b0 bbbd d1d6 d8bd 0369 a73d
00000140: 64ee 3dbe ccf7 a7be 4abc 6abd 4c6e 29bd
00000150: 3323 9dbc 3875 3a3f 50d0 68be 9f45 b73e
00000160: 7cae 4c3e c46f 0cbf e42a a4bd d706 c9be
00000170: 06f3 9dbd f055 33be a5c1 1cbf 06f7 453e
00000180: 7647 e73b 87bd 823e 88e5 00bd 9f60 da3d
00000190: a191 03bf 0c82 b33e 7560 fbb9 133c 10bf
000001a0: 37e2 43be fa78 ac3e 2ea9 95be 1582 d43d
000001b0: 7cc5 70be ab70 f8bd 40ac 80be ebd9 0a3e
000001c0: 0b47 6cbd dce3 11bf 05c0 f0bd c153 d53d
000001d0: 7f96 a03e a388 103f 178c 8dbe 69b3 de3d
000001e0: ca32 73bd bccd 903e 0bc7 26bf 6203 c2be
000001f0: 5b94 333c b118 913e bd63 15bd 4814 9fbe
00000200: 1d8d 0abf 991f 39be 9753 abbc 9fdf f03d
00000210: 9275 b3be 90e5 d5be 9269 a13e 4f21 6ebd
00000220: 114f 58be facf 6dbd aa4c 893e a0d4 08bf
00000230: 0c48 67bd f65e 17bf 7d76 be3d a03a 52be
00000240: e422 0a3f 65e4 a7bd 8eba 08bd 66eb 653e
00000250: afdc bb3e 4358 6d3e 0875 0ebe 935f 08bf
00000260: 980b 003f 8c25 26be 7c5c 973e 155e 0b3d
00000270: 60ee 3a3e f13d 71be 99f5 32bd 6123 6cbe
00000280: a5cb 233f 7e32 d53e 8112 39bf 1a2b 833e
00000290: 921e e33e 8be5 323e c083 343e 76a0 a6be
000002a0: 95b9 17be 5717 0fbe a2d5 ed3d e435 6bbd
000002b0: d359 35bf 1d80 a4bd 0352 c8bd cec5 dd3e
000002c0: 740f 31be d75d cfbe 2718 7c3e 0e87 49be
000002d0: a263 1f3e 3a15 f03d aa30 32bf 20ce 64be
000002e0: ffe0 98be c0a7 17bc c66c 9bbe 1ca4 9d3d
000002f0: 7187 ce3e d14d d73e 49dd 79be 5517 783c
00000300: f524 82bd d032 37be b9dd 91be 8e13 68bd
00000310: 4106 c4bc 6bd6 d9be 35a1 c03e efd1 53be
00000320: 8c1d 6a3b 2c8e 01bf 308d 23bc d1d4 f8bd
00000330: 0dd7 053f 41a8 093c d115 d63c a53f fc3d
00000340: ddae bebe 49da c5bd 8f16 8abd 226d 1d3e
00000350: 77af 393e ab00 043e 4b2f 9cbe 7caa 2abe
00000360: 2833 53bd 3dce 083d 80c0 bb3e 8e84 c33e
00000370: 55a1 14bd 9ac1 20be 1029 b1be 5070 cfbe
00000380: ed73 09bf b61a 033f c07c 03be ba6a 263f
00000390: 113b 353e 6656 6c3e 418e 273e be5c d33b
000003a0: 8d99 9d3d 9acd 9abd 80b8 d5be 0426 2abe
000003b0: 7480 1d3e f817 af3e ba39 14be 2c19 25bd
000003c0: f726 89be a09b 0bbf 3d5d d3be 0c5c 4f3e
000003d0: 6949 89bc 2c2b a43d 0c7d a43e fd11 c3be
000003e0: 02ca 863d 9ce9 de3d a481 293f 387b 94be
000003f0: 71da b1be 81d0 a63e 417b 29bf 02af 1cbf

model.3.bias f4 [128]
0.060476486 -0.5279189 -0.18977948 -0.6242786 -0.1592285 -0.16807067 0.09553728 -0.33911768
0.026647134 -0.39439464 -0.12675074 -0.52565825 -0.6108153 -0.22700475 -0.12760386 -0.07909039
-0.16402245 -0.6096023 -0.3185309 0.06285906 -0.13147978 -0.15210584 -0.51165277 -0.21169797
-0.30970228 -0.11579352 -0.2290069 -0.3701476 -0.29643586 0.014025065 0.058134347 -0.104151234
-0.05404614 -0.21238911 -0.4856007 0.04249931 -0.10868048 -0.46802726 -0.29361945 -0.1341951
0.004682638 -0.19325669 -0.328092 -0.58935726 -0.109975204 -0.18848744 -0.64770144 0.10142766
-0.08023647 0.14347343 -0.30376017 -0.3057207 -0.10100347 -0.20590945 -0.1287252 -0.1544998
-0.16352212 -0.053842727 0.085976556 -0.20162521 0.16612504 -0.4196619 -0.19798164 0.017044764
-0.19723947 -0.3291105 -0.30970663 -0.2966022 -0.38758233 -0.17777438 0.07731165 -0.05268398
-0.16936427 -0.26046762 -0.036244918 -0.5479561 -0.20005964 -0.16549046 -0.52781725 -0.22428499
-0.20347884 0.04252589 0.074598834 0.27725816 -0.19254489 -0.575007 -0.5530601 0.05554087
-0.053155556 -0.32094494 -0.08221627 -0.18846251 -0.18582962 -0.14284025 -0.54739714 -0.46233726
-0.25818288 0.049085468 -0.2828507 -0.14293349 -0.19646557 -0.16709137 -0.20334794 -0.37161568
-0.7662354 -0.32221782 0.15895429 0.015604763 -0.09320105 -0.27744254 -0.2177242 -0.18822877
-0.46867073 -0.22498767 -0.19931097 -0.2790786 -0.31168962 -0.14490099 0.005751542 -0.14738022
-0.3871377 -0.048591793 -0.66456556 -0.63392645 0.058771126 -0.17242615 0.14820313 0.31293172
00000000: 31b6 773d b125 07bf 8d55 42be b9d0 1fbf
00000010: cc0c 23be b81a 2cbe 0da9 c33d d5a0 adbe
00000020: 174b da3c 18ee c9be f2ca 01be 8a91 06bf
00000030: 645e 1cbf ef73 68be 96aa 02be 24fa a1bd
00000040: 80f5 27be e50e 1cbf 7b16 a3be 40bc 803d
00000050: a3a2 06be a2c1 1bbe adfb 02bf 5ac7 58be
00000060: 4c91 9ebe 2725 edbd c980 6abe fc83 bdbe
00000070: 71c6 97be 63c9 653c 481e 6e3d 3e4d d5bd
00000080: 7c5f 5dbd 887c 59be a8a0 f8be c213 2e3d
00000090: df93 debd 45a1 efbe 4a55 96be 716a 09be
000000a0: d170 993b 15e5 45be adfb a7be 1ee0 16bf
000000b0: ae3a e1bd da02 41be c3cf 25bf 4eb9 cf3d
000000c0: 0553 a4bd b3ea 123e 7486 9bbe 6c87 9cbe
000000d0: e8da cebd edd9 52be 8ad0 03be 3235 1ebe
000000e0: 5872 27be 318a 5cbd 7a14 b03d d776 4ebe
000000f0: af1c 2a3e eddd d6be b3bb 4abe 76a1 8b3c
00000100: 25f9 49be 2c81 a8be de91 9ebe 3edc 97be
00000110: 3171 c6be 7d0a 36be 9255 9e3d 28cb 57bd
00000120: d46d 2dbe 035c 85be 8d75 14bd da46 0cbf
00000130: 6fdc 4cbe 5576 29be 081f 07bf f7aa 65be
00000140: c25c 50be a12f 2e3d 46c7 983d c8f4 8d3e
00000150: 7d2a 45be a933 13bf 5995 0dbf d37e 633d
00000160: a4b9 59bd e552 a4be 0161 a8bd 51fc 40be
00000170: 1f4a 3ebe b744 12be 3822 0cbf 78b7 ecbe
00000180: 8c30 84be d80d 493d cfd1 90be 285d 12be
00000190: 452e 49be 001a 2bbe 713a 50be 6944 bebe
000001a0: 0128 44bf bcf9 a4be eac4 223e 1fab 7f3c
000001b0: 31e0 bebd f30c 8ebe 18f3 5ebe 0bbf 40be
000001c0: 9cf5 efbe 2b63 66be 2d18 4cbe 64e3 8ebe
000001d0: c895 9fbe ed60 14be 6e77 bc3b d7ea 16be
000001e0: ea36 c6be 3008 47bd f820 2abf 0149 22bf
000001f0: feb9 703d 7b90 30be 90c2 173e 9638 a03e
